…
I0407 23:10:06.364089 29497 net.cpp:322] The NetState phase (0) differed from the phase (1) specified by a rule in layer cifar
I0407 23:10:06.364105 29497 net.cpp:322] The NetState phase (0) differed from the phase (1) specified by a rule in layer accuracy
I0407 23:10:06.364166 29497 net.cpp:49] Initializing net from parameters: 
name: "CIFAR10_full"
state {
  phase: TRAIN
}
layer {
  name: "cifar"
  type: "Data"
  top: "data"
  top: "label"
  include {
    phase: TRAIN
  }
  transform_param {
    mean_file: "examples/cifar10/mean.binaryproto"
  }
  data_param {
    source: "examples/cifar10/cifar10_train_lmdb"
    batch_size: 100
    backend: LMDB
  }
}
layer {
  name: "ip1"
  type: "InnerProduct"
  bottom: "data"
  top: "ip1"
  param {
    lr_mult: 1
  }
  param {
    lr_mult: 2
  }
  inner_product_param {
    num_output: 1024
    weight_filler {
      type: "xavier"
    }
  }
}
layer {
  name: "tanh1"
  type: "TanH"
  bottom: "ip1"
  top: "ip1"
}
layer {
  name: "ip1-2"
  type: "InnerProduct"
  bottom: "ip1"
  top: "ip1-2"
  param {
    lr_mult: 1
  }
  param {
    lr_mult: 2
  }
  inner_product_param {
    num_output: 128
    weight_filler {
      type: "xavier"
    }
  }
}
layer {
  name: "ip2"
  type: "InnerProduct"
  bottom: "ip1-2"
  top: "ip2"
  param {
    lr_mult: 1
  }
  param {
    lr_mult: 2
  }
  inner_product_param {
    num_output: 1024
    weight_filler {
      type: "xavier"
    }
  }
}
layer {
  name: "tanh2"
  type: "TanH"
  bottom: "ip2"
  top: "ip2"
}
layer {
  name: "ip3"
  type: "InnerProduct"
  bottom: "ip2"
  top: "ip3"
  param {
    lr_mult: 1
  }
  param {
    lr_mult: 2
  }
  inner_product_param {
    num_output: 1024
    weight_filler {
      type: "xavier"
    }
  }
}
layer {
  name: "tanh3"
  type: "TanH"
  bottom: "ip3"
  top: "ip3"
}
layer {
  name: "ip4"
  type: "InnerProduct"
  bottom: "ip3"
  top: "ip4"
  param {
    lr_mult: 1
  }
  param {
    lr_mult: 2
  }
  inner_product_param {
    num_output: 10
    weight_filler {
      type: "xavier"
    }
  }
}
layer {
  name: "loss"
  type: "SoftmaxWithLoss"
  bottom: "ip4"
  bottom: "label"
  top: "loss"
}
I0407 23:10:06.364238 29497 layer_factory.hpp:77] Creating layer cifar
I0407 23:10:06.364748 29497 net.cpp:106] Creating Layer cifar
I0407 23:10:06.364763 29497 net.cpp:411] cifar -> data
I0407 23:10:06.364797 29497 net.cpp:411] cifar -> label
I0407 23:10:06.364825 29497 data_transformer.cpp:25] Loading mean file from: examples/cifar10/mean.binaryproto
I0407 23:10:06.367110 29502 db_lmdb.cpp:38] Opened lmdb examples/cifar10/cifar10_train_lmdb
I0407 23:10:06.372426 29497 data_layer.cpp:41] output data size: 100,3,32,32
I0407 23:10:06.374703 29497 net.cpp:150] Setting up cifar
I0407 23:10:06.374737 29497 net.cpp:157] Top shape: 100 3 32 32 (307200)
I0407 23:10:06.374744 29497 net.cpp:157] Top shape: 100 (100)
I0407 23:10:06.374747 29497 net.cpp:165] Memory required for data: 1229200
I0407 23:10:06.374758 29497 layer_factory.hpp:77] Creating layer ip1
I0407 23:10:06.374770 29497 net.cpp:106] Creating Layer ip1
I0407 23:10:06.374776 29497 net.cpp:454] ip1 <- data
I0407 23:10:06.374786 29497 net.cpp:411] ip1 -> ip1
I0407 23:10:06.396292 29497 net.cpp:150] Setting up ip1
I0407 23:10:06.396322 29497 net.cpp:157] Top shape: 100 1024 (102400)
I0407 23:10:06.396325 29497 net.cpp:165] Memory required for data: 1638800
I0407 23:10:06.396343 29497 layer_factory.hpp:77] Creating layer tanh1
I0407 23:10:06.396366 29497 net.cpp:106] Creating Layer tanh1
I0407 23:10:06.396375 29497 net.cpp:454] tanh1 <- ip1
I0407 23:10:06.396380 29497 net.cpp:397] tanh1 -> ip1 (in-place)
I0407 23:10:06.660646 29497 net.cpp:150] Setting up tanh1
I0407 23:10:06.660677 29497 net.cpp:157] Top shape: 100 1024 (102400)
I0407 23:10:06.660682 29497 net.cpp:165] Memory required for data: 2048400
I0407 23:10:06.660689 29497 layer_factory.hpp:77] Creating layer ip1-2
I0407 23:10:06.660702 29497 net.cpp:106] Creating Layer ip1-2
I0407 23:10:06.660706 29497 net.cpp:454] ip1-2 <- ip1
I0407 23:10:06.660713 29497 net.cpp:411] ip1-2 -> ip1-2
I0407 23:10:06.661917 29497 net.cpp:150] Setting up ip1-2
I0407 23:10:06.661932 29497 net.cpp:157] Top shape: 100 128 (12800)
I0407 23:10:06.661936 29497 net.cpp:165] Memory required for data: 2099600
I0407 23:10:06.661947 29497 layer_factory.hpp:77] Creating layer ip2
I0407 23:10:06.661954 29497 net.cpp:106] Creating Layer ip2
I0407 23:10:06.661958 29497 net.cpp:454] ip2 <- ip1-2
I0407 23:10:06.661963 29497 net.cpp:411] ip2 -> ip2
I0407 23:10:06.662745 29497 net.cpp:150] Setting up ip2
I0407 23:10:06.662755 29497 net.cpp:157] Top shape: 100 1024 (102400)
I0407 23:10:06.662758 29497 net.cpp:165] Memory required for data: 2509200
I0407 23:10:06.662765 29497 layer_factory.hpp:77] Creating layer tanh2
I0407 23:10:06.662771 29497 net.cpp:106] Creating Layer tanh2
I0407 23:10:06.662775 29497 net.cpp:454] tanh2 <- ip2
I0407 23:10:06.662778 29497 net.cpp:397] tanh2 -> ip2 (in-place)
I0407 23:10:06.663404 29497 net.cpp:150] Setting up tanh2
I0407 23:10:06.663417 29497 net.cpp:157] Top shape: 100 1024 (102400)
I0407 23:10:06.663421 29497 net.cpp:165] Memory required for data: 2918800
I0407 23:10:06.663424 29497 layer_factory.hpp:77] Creating layer ip3
I0407 23:10:06.663431 29497 net.cpp:106] Creating Layer ip3
I0407 23:10:06.663434 29497 net.cpp:454] ip3 <- ip2
I0407 23:10:06.663439 29497 net.cpp:411] ip3 -> ip3
I0407 23:10:06.670285 29497 net.cpp:150] Setting up ip3
I0407 23:10:06.670300 29497 net.cpp:157] Top shape: 100 1024 (102400)
I0407 23:10:06.670305 29497 net.cpp:165] Memory required for data: 3328400
I0407 23:10:06.670310 29497 layer_factory.hpp:77] Creating layer tanh3
I0407 23:10:06.670316 29497 net.cpp:106] Creating Layer tanh3
I0407 23:10:06.670320 29497 net.cpp:454] tanh3 <- ip3
I0407 23:10:06.670325 29497 net.cpp:397] tanh3 -> ip3 (in-place)
I0407 23:10:06.670892 29497 net.cpp:150] Setting up tanh3
I0407 23:10:06.670905 29497 net.cpp:157] Top shape: 100 1024 (102400)
I0407 23:10:06.670910 29497 net.cpp:165] Memory required for data: 3738000
I0407 23:10:06.670913 29497 layer_factory.hpp:77] Creating layer ip4
I0407 23:10:06.670922 29497 net.cpp:106] Creating Layer ip4
I0407 23:10:06.670924 29497 net.cpp:454] ip4 <- ip3
I0407 23:10:06.670929 29497 net.cpp:411] ip4 -> ip4
I0407 23:10:06.671442 29497 net.cpp:150] Setting up ip4
I0407 23:10:06.671455 29497 net.cpp:157] Top shape: 100 10 (1000)
I0407 23:10:06.671459 29497 net.cpp:165] Memory required for data: 3742000
I0407 23:10:06.671468 29497 layer_factory.hpp:77] Creating layer loss
I0407 23:10:06.671475 29497 net.cpp:106] Creating Layer loss
I0407 23:10:06.671478 29497 net.cpp:454] loss <- ip4
I0407 23:10:06.671483 29497 net.cpp:454] loss <- label
I0407 23:10:06.671489 29497 net.cpp:411] loss -> loss
I0407 23:10:06.671499 29497 layer_factory.hpp:77] Creating layer loss
…
I0407 23:10:06.672536 29497 solver.cpp:181] Creating test net (#0) specified by net file: examples/cifar10/test/cifar10_full_train_test.prototxt
I0407 23:10:06.672561 29497 net.cpp:322] The NetState phase (1) differed from the phase (0) specified by a rule in layer cifar
I0407 23:10:06.672632 29497 net.cpp:49] Initializing net from parameters: 
name: "CIFAR10_full"
state {
  phase: TEST
}
layer {
  name: "cifar"
  type: "Data"
  top: "data"
  top: "label"
  include {
    phase: TEST
  }
  transform_param {
    mean_file: "examples/cifar10/mean.binaryproto"
  }
  data_param {
    source: "examples/cifar10/cifar10_test_lmdb"
    batch_size: 100
    backend: LMDB
  }
}
layer {
  name: "ip1"
  type: "InnerProduct"
  bottom: "data"
  top: "ip1"
  param {
    lr_mult: 1
  }
  param {
    lr_mult: 2
  }
  inner_product_param {
    num_output: 1024
    weight_filler {
      type: "xavier"
    }
  }
}
layer {
  name: "tanh1"
  type: "TanH"
  bottom: "ip1"
  top: "ip1"
}
layer {
  name: "ip1-2"
  type: "InnerProduct"
  bottom: "ip1"
  top: "ip1-2"
  param {
    lr_mult: 1
  }
  param {
    lr_mult: 2
  }
  inner_product_param {
    num_output: 128
    weight_filler {
      type: "xavier"
    }
  }
}
layer {
  name: "ip2"
  type: "InnerProduct"
  bottom: "ip1-2"
  top: "ip2"
  param {
    lr_mult: 1
  }
  param {
    lr_mult: 2
  }
  inner_product_param {
    num_output: 1024
    weight_filler {
      type: "xavier"
    }
  }
}
layer {
  name: "tanh2"
  type: "TanH"
  bottom: "ip2"
  top: "ip2"
}
layer {
  name: "ip3"
  type: "InnerProduct"
  bottom: "ip2"
  top: "ip3"
  param {
    lr_mult: 1
  }
  param {
    lr_mult: 2
  }
  inner_product_param {
    num_output: 1024
    weight_filler {
      type: "xavier"
    }
  }
}
layer {
  name: "tanh3"
  type: "TanH"
  bottom: "ip3"
  top: "ip3"
}
layer {
  name: "ip4"
  type: "InnerProduct"
  bottom: "ip3"
  top: "ip4"
  param {
    lr_mult: 1
  }
  param {
    lr_mult: 2
  }
  inner_product_param {
    num_output: 10
    weight_filler {
      type: "xavier"
    }
  }
}
layer {
  name: "accuracy"
  type: "Accuracy"
  bottom: "ip4"
  bottom: "label"
  top: "accuracy"
  include {
    phase: TEST
  }
}
layer {
  name: "loss"
  type: "SoftmaxWithLoss"
  bottom: "ip4"
  bottom: "label"
  top: "loss"
}
I0407 23:10:06.672703 29497 layer_factory.hpp:77] Creating layer cifar
I0407 23:10:06.672801 29497 net.cpp:106] Creating Layer cifar
I0407 23:10:06.672832 29497 net.cpp:411] cifar -> data
I0407 23:10:06.672844 29497 net.cpp:411] cifar -> label
I0407 23:10:06.672852 29497 data_transformer.cpp:25] Loading mean file from: examples/cifar10/mean.binaryproto
I0407 23:10:06.674448 29504 db_lmdb.cpp:38] Opened lmdb examples/cifar10/cifar10_test_lmdb
I0407 23:10:06.674581 29497 data_layer.cpp:41] output data size: 100,3,32,32
I0407 23:10:06.676771 29497 net.cpp:150] Setting up cifar
I0407 23:10:06.676786 29497 net.cpp:157] Top shape: 100 3 32 32 (307200)
I0407 23:10:06.676791 29497 net.cpp:157] Top shape: 100 (100)
I0407 23:10:06.676795 29497 net.cpp:165] Memory required for data: 1229200
I0407 23:10:06.676798 29497 layer_factory.hpp:77] Creating layer label_cifar_1_split
I0407 23:10:06.676828 29497 net.cpp:106] Creating Layer label_cifar_1_split
I0407 23:10:06.676832 29497 net.cpp:454] label_cifar_1_split <- label
I0407 23:10:06.676839 29497 net.cpp:411] label_cifar_1_split -> label_cifar_1_split_0
I0407 23:10:06.676846 29497 net.cpp:411] label_cifar_1_split -> label_cifar_1_split_1
I0407 23:10:06.676908 29497 net.cpp:150] Setting up label_cifar_1_split
I0407 23:10:06.676921 29497 net.cpp:157] Top shape: 100 (100)
I0407 23:10:06.676925 29497 net.cpp:157] Top shape: 100 (100)
I0407 23:10:06.676928 29497 net.cpp:165] Memory required for data: 1230000
I0407 23:10:06.676931 29497 layer_factory.hpp:77] Creating layer ip1
I0407 23:10:06.676954 29497 net.cpp:106] Creating Layer ip1
I0407 23:10:06.676964 29497 net.cpp:454] ip1 <- data
I0407 23:10:06.676975 29497 net.cpp:411] ip1 -> ip1
I0407 23:10:06.697931 29497 net.cpp:150] Setting up ip1
I0407 23:10:06.697962 29497 net.cpp:157] Top shape: 100 1024 (102400)
I0407 23:10:06.697968 29497 net.cpp:165] Memory required for data: 1639600
I0407 23:10:06.697986 29497 layer_factory.hpp:77] Creating layer tanh1
I0407 23:10:06.698001 29497 net.cpp:106] Creating Layer tanh1
I0407 23:10:06.698006 29497 net.cpp:454] tanh1 <- ip1
I0407 23:10:06.698011 29497 net.cpp:397] tanh1 -> ip1 (in-place)
I0407 23:10:06.698775 29497 net.cpp:150] Setting up tanh1
I0407 23:10:06.698789 29497 net.cpp:157] Top shape: 100 1024 (102400)
I0407 23:10:06.698793 29497 net.cpp:165] Memory required for data: 2049200
I0407 23:10:06.698796 29497 layer_factory.hpp:77] Creating layer ip1-2
I0407 23:10:06.698807 29497 net.cpp:106] Creating Layer ip1-2
I0407 23:10:06.698809 29497 net.cpp:454] ip1-2 <- ip1
I0407 23:10:06.698817 29497 net.cpp:411] ip1-2 -> ip1-2
I0407 23:10:06.700007 29497 net.cpp:150] Setting up ip1-2
I0407 23:10:06.700021 29497 net.cpp:157] Top shape: 100 128 (12800)
I0407 23:10:06.700024 29497 net.cpp:165] Memory required for data: 2100400
I0407 23:10:06.700033 29497 layer_factory.hpp:77] Creating layer ip2
I0407 23:10:06.700042 29497 net.cpp:106] Creating Layer ip2
I0407 23:10:06.700047 29497 net.cpp:454] ip2 <- ip1-2
I0407 23:10:06.700052 29497 net.cpp:411] ip2 -> ip2
I0407 23:10:06.700845 29497 net.cpp:150] Setting up ip2
I0407 23:10:06.700856 29497 net.cpp:157] Top shape: 100 1024 (102400)
I0407 23:10:06.700860 29497 net.cpp:165] Memory required for data: 2510000
I0407 23:10:06.700866 29497 layer_factory.hpp:77] Creating layer tanh2
I0407 23:10:06.700872 29497 net.cpp:106] Creating Layer tanh2
I0407 23:10:06.700876 29497 net.cpp:454] tanh2 <- ip2
I0407 23:10:06.700881 29497 net.cpp:397] tanh2 -> ip2 (in-place)
I0407 23:10:06.701483 29497 net.cpp:150] Setting up tanh2
I0407 23:10:06.701498 29497 net.cpp:157] Top shape: 100 1024 (102400)
I0407 23:10:06.701500 29497 net.cpp:165] Memory required for data: 2919600
I0407 23:10:06.701503 29497 layer_factory.hpp:77] Creating layer ip3
I0407 23:10:06.701510 29497 net.cpp:106] Creating Layer ip3
I0407 23:10:06.701514 29497 net.cpp:454] ip3 <- ip2
I0407 23:10:06.701519 29497 net.cpp:411] ip3 -> ip3
I0407 23:10:06.708397 29497 net.cpp:150] Setting up ip3
I0407 23:10:06.708416 29497 net.cpp:157] Top shape: 100 1024 (102400)
I0407 23:10:06.708420 29497 net.cpp:165] Memory required for data: 3329200
I0407 23:10:06.708426 29497 layer_factory.hpp:77] Creating layer tanh3
I0407 23:10:06.708436 29497 net.cpp:106] Creating Layer tanh3
I0407 23:10:06.708439 29497 net.cpp:454] tanh3 <- ip3
I0407 23:10:06.708444 29497 net.cpp:397] tanh3 -> ip3 (in-place)
I0407 23:10:06.709064 29497 net.cpp:150] Setting up tanh3
I0407 23:10:06.709079 29497 net.cpp:157] Top shape: 100 1024 (102400)
I0407 23:10:06.709082 29497 net.cpp:165] Memory required for data: 3738800
I0407 23:10:06.709085 29497 layer_factory.hpp:77] Creating layer ip4
I0407 23:10:06.709094 29497 net.cpp:106] Creating Layer ip4
I0407 23:10:06.709096 29497 net.cpp:454] ip4 <- ip3
I0407 23:10:06.709101 29497 net.cpp:411] ip4 -> ip4
I0407 23:10:06.709264 29497 net.cpp:150] Setting up ip4
I0407 23:10:06.709272 29497 net.cpp:157] Top shape: 100 10 (1000)
I0407 23:10:06.709275 29497 net.cpp:165] Memory required for data: 3742800
I0407 23:10:06.709283 29497 layer_factory.hpp:77] Creating layer ip4_ip4_0_split
I0407 23:10:06.709290 29497 net.cpp:106] Creating Layer ip4_ip4_0_split
I0407 23:10:06.709293 29497 net.cpp:454] ip4_ip4_0_split <- ip4
I0407 23:10:06.709297 29497 net.cpp:411] ip4_ip4_0_split -> ip4_ip4_0_split_0
I0407 23:10:06.709302 29497 net.cpp:411] ip4_ip4_0_split -> ip4_ip4_0_split_1
I0407 23:10:06.709333 29497 net.cpp:150] Setting up ip4_ip4_0_split
I0407 23:10:06.709342 29497 net.cpp:157] Top shape: 100 10 (1000)
I0407 23:10:06.709345 29497 net.cpp:157] Top shape: 100 10 (1000)
I0407 23:10:06.709348 29497 net.cpp:165] Memory required for data: 3750800
I0407 23:10:06.709367 29497 layer_factory.hpp:77] Creating layer accuracy
I0407 23:10:06.709378 29497 net.cpp:106] Creating Layer accuracy
I0407 23:10:06.709380 29497 net.cpp:454] accuracy <- ip4_ip4_0_split_0
I0407 23:10:06.709383 29497 net.cpp:454] accuracy <- label_cifar_1_split_0
I0407 23:10:06.709388 29497 net.cpp:411] accuracy -> accuracy
…
