…
I0408 01:50:18.890338 30060 net.cpp:322] The NetState phase (0) differed from the phase (1) specified by a rule in layer cifar
I0408 01:50:18.890355 30060 net.cpp:322] The NetState phase (0) differed from the phase (1) specified by a rule in layer accuracy
I0408 01:50:18.890447 30060 net.cpp:49] Initializing net from parameters: 
name: "CIFAR10_full"
state {
  phase: TRAIN
}
layer {
  name: "cifar"
  type: "Data"
  top: "data"
  top: "label"
  include {
    phase: TRAIN
  }
  transform_param {
    mean_file: "examples/cifar10/mean.binaryproto"
  }
  data_param {
    source: "examples/cifar10/cifar10_train_lmdb"
    batch_size: 100
    backend: LMDB
  }
}
layer {
  name: "ip1"
  type: "InnerProduct"
  bottom: "data"
  top: "ip1"
  param {
    lr_mult: 1
  }
  param {
    lr_mult: 2
  }
  inner_product_param {
    num_output: 1024
    weight_filler {
      type: "xavier"
    }
  }
}
layer {
  name: "tanh1"
  type: "TanH"
  bottom: "ip1"
  top: "ip1"
}
layer {
  name: "ip1-2"
  type: "InnerProduct"
  bottom: "ip1"
  top: "ip1-2"
  param {
    lr_mult: 1
  }
  param {
    lr_mult: 2
  }
  inner_product_param {
    num_output: 128
    weight_filler {
      type: "xavier"
    }
  }
}
layer {
  name: "ip2"
  type: "InnerProduct"
  bottom: "ip1-2"
  top: "ip2"
  param {
    lr_mult: 1
  }
  param {
    lr_mult: 2
  }
  inner_product_param {
    num_output: 1024
    weight_filler {
      type: "xavier"
    }
  }
}
layer {
  name: "tanh2"
  type: "TanH"
  bottom: "ip2"
  top: "ip2"
}
layer {
  name: "ip2-3"
  type: "InnerProduct"
  bottom: "ip2"
  top: "ip2-3"
  param {
    lr_mult: 1
  }
  param {
    lr_mult: 2
  }
  inner_product_param {
    num_output: 128
    weight_filler {
      type: "xavier"
    }
  }
}
layer {
  name: "ip3"
  type: "InnerProduct"
  bottom: "ip2-3"
  top: "ip3"
  param {
    lr_mult: 1
  }
  param {
    lr_mult: 2
  }
  inner_product_param {
    num_output: 1024
    weight_filler {
      type: "xavier"
    }
  }
}
layer {
  name: "tanh3"
  type: "TanH"
  bottom: "ip3"
  top: "ip3"
}
layer {
  name: "ip4"
  type: "InnerProduct"
  bottom: "ip3"
  top: "ip4"
  param {
    lr_mult: 1
  }
  param {
    lr_mult: 2
  }
  inner_product_param {
    num_output: 10
    weight_filler {
      type: "xavier"
    }
  }
}
layer {
  name: "loss"
  type: "SoftmaxWithLoss"
  bottom: "ip4"
  bottom: "label"
  top: "loss"
}
I0408 01:50:18.890533 30060 layer_factory.hpp:77] Creating layer cifar
I0408 01:50:18.891145 30060 net.cpp:106] Creating Layer cifar
I0408 01:50:18.891168 30060 net.cpp:411] cifar -> data
I0408 01:50:18.891214 30060 net.cpp:411] cifar -> label
I0408 01:50:18.891247 30060 data_transformer.cpp:25] Loading mean file from: examples/cifar10/mean.binaryproto
I0408 01:50:18.892868 30065 db_lmdb.cpp:38] Opened lmdb examples/cifar10/cifar10_train_lmdb
I0408 01:50:18.899176 30060 data_layer.cpp:41] output data size: 100,3,32,32
I0408 01:50:18.901597 30060 net.cpp:150] Setting up cifar
I0408 01:50:18.901641 30060 net.cpp:157] Top shape: 100 3 32 32 (307200)
I0408 01:50:18.901651 30060 net.cpp:157] Top shape: 100 (100)
I0408 01:50:18.901655 30060 net.cpp:165] Memory required for data: 1229200
I0408 01:50:18.901671 30060 layer_factory.hpp:77] Creating layer ip1
I0408 01:50:18.901695 30060 net.cpp:106] Creating Layer ip1
I0408 01:50:18.901701 30060 net.cpp:454] ip1 <- data
I0408 01:50:18.901713 30060 net.cpp:411] ip1 -> ip1
I0408 01:50:18.923815 30060 net.cpp:150] Setting up ip1
I0408 01:50:18.923854 30060 net.cpp:157] Top shape: 100 1024 (102400)
I0408 01:50:18.923858 30060 net.cpp:165] Memory required for data: 1638800
I0408 01:50:18.923907 30060 layer_factory.hpp:77] Creating layer tanh1
I0408 01:50:18.923921 30060 net.cpp:106] Creating Layer tanh1
I0408 01:50:18.923925 30060 net.cpp:454] tanh1 <- ip1
I0408 01:50:18.923933 30060 net.cpp:397] tanh1 -> ip1 (in-place)
I0408 01:50:19.359724 30060 net.cpp:150] Setting up tanh1
I0408 01:50:19.359761 30060 net.cpp:157] Top shape: 100 1024 (102400)
I0408 01:50:19.359766 30060 net.cpp:165] Memory required for data: 2048400
I0408 01:50:19.359772 30060 layer_factory.hpp:77] Creating layer ip1-2
I0408 01:50:19.359786 30060 net.cpp:106] Creating Layer ip1-2
I0408 01:50:19.359791 30060 net.cpp:454] ip1-2 <- ip1
I0408 01:50:19.359798 30060 net.cpp:411] ip1-2 -> ip1-2
I0408 01:50:19.361155 30060 net.cpp:150] Setting up ip1-2
I0408 01:50:19.361188 30060 net.cpp:157] Top shape: 100 128 (12800)
I0408 01:50:19.361192 30060 net.cpp:165] Memory required for data: 2099600
I0408 01:50:19.361207 30060 layer_factory.hpp:77] Creating layer ip2
I0408 01:50:19.361220 30060 net.cpp:106] Creating Layer ip2
I0408 01:50:19.361224 30060 net.cpp:454] ip2 <- ip1-2
I0408 01:50:19.361232 30060 net.cpp:411] ip2 -> ip2
I0408 01:50:19.362104 30060 net.cpp:150] Setting up ip2
I0408 01:50:19.362131 30060 net.cpp:157] Top shape: 100 1024 (102400)
I0408 01:50:19.362134 30060 net.cpp:165] Memory required for data: 2509200
I0408 01:50:19.362145 30060 layer_factory.hpp:77] Creating layer tanh2
I0408 01:50:19.362156 30060 net.cpp:106] Creating Layer tanh2
I0408 01:50:19.362160 30060 net.cpp:454] tanh2 <- ip2
I0408 01:50:19.362165 30060 net.cpp:397] tanh2 -> ip2 (in-place)
I0408 01:50:19.363023 30060 net.cpp:150] Setting up tanh2
I0408 01:50:19.363054 30060 net.cpp:157] Top shape: 100 1024 (102400)
I0408 01:50:19.363059 30060 net.cpp:165] Memory required for data: 2918800
I0408 01:50:19.363064 30060 layer_factory.hpp:77] Creating layer ip2-3
I0408 01:50:19.363078 30060 net.cpp:106] Creating Layer ip2-3
I0408 01:50:19.363083 30060 net.cpp:454] ip2-3 <- ip2
I0408 01:50:19.363091 30060 net.cpp:411] ip2-3 -> ip2-3
I0408 01:50:19.364413 30060 net.cpp:150] Setting up ip2-3
I0408 01:50:19.364445 30060 net.cpp:157] Top shape: 100 128 (12800)
I0408 01:50:19.364449 30060 net.cpp:165] Memory required for data: 2970000
I0408 01:50:19.364459 30060 layer_factory.hpp:77] Creating layer ip3
I0408 01:50:19.364471 30060 net.cpp:106] Creating Layer ip3
I0408 01:50:19.364476 30060 net.cpp:454] ip3 <- ip2-3
I0408 01:50:19.364482 30060 net.cpp:411] ip3 -> ip3
I0408 01:50:19.365348 30060 net.cpp:150] Setting up ip3
I0408 01:50:19.365370 30060 net.cpp:157] Top shape: 100 1024 (102400)
I0408 01:50:19.365372 30060 net.cpp:165] Memory required for data: 3379600
I0408 01:50:19.365386 30060 layer_factory.hpp:77] Creating layer tanh3
I0408 01:50:19.365396 30060 net.cpp:106] Creating Layer tanh3
I0408 01:50:19.365401 30060 net.cpp:454] tanh3 <- ip3
I0408 01:50:19.365406 30060 net.cpp:397] tanh3 -> ip3 (in-place)
I0408 01:50:19.366155 30060 net.cpp:150] Setting up tanh3
I0408 01:50:19.366179 30060 net.cpp:157] Top shape: 100 1024 (102400)
I0408 01:50:19.366183 30060 net.cpp:165] Memory required for data: 3789200
I0408 01:50:19.366188 30060 layer_factory.hpp:77] Creating layer ip4
I0408 01:50:19.366197 30060 net.cpp:106] Creating Layer ip4
I0408 01:50:19.366202 30060 net.cpp:454] ip4 <- ip3
I0408 01:50:19.366209 30060 net.cpp:411] ip4 -> ip4
I0408 01:50:19.366842 30060 net.cpp:150] Setting up ip4
I0408 01:50:19.366863 30060 net.cpp:157] Top shape: 100 10 (1000)
I0408 01:50:19.366865 30060 net.cpp:165] Memory required for data: 3793200
I0408 01:50:19.366873 30060 layer_factory.hpp:77] Creating layer loss
I0408 01:50:19.366880 30060 net.cpp:106] Creating Layer loss
I0408 01:50:19.366883 30060 net.cpp:454] loss <- ip4
I0408 01:50:19.366888 30060 net.cpp:454] loss <- label
I0408 01:50:19.366899 30060 net.cpp:411] loss -> loss
I0408 01:50:19.366927 30060 layer_factory.hpp:77] Creating layer loss
…
I0408 01:50:19.368252 30060 solver.cpp:181] Creating test net (#0) specified by net file: examples/cifar10/test/cifar10_full_train_test.prototxt
I0408 01:50:19.368281 30060 net.cpp:322] The NetState phase (1) differed from the phase (0) specified by a rule in layer cifar
I0408 01:50:19.368366 30060 net.cpp:49] Initializing net from parameters: 
name: "CIFAR10_full"
state {
  phase: TEST
}
layer {
  name: "cifar"
  type: "Data"
  top: "data"
  top: "label"
  include {
    phase: TEST
  }
  transform_param {
    mean_file: "examples/cifar10/mean.binaryproto"
  }
  data_param {
    source: "examples/cifar10/cifar10_test_lmdb"
    batch_size: 100
    backend: LMDB
  }
}
layer {
  name: "ip1"
  type: "InnerProduct"
  bottom: "data"
  top: "ip1"
  param {
    lr_mult: 1
  }
  param {
    lr_mult: 2
  }
  inner_product_param {
    num_output: 1024
    weight_filler {
      type: "xavier"
    }
  }
}
layer {
  name: "tanh1"
  type: "TanH"
  bottom: "ip1"
  top: "ip1"
}
layer {
  name: "ip1-2"
  type: "InnerProduct"
  bottom: "ip1"
  top: "ip1-2"
  param {
    lr_mult: 1
  }
  param {
    lr_mult: 2
  }
  inner_product_param {
    num_output: 128
    weight_filler {
      type: "xavier"
    }
  }
}
layer {
  name: "ip2"
  type: "InnerProduct"
  bottom: "ip1-2"
  top: "ip2"
  param {
    lr_mult: 1
  }
  param {
    lr_mult: 2
  }
  inner_product_param {
    num_output: 1024
    weight_filler {
      type: "xavier"
    }
  }
}
layer {
  name: "tanh2"
  type: "TanH"
  bottom: "ip2"
  top: "ip2"
}
layer {
  name: "ip2-3"
  type: "InnerProduct"
  bottom: "ip2"
  top: "ip2-3"
  param {
    lr_mult: 1
  }
  param {
    lr_mult: 2
  }
  inner_product_param {
    num_output: 128
    weight_filler {
      type: "xavier"
    }
  }
}
layer {
  name: "ip3"
  type: "InnerProduct"
  bottom: "ip2-3"
  top: "ip3"
  param {
    lr_mult: 1
  }
  param {
    lr_mult: 2
  }
  inner_product_param {
    num_output: 1024
    weight_filler {
      type: "xavier"
    }
  }
}
layer {
  name: "tanh3"
  type: "TanH"
  bottom: "ip3"
  top: "ip3"
}
layer {
  name: "ip4"
  type: "InnerProduct"
  bottom: "ip3"
  top: "ip4"
  param {
    lr_mult: 1
  }
  param {
    lr_mult: 2
  }
  inner_product_param {
    num_output: 10
    weight_filler {
      type: "xavier"
    }
  }
}
layer {
  name: "accuracy"
  type: "Accuracy"
  bottom: "ip4"
  bottom: "label"
  top: "accuracy"
  include {
    phase: TEST
  }
}
layer {
  name: "loss"
  type: "SoftmaxWithLoss"
  bottom: "ip4"
  bottom: "label"
  top: "loss"
}
I0408 01:50:19.368437 30060 layer_factory.hpp:77] Creating layer cifar
I0408 01:50:19.368544 30060 net.cpp:106] Creating Layer cifar
I0408 01:50:19.368556 30060 net.cpp:411] cifar -> data
I0408 01:50:19.368564 30060 net.cpp:411] cifar -> label
I0408 01:50:19.368577 30060 data_transformer.cpp:25] Loading mean file from: examples/cifar10/mean.binaryproto
I0408 01:50:19.369951 30067 db_lmdb.cpp:38] Opened lmdb examples/cifar10/cifar10_test_lmdb
I0408 01:50:19.370118 30060 data_layer.cpp:41] output data size: 100,3,32,32
I0408 01:50:19.372762 30060 net.cpp:150] Setting up cifar
I0408 01:50:19.372823 30060 net.cpp:157] Top shape: 100 3 32 32 (307200)
I0408 01:50:19.372833 30060 net.cpp:157] Top shape: 100 (100)
I0408 01:50:19.372838 30060 net.cpp:165] Memory required for data: 1229200
I0408 01:50:19.372844 30060 layer_factory.hpp:77] Creating layer label_cifar_1_split
I0408 01:50:19.372866 30060 net.cpp:106] Creating Layer label_cifar_1_split
I0408 01:50:19.372871 30060 net.cpp:454] label_cifar_1_split <- label
I0408 01:50:19.372879 30060 net.cpp:411] label_cifar_1_split -> label_cifar_1_split_0
I0408 01:50:19.372886 30060 net.cpp:411] label_cifar_1_split -> label_cifar_1_split_1
I0408 01:50:19.372982 30060 net.cpp:150] Setting up label_cifar_1_split
I0408 01:50:19.372992 30060 net.cpp:157] Top shape: 100 (100)
I0408 01:50:19.372997 30060 net.cpp:157] Top shape: 100 (100)
I0408 01:50:19.372999 30060 net.cpp:165] Memory required for data: 1230000
I0408 01:50:19.373003 30060 layer_factory.hpp:77] Creating layer ip1
I0408 01:50:19.373011 30060 net.cpp:106] Creating Layer ip1
I0408 01:50:19.373016 30060 net.cpp:454] ip1 <- data
I0408 01:50:19.373028 30060 net.cpp:411] ip1 -> ip1
I0408 01:50:19.396019 30060 net.cpp:150] Setting up ip1
I0408 01:50:19.396081 30060 net.cpp:157] Top shape: 100 1024 (102400)
I0408 01:50:19.396092 30060 net.cpp:165] Memory required for data: 1639600
I0408 01:50:19.396123 30060 layer_factory.hpp:77] Creating layer tanh1
I0408 01:50:19.396142 30060 net.cpp:106] Creating Layer tanh1
I0408 01:50:19.396149 30060 net.cpp:454] tanh1 <- ip1
I0408 01:50:19.396157 30060 net.cpp:397] tanh1 -> ip1 (in-place)
I0408 01:50:19.397406 30060 net.cpp:150] Setting up tanh1
I0408 01:50:19.397431 30060 net.cpp:157] Top shape: 100 1024 (102400)
I0408 01:50:19.397438 30060 net.cpp:165] Memory required for data: 2049200
I0408 01:50:19.397444 30060 layer_factory.hpp:77] Creating layer ip1-2
I0408 01:50:19.397460 30060 net.cpp:106] Creating Layer ip1-2
I0408 01:50:19.397466 30060 net.cpp:454] ip1-2 <- ip1
I0408 01:50:19.397477 30060 net.cpp:411] ip1-2 -> ip1-2
I0408 01:50:19.399369 30060 net.cpp:150] Setting up ip1-2
I0408 01:50:19.399391 30060 net.cpp:157] Top shape: 100 128 (12800)
I0408 01:50:19.399396 30060 net.cpp:165] Memory required for data: 2100400
I0408 01:50:19.399411 30060 layer_factory.hpp:77] Creating layer ip2
I0408 01:50:19.399426 30060 net.cpp:106] Creating Layer ip2
I0408 01:50:19.399432 30060 net.cpp:454] ip2 <- ip1-2
I0408 01:50:19.399440 30060 net.cpp:411] ip2 -> ip2
I0408 01:50:19.400753 30060 net.cpp:150] Setting up ip2
I0408 01:50:19.400770 30060 net.cpp:157] Top shape: 100 1024 (102400)
I0408 01:50:19.400775 30060 net.cpp:165] Memory required for data: 2510000
I0408 01:50:19.400789 30060 layer_factory.hpp:77] Creating layer tanh2
I0408 01:50:19.400799 30060 net.cpp:106] Creating Layer tanh2
I0408 01:50:19.400805 30060 net.cpp:454] tanh2 <- ip2
I0408 01:50:19.400812 30060 net.cpp:397] tanh2 -> ip2 (in-place)
I0408 01:50:19.401814 30060 net.cpp:150] Setting up tanh2
I0408 01:50:19.401839 30060 net.cpp:157] Top shape: 100 1024 (102400)
I0408 01:50:19.401844 30060 net.cpp:165] Memory required for data: 2919600
I0408 01:50:19.401849 30060 layer_factory.hpp:77] Creating layer ip2-3
I0408 01:50:19.401861 30060 net.cpp:106] Creating Layer ip2-3
I0408 01:50:19.401867 30060 net.cpp:454] ip2-3 <- ip2
I0408 01:50:19.401877 30060 net.cpp:411] ip2-3 -> ip2-3
I0408 01:50:19.403723 30060 net.cpp:150] Setting up ip2-3
I0408 01:50:19.403743 30060 net.cpp:157] Top shape: 100 128 (12800)
I0408 01:50:19.403748 30060 net.cpp:165] Memory required for data: 2970800
I0408 01:50:19.403759 30060 layer_factory.hpp:77] Creating layer ip3
I0408 01:50:19.403776 30060 net.cpp:106] Creating Layer ip3
I0408 01:50:19.403781 30060 net.cpp:454] ip3 <- ip2-3
I0408 01:50:19.403789 30060 net.cpp:411] ip3 -> ip3
I0408 01:50:19.405107 30060 net.cpp:150] Setting up ip3
I0408 01:50:19.405125 30060 net.cpp:157] Top shape: 100 1024 (102400)
I0408 01:50:19.405130 30060 net.cpp:165] Memory required for data: 3380400
I0408 01:50:19.405143 30060 layer_factory.hpp:77] Creating layer tanh3
I0408 01:50:19.405175 30060 net.cpp:106] Creating Layer tanh3
I0408 01:50:19.405181 30060 net.cpp:454] tanh3 <- ip3
I0408 01:50:19.405187 30060 net.cpp:397] tanh3 -> ip3 (in-place)
I0408 01:50:19.406196 30060 net.cpp:150] Setting up tanh3
I0408 01:50:19.406216 30060 net.cpp:157] Top shape: 100 1024 (102400)
I0408 01:50:19.406222 30060 net.cpp:165] Memory required for data: 3790000
I0408 01:50:19.406229 30060 layer_factory.hpp:77] Creating layer ip4
I0408 01:50:19.406239 30060 net.cpp:106] Creating Layer ip4
I0408 01:50:19.406245 30060 net.cpp:454] ip4 <- ip3
I0408 01:50:19.406255 30060 net.cpp:411] ip4 -> ip4
I0408 01:50:19.406500 30060 net.cpp:150] Setting up ip4
I0408 01:50:19.406514 30060 net.cpp:157] Top shape: 100 10 (1000)
I0408 01:50:19.406519 30060 net.cpp:165] Memory required for data: 3794000
I0408 01:50:19.406528 30060 layer_factory.hpp:77] Creating layer ip4_ip4_0_split
I0408 01:50:19.406538 30060 net.cpp:106] Creating Layer ip4_ip4_0_split
I0408 01:50:19.406541 30060 net.cpp:454] ip4_ip4_0_split <- ip4
I0408 01:50:19.406570 30060 net.cpp:411] ip4_ip4_0_split -> ip4_ip4_0_split_0
I0408 01:50:19.406584 30060 net.cpp:411] ip4_ip4_0_split -> ip4_ip4_0_split_1
I0408 01:50:19.406635 30060 net.cpp:150] Setting up ip4_ip4_0_split
I0408 01:50:19.406658 30060 net.cpp:157] Top shape: 100 10 (1000)
I0408 01:50:19.406668 30060 net.cpp:157] Top shape: 100 10 (1000)
I0408 01:50:19.406673 30060 net.cpp:165] Memory required for data: 3802000
I0408 01:50:19.406678 30060 layer_factory.hpp:77] Creating layer accuracy
I0408 01:50:19.406687 30060 net.cpp:106] Creating Layer accuracy
I0408 01:50:19.406692 30060 net.cpp:454] accuracy <- ip4_ip4_0_split_0
I0408 01:50:19.406697 30060 net.cpp:454] accuracy <- label_cifar_1_split_0
I0408 01:50:19.406703 30060 net.cpp:411] accuracy -> accuracy
…
