…
I0415 17:17:04.780091 17006 net.cpp:322] The NetState phase (0) differed from the phase (1) specified by a rule in layer cifar
I0415 17:17:04.780133 17006 net.cpp:322] The NetState phase (0) differed from the phase (1) specified by a rule in layer accuracy
I0415 17:17:04.780359 17006 net.cpp:49] Initializing net from parameters: 
name: "CIFAR10_full"
state {
  phase: TRAIN
}
layer {
  name: "cifar"
  type: "Data"
  top: "data"
  top: "label"
  include {
    phase: TRAIN
  }
  transform_param {
    mean_file: "examples/cifar10/mean.binaryproto"
  }
  data_param {
    source: "examples/cifar10/cifar10_train_lmdb"
    batch_size: 100
    backend: LMDB
  }
}
layer {
  name: "conv1"
  type: "Convolution"
  bottom: "data"
  top: "conv1"
  param {
    lr_mult: 1
  }
  param {
    lr_mult: 2
  }
  convolution_param {
    num_output: 32
    pad: 2
    kernel_size: 5
    stride: 1
    weight_filler {
      type: "gaussian"
      std: 0.0001
    }
    bias_filler {
      type: "constant"
    }
  }
}
layer {
  name: "pool1"
  type: "Pooling"
  bottom: "conv1"
  top: "pool1"
  pooling_param {
    pool: MAX
    kernel_size: 3
    stride: 2
  }
}
layer {
  name: "relu1"
  type: "ReLU"
  bottom: "pool1"
  top: "pool1"
}
layer {
  name: "norm1"
  type: "LRN"
  bottom: "pool1"
  top: "norm1"
  lrn_param {
    local_size: 3
    alpha: 5e-05
    beta: 0.75
    norm_region: WITHIN_CHANNEL
  }
}
layer {
  name: "conv2"
  type: "Convolution"
  bottom: "norm1"
  top: "conv2"
  param {
    lr_mult: 1
  }
  param {
    lr_mult: 2
  }
  convolution_param {
    num_output: 32
    pad: 2
    kernel_size: 5
    stride: 1
    weight_filler {
      type: "gaussian"
      std: 0.01
    }
    bias_filler {
      type: "constant"
    }
  }
}
layer {
  name: "relu2"
  type: "ReLU"
  bottom: "conv2"
  top: "conv2"
}
layer {
  name: "pool2"
  type: "Pooling"
  bottom: "conv2"
  top: "pool2"
  pooling_param {
    pool: AVE
    kernel_size: 3
    stride: 2
  }
}
layer {
  name: "norm2"
  type: "LRN"
  bottom: "pool2"
  top: "norm2"
  lrn_param {
    local_size: 3
    alpha: 5e-05
    beta: 0.75
    norm_region: WITHIN_CHANNEL
  }
}
layer {
  name: "conv3"
  type: "Convolution"
  bottom: "norm2"
  top: "conv3"
  convolution_param {
    num_output: 64
    pad: 2
    kernel_size: 5
    stride: 1
    weight_filler {
      type: "gaussian"
      std: 0.01
    }
    bias_filler {
      type: "constant"
    }
  }
}
layer {
  name: "relu3"
  type: "ReLU"
  bottom: "conv3"
  top: "conv3"
}
layer {
  name: "pool3"
  type: "Pooling"
  bottom: "conv3"
  top: "pool3"
  pooling_param {
    pool: AVE
    kernel_size: 3
    stride: 2
  }
}
layer {
  name: "ip1"
  type: "InnerProduct"
  bottom: "pool3"
  top: "ip1"
  param {
    lr_mult: 1
    decay_mult: 250
  }
  param {
    lr_mult: 2
    decay_mult: 0
  }
  inner_product_param {
    num_output: 512
    weight_filler {
      type: "gaussian"
      std: 0.01
    }
    bias_filler {
      type: "constant"
    }
  }
}
layer {
  name: "relu4"
  type: "ReLU"
  bottom: "ip1"
  top: "ip1"
}
layer {
  name: "ip2"
  type: "InnerProduct"
  bottom: "ip1"
  top: "ip2"
  param {
    lr_mult: 1
  }
  param {
    lr_mult: 2
  }
  inner_product_param {
    num_output: 128
    weight_filler {
      type: "gaussian"
      std: 0.1
    }
    bias_filler {
      type: "constant"
    }
  }
}
layer {
  name: "relu5"
  type: "ReLU"
  bottom: "ip2"
  top: "ip2"
}
layer {
  name: "ip3"
  type: "InnerProduct"
  bottom: "ip2"
  top: "ip3"
  param {
    lr_mult: 1
  }
  param {
    lr_mult: 2
  }
  inner_product_param {
    num_output: 10
    weight_filler {
      type: "gaussian"
      std: 0.1
    }
    bias_filler {
      type: "constant"
    }
  }
}
layer {
  name: "loss"
  type: "SoftmaxWithLoss"
  bottom: "ip3"
  bottom: "label"
  top: "loss"
}
I0415 17:17:04.780552 17006 layer_factory.hpp:77] Creating layer cifar
I0415 17:17:04.781314 17006 net.cpp:106] Creating Layer cifar
I0415 17:17:04.781345 17006 net.cpp:411] cifar -> data
I0415 17:17:04.781404 17006 net.cpp:411] cifar -> label
I0415 17:17:04.781450 17006 data_transformer.cpp:25] Loading mean file from: examples/cifar10/mean.binaryproto
I0415 17:17:04.782220 17011 db_lmdb.cpp:38] Opened lmdb examples/cifar10/cifar10_train_lmdb
I0415 17:17:04.793282 17006 data_layer.cpp:41] output data size: 100,3,32,32
I0415 17:17:04.796525 17006 net.cpp:150] Setting up cifar
I0415 17:17:04.796579 17006 net.cpp:157] Top shape: 100 3 32 32 (307200)
I0415 17:17:04.796593 17006 net.cpp:157] Top shape: 100 (100)
I0415 17:17:04.796600 17006 net.cpp:165] Memory required for data: 1229200
I0415 17:17:04.796618 17006 layer_factory.hpp:77] Creating layer conv1
I0415 17:17:04.796649 17006 net.cpp:106] Creating Layer conv1
I0415 17:17:04.796665 17006 net.cpp:454] conv1 <- data
I0415 17:17:04.796690 17006 net.cpp:411] conv1 -> conv1
I0415 17:17:05.202019 17006 net.cpp:150] Setting up conv1
I0415 17:17:05.202087 17006 net.cpp:157] Top shape: 100 32 32 32 (3276800)
I0415 17:17:05.202100 17006 net.cpp:165] Memory required for data: 14336400
I0415 17:17:05.202147 17006 layer_factory.hpp:77] Creating layer pool1
I0415 17:17:05.202177 17006 net.cpp:106] Creating Layer pool1
I0415 17:17:05.202190 17006 net.cpp:454] pool1 <- conv1
I0415 17:17:05.202208 17006 net.cpp:411] pool1 -> pool1
I0415 17:17:05.203316 17006 net.cpp:150] Setting up pool1
I0415 17:17:05.203338 17006 net.cpp:157] Top shape: 100 32 16 16 (819200)
I0415 17:17:05.203348 17006 net.cpp:165] Memory required for data: 17613200
I0415 17:17:05.203357 17006 layer_factory.hpp:77] Creating layer relu1
I0415 17:17:05.203371 17006 net.cpp:106] Creating Layer relu1
I0415 17:17:05.203378 17006 net.cpp:454] relu1 <- pool1
I0415 17:17:05.203387 17006 net.cpp:397] relu1 -> pool1 (in-place)
I0415 17:17:05.204210 17006 net.cpp:150] Setting up relu1
I0415 17:17:05.204232 17006 net.cpp:157] Top shape: 100 32 16 16 (819200)
I0415 17:17:05.204243 17006 net.cpp:165] Memory required for data: 20890000
I0415 17:17:05.204252 17006 layer_factory.hpp:77] Creating layer norm1
I0415 17:17:05.204275 17006 net.cpp:106] Creating Layer norm1
I0415 17:17:05.204288 17006 net.cpp:454] norm1 <- pool1
I0415 17:17:05.204298 17006 net.cpp:411] norm1 -> norm1
I0415 17:17:05.205641 17006 net.cpp:150] Setting up norm1
I0415 17:17:05.205672 17006 net.cpp:157] Top shape: 100 32 16 16 (819200)
I0415 17:17:05.205682 17006 net.cpp:165] Memory required for data: 24166800
I0415 17:17:05.205693 17006 layer_factory.hpp:77] Creating layer conv2
I0415 17:17:05.205713 17006 net.cpp:106] Creating Layer conv2
I0415 17:17:05.205724 17006 net.cpp:454] conv2 <- norm1
I0415 17:17:05.205737 17006 net.cpp:411] conv2 -> conv2
I0415 17:17:05.209669 17006 net.cpp:150] Setting up conv2
I0415 17:17:05.209702 17006 net.cpp:157] Top shape: 100 32 16 16 (819200)
I0415 17:17:05.209719 17006 net.cpp:165] Memory required for data: 27443600
I0415 17:17:05.209746 17006 layer_factory.hpp:77] Creating layer relu2
I0415 17:17:05.209769 17006 net.cpp:106] Creating Layer relu2
I0415 17:17:05.209786 17006 net.cpp:454] relu2 <- conv2
I0415 17:17:05.209806 17006 net.cpp:397] relu2 -> conv2 (in-place)
I0415 17:17:05.210515 17006 net.cpp:150] Setting up relu2
I0415 17:17:05.210541 17006 net.cpp:157] Top shape: 100 32 16 16 (819200)
I0415 17:17:05.210556 17006 net.cpp:165] Memory required for data: 30720400
I0415 17:17:05.210573 17006 layer_factory.hpp:77] Creating layer pool2
I0415 17:17:05.210593 17006 net.cpp:106] Creating Layer pool2
I0415 17:17:05.210611 17006 net.cpp:454] pool2 <- conv2
I0415 17:17:05.210631 17006 net.cpp:411] pool2 -> pool2
I0415 17:17:05.211472 17006 net.cpp:150] Setting up pool2
I0415 17:17:05.211493 17006 net.cpp:157] Top shape: 100 32 8 8 (204800)
I0415 17:17:05.211525 17006 net.cpp:165] Memory required for data: 31539600
I0415 17:17:05.211537 17006 layer_factory.hpp:77] Creating layer norm2
I0415 17:17:05.211556 17006 net.cpp:106] Creating Layer norm2
I0415 17:17:05.211566 17006 net.cpp:454] norm2 <- pool2
I0415 17:17:05.211575 17006 net.cpp:411] norm2 -> norm2
I0415 17:17:05.213033 17006 net.cpp:150] Setting up norm2
I0415 17:17:05.213069 17006 net.cpp:157] Top shape: 100 32 8 8 (204800)
I0415 17:17:05.213079 17006 net.cpp:165] Memory required for data: 32358800
I0415 17:17:05.213089 17006 layer_factory.hpp:77] Creating layer conv3
I0415 17:17:05.213115 17006 net.cpp:106] Creating Layer conv3
I0415 17:17:05.213132 17006 net.cpp:454] conv3 <- norm2
I0415 17:17:05.213153 17006 net.cpp:411] conv3 -> conv3
I0415 17:17:05.219707 17006 net.cpp:150] Setting up conv3
I0415 17:17:05.219727 17006 net.cpp:157] Top shape: 100 64 8 8 (409600)
I0415 17:17:05.219734 17006 net.cpp:165] Memory required for data: 33997200
I0415 17:17:05.219751 17006 layer_factory.hpp:77] Creating layer relu3
I0415 17:17:05.219764 17006 net.cpp:106] Creating Layer relu3
I0415 17:17:05.219770 17006 net.cpp:454] relu3 <- conv3
I0415 17:17:05.219777 17006 net.cpp:397] relu3 -> conv3 (in-place)
I0415 17:17:05.220667 17006 net.cpp:150] Setting up relu3
I0415 17:17:05.220684 17006 net.cpp:157] Top shape: 100 64 8 8 (409600)
I0415 17:17:05.220690 17006 net.cpp:165] Memory required for data: 35635600
I0415 17:17:05.220695 17006 layer_factory.hpp:77] Creating layer pool3
I0415 17:17:05.220705 17006 net.cpp:106] Creating Layer pool3
I0415 17:17:05.220710 17006 net.cpp:454] pool3 <- conv3
I0415 17:17:05.220722 17006 net.cpp:411] pool3 -> pool3
I0415 17:17:05.221447 17006 net.cpp:150] Setting up pool3
I0415 17:17:05.221474 17006 net.cpp:157] Top shape: 100 64 4 4 (102400)
I0415 17:17:05.221493 17006 net.cpp:165] Memory required for data: 36045200
I0415 17:17:05.221510 17006 layer_factory.hpp:77] Creating layer ip1
I0415 17:17:05.221531 17006 net.cpp:106] Creating Layer ip1
I0415 17:17:05.221549 17006 net.cpp:454] ip1 <- pool3
I0415 17:17:05.221570 17006 net.cpp:411] ip1 -> ip1
I0415 17:17:05.243615 17006 net.cpp:150] Setting up ip1
I0415 17:17:05.243665 17006 net.cpp:157] Top shape: 100 512 (51200)
I0415 17:17:05.243674 17006 net.cpp:165] Memory required for data: 36250000
I0415 17:17:05.243687 17006 layer_factory.hpp:77] Creating layer relu4
I0415 17:17:05.243702 17006 net.cpp:106] Creating Layer relu4
I0415 17:17:05.243710 17006 net.cpp:454] relu4 <- ip1
I0415 17:17:05.243723 17006 net.cpp:397] relu4 -> ip1 (in-place)
I0415 17:17:05.244817 17006 net.cpp:150] Setting up relu4
I0415 17:17:05.244848 17006 net.cpp:157] Top shape: 100 512 (51200)
I0415 17:17:05.244856 17006 net.cpp:165] Memory required for data: 36454800
I0415 17:17:05.244865 17006 layer_factory.hpp:77] Creating layer ip2
I0415 17:17:05.244884 17006 net.cpp:106] Creating Layer ip2
I0415 17:17:05.244901 17006 net.cpp:454] ip2 <- ip1
I0415 17:17:05.244920 17006 net.cpp:411] ip2 -> ip2
I0415 17:17:05.247349 17006 net.cpp:150] Setting up ip2
I0415 17:17:05.247385 17006 net.cpp:157] Top shape: 100 128 (12800)
I0415 17:17:05.247393 17006 net.cpp:165] Memory required for data: 36506000
I0415 17:17:05.247414 17006 layer_factory.hpp:77] Creating layer relu5
I0415 17:17:05.247428 17006 net.cpp:106] Creating Layer relu5
I0415 17:17:05.247438 17006 net.cpp:454] relu5 <- ip2
I0415 17:17:05.247452 17006 net.cpp:397] relu5 -> ip2 (in-place)
I0415 17:17:05.248556 17006 net.cpp:150] Setting up relu5
I0415 17:17:05.248589 17006 net.cpp:157] Top shape: 100 128 (12800)
I0415 17:17:05.248599 17006 net.cpp:165] Memory required for data: 36557200
I0415 17:17:05.248607 17006 layer_factory.hpp:77] Creating layer ip3
I0415 17:17:05.248631 17006 net.cpp:106] Creating Layer ip3
I0415 17:17:05.248642 17006 net.cpp:454] ip3 <- ip2
I0415 17:17:05.248658 17006 net.cpp:411] ip3 -> ip3
I0415 17:17:05.248924 17006 net.cpp:150] Setting up ip3
I0415 17:17:05.248941 17006 net.cpp:157] Top shape: 100 10 (1000)
I0415 17:17:05.248949 17006 net.cpp:165] Memory required for data: 36561200
I0415 17:17:05.248983 17006 layer_factory.hpp:77] Creating layer loss
I0415 17:17:05.248996 17006 net.cpp:106] Creating Layer loss
I0415 17:17:05.249002 17006 net.cpp:454] loss <- ip3
I0415 17:17:05.249011 17006 net.cpp:454] loss <- label
I0415 17:17:05.249023 17006 net.cpp:411] loss -> loss
I0415 17:17:05.249040 17006 layer_factory.hpp:77] Creating layer loss
…
I0415 17:17:05.251382 17006 solver.cpp:181] Creating test net (#0) specified by net file: examples/cifar10/test/cifar10_full_train_test.prototxt
I0415 17:17:05.251442 17006 net.cpp:322] The NetState phase (1) differed from the phase (0) specified by a rule in layer cifar
I0415 17:17:05.251655 17006 net.cpp:49] Initializing net from parameters: 
name: "CIFAR10_full"
state {
  phase: TEST
}
layer {
  name: "cifar"
  type: "Data"
  top: "data"
  top: "label"
  include {
    phase: TEST
  }
  transform_param {
    mean_file: "examples/cifar10/mean.binaryproto"
  }
  data_param {
    source: "examples/cifar10/cifar10_test_lmdb"
    batch_size: 100
    backend: LMDB
  }
}
layer {
  name: "conv1"
  type: "Convolution"
  bottom: "data"
  top: "conv1"
  param {
    lr_mult: 1
  }
  param {
    lr_mult: 2
  }
  convolution_param {
    num_output: 32
    pad: 2
    kernel_size: 5
    stride: 1
    weight_filler {
      type: "gaussian"
      std: 0.0001
    }
    bias_filler {
      type: "constant"
    }
  }
}
layer {
  name: "pool1"
  type: "Pooling"
  bottom: "conv1"
  top: "pool1"
  pooling_param {
    pool: MAX
    kernel_size: 3
    stride: 2
  }
}
layer {
  name: "relu1"
  type: "ReLU"
  bottom: "pool1"
  top: "pool1"
}
layer {
  name: "norm1"
  type: "LRN"
  bottom: "pool1"
  top: "norm1"
  lrn_param {
    local_size: 3
    alpha: 5e-05
    beta: 0.75
    norm_region: WITHIN_CHANNEL
  }
}
layer {
  name: "conv2"
  type: "Convolution"
  bottom: "norm1"
  top: "conv2"
  param {
    lr_mult: 1
  }
  param {
    lr_mult: 2
  }
  convolution_param {
    num_output: 32
    pad: 2
    kernel_size: 5
    stride: 1
    weight_filler {
      type: "gaussian"
      std: 0.01
    }
    bias_filler {
      type: "constant"
    }
  }
}
layer {
  name: "relu2"
  type: "ReLU"
  bottom: "conv2"
  top: "conv2"
}
layer {
  name: "pool2"
  type: "Pooling"
  bottom: "conv2"
  top: "pool2"
  pooling_param {
    pool: AVE
    kernel_size: 3
    stride: 2
  }
}
layer {
  name: "norm2"
  type: "LRN"
  bottom: "pool2"
  top: "norm2"
  lrn_param {
    local_size: 3
    alpha: 5e-05
    beta: 0.75
    norm_region: WITHIN_CHANNEL
  }
}
layer {
  name: "conv3"
  type: "Convolution"
  bottom: "norm2"
  top: "conv3"
  convolution_param {
    num_output: 64
    pad: 2
    kernel_size: 5
    stride: 1
    weight_filler {
      type: "gaussian"
      std: 0.01
    }
    bias_filler {
      type: "constant"
    }
  }
}
layer {
  name: "relu3"
  type: "ReLU"
  bottom: "conv3"
  top: "conv3"
}
layer {
  name: "pool3"
  type: "Pooling"
  bottom: "conv3"
  top: "pool3"
  pooling_param {
    pool: AVE
    kernel_size: 3
    stride: 2
  }
}
layer {
  name: "ip1"
  type: "InnerProduct"
  bottom: "pool3"
  top: "ip1"
  param {
    lr_mult: 1
    decay_mult: 250
  }
  param {
    lr_mult: 2
    decay_mult: 0
  }
  inner_product_param {
    num_output: 512
    weight_filler {
      type: "gaussian"
      std: 0.01
    }
    bias_filler {
      type: "constant"
    }
  }
}
layer {
  name: "relu4"
  type: "ReLU"
  bottom: "ip1"
  top: "ip1"
}
layer {
  name: "ip2"
  type: "InnerProduct"
  bottom: "ip1"
  top: "ip2"
  param {
    lr_mult: 1
  }
  param {
    lr_mult: 2
  }
  inner_product_param {
    num_output: 128
    weight_filler {
      type: "gaussian"
      std: 0.1
    }
    bias_filler {
      type: "constant"
    }
  }
}
layer {
  name: "relu5"
  type: "ReLU"
  bottom: "ip2"
  top: "ip2"
}
layer {
  name: "ip3"
  type: "InnerProduct"
  bottom: "ip2"
  top: "ip3"
  param {
    lr_mult: 1
  }
  param {
    lr_mult: 2
  }
  inner_product_param {
    num_output: 10
    weight_filler {
      type: "gaussian"
      std: 0.1
    }
    bias_filler {
      type: "constant"
    }
  }
}
layer {
  name: "accuracy"
  type: "Accuracy"
  bottom: "ip3"
  bottom: "label"
  top: "accuracy"
  include {
    phase: TEST
  }
}
layer {
  name: "loss"
  type: "SoftmaxWithLoss"
  bottom: "ip3"
  bottom: "label"
  top: "loss"
}
I0415 17:17:05.251843 17006 layer_factory.hpp:77] Creating layer cifar
I0415 17:17:05.285127 17006 net.cpp:106] Creating Layer cifar
I0415 17:17:05.285176 17006 net.cpp:411] cifar -> data
I0415 17:17:05.285207 17006 net.cpp:411] cifar -> label
I0415 17:17:05.285230 17006 data_transformer.cpp:25] Loading mean file from: examples/cifar10/mean.binaryproto
I0415 17:17:05.286098 17013 db_lmdb.cpp:38] Opened lmdb examples/cifar10/cifar10_test_lmdb
I0415 17:17:05.286211 17006 data_layer.cpp:41] output data size: 100,3,32,32
I0415 17:17:05.289492 17006 net.cpp:150] Setting up cifar
I0415 17:17:05.289536 17006 net.cpp:157] Top shape: 100 3 32 32 (307200)
I0415 17:17:05.289547 17006 net.cpp:157] Top shape: 100 (100)
I0415 17:17:05.289554 17006 net.cpp:165] Memory required for data: 1229200
I0415 17:17:05.289562 17006 layer_factory.hpp:77] Creating layer label_cifar_1_split
I0415 17:17:05.289583 17006 net.cpp:106] Creating Layer label_cifar_1_split
I0415 17:17:05.289592 17006 net.cpp:454] label_cifar_1_split <- label
I0415 17:17:05.289602 17006 net.cpp:411] label_cifar_1_split -> label_cifar_1_split_0
I0415 17:17:05.289618 17006 net.cpp:411] label_cifar_1_split -> label_cifar_1_split_1
I0415 17:17:05.289721 17006 net.cpp:150] Setting up label_cifar_1_split
I0415 17:17:05.289736 17006 net.cpp:157] Top shape: 100 (100)
I0415 17:17:05.289743 17006 net.cpp:157] Top shape: 100 (100)
I0415 17:17:05.289749 17006 net.cpp:165] Memory required for data: 1230000
I0415 17:17:05.289755 17006 layer_factory.hpp:77] Creating layer conv1
I0415 17:17:05.289773 17006 net.cpp:106] Creating Layer conv1
I0415 17:17:05.289783 17006 net.cpp:454] conv1 <- data
I0415 17:17:05.289796 17006 net.cpp:411] conv1 -> conv1
I0415 17:17:05.293819 17006 net.cpp:150] Setting up conv1
I0415 17:17:05.293910 17006 net.cpp:157] Top shape: 100 32 32 32 (3276800)
I0415 17:17:05.293925 17006 net.cpp:165] Memory required for data: 14337200
I0415 17:17:05.293946 17006 layer_factory.hpp:77] Creating layer pool1
I0415 17:17:05.293967 17006 net.cpp:106] Creating Layer pool1
I0415 17:17:05.293979 17006 net.cpp:454] pool1 <- conv1
I0415 17:17:05.294010 17006 net.cpp:411] pool1 -> pool1
I0415 17:17:05.295181 17006 net.cpp:150] Setting up pool1
I0415 17:17:05.295215 17006 net.cpp:157] Top shape: 100 32 16 16 (819200)
I0415 17:17:05.295224 17006 net.cpp:165] Memory required for data: 17614000
I0415 17:17:05.295238 17006 layer_factory.hpp:77] Creating layer relu1
I0415 17:17:05.295254 17006 net.cpp:106] Creating Layer relu1
I0415 17:17:05.295264 17006 net.cpp:454] relu1 <- pool1
I0415 17:17:05.295274 17006 net.cpp:397] relu1 -> pool1 (in-place)
I0415 17:17:05.296519 17006 net.cpp:150] Setting up relu1
I0415 17:17:05.296550 17006 net.cpp:157] Top shape: 100 32 16 16 (819200)
I0415 17:17:05.296560 17006 net.cpp:165] Memory required for data: 20890800
I0415 17:17:05.296566 17006 layer_factory.hpp:77] Creating layer norm1
I0415 17:17:05.296584 17006 net.cpp:106] Creating Layer norm1
I0415 17:17:05.296597 17006 net.cpp:454] norm1 <- pool1
I0415 17:17:05.296608 17006 net.cpp:411] norm1 -> norm1
I0415 17:17:05.298387 17006 net.cpp:150] Setting up norm1
I0415 17:17:05.298425 17006 net.cpp:157] Top shape: 100 32 16 16 (819200)
I0415 17:17:05.298434 17006 net.cpp:165] Memory required for data: 24167600
I0415 17:17:05.298444 17006 layer_factory.hpp:77] Creating layer conv2
I0415 17:17:05.298467 17006 net.cpp:106] Creating Layer conv2
I0415 17:17:05.298480 17006 net.cpp:454] conv2 <- norm1
I0415 17:17:05.298494 17006 net.cpp:411] conv2 -> conv2
I0415 17:17:05.302927 17006 net.cpp:150] Setting up conv2
I0415 17:17:05.302973 17006 net.cpp:157] Top shape: 100 32 16 16 (819200)
I0415 17:17:05.302983 17006 net.cpp:165] Memory required for data: 27444400
I0415 17:17:05.303004 17006 layer_factory.hpp:77] Creating layer relu2
I0415 17:17:05.303023 17006 net.cpp:106] Creating Layer relu2
I0415 17:17:05.303035 17006 net.cpp:454] relu2 <- conv2
I0415 17:17:05.303047 17006 net.cpp:397] relu2 -> conv2 (in-place)
I0415 17:17:05.304075 17006 net.cpp:150] Setting up relu2
I0415 17:17:05.304106 17006 net.cpp:157] Top shape: 100 32 16 16 (819200)
I0415 17:17:05.304116 17006 net.cpp:165] Memory required for data: 30721200
I0415 17:17:05.304123 17006 layer_factory.hpp:77] Creating layer pool2
I0415 17:17:05.304144 17006 net.cpp:106] Creating Layer pool2
I0415 17:17:05.304153 17006 net.cpp:454] pool2 <- conv2
I0415 17:17:05.304167 17006 net.cpp:411] pool2 -> pool2
I0415 17:17:05.305238 17006 net.cpp:150] Setting up pool2
I0415 17:17:05.305270 17006 net.cpp:157] Top shape: 100 32 8 8 (204800)
I0415 17:17:05.305279 17006 net.cpp:165] Memory required for data: 31540400
I0415 17:17:05.305289 17006 layer_factory.hpp:77] Creating layer norm2
I0415 17:17:05.305305 17006 net.cpp:106] Creating Layer norm2
I0415 17:17:05.305315 17006 net.cpp:454] norm2 <- pool2
I0415 17:17:05.305327 17006 net.cpp:411] norm2 -> norm2
I0415 17:17:05.307433 17006 net.cpp:150] Setting up norm2
I0415 17:17:05.307463 17006 net.cpp:157] Top shape: 100 32 8 8 (204800)
I0415 17:17:05.307472 17006 net.cpp:165] Memory required for data: 32359600
I0415 17:17:05.307482 17006 layer_factory.hpp:77] Creating layer conv3
I0415 17:17:05.307505 17006 net.cpp:106] Creating Layer conv3
I0415 17:17:05.307515 17006 net.cpp:454] conv3 <- norm2
I0415 17:17:05.307533 17006 net.cpp:411] conv3 -> conv3
I0415 17:17:05.313325 17006 net.cpp:150] Setting up conv3
I0415 17:17:05.313354 17006 net.cpp:157] Top shape: 100 64 8 8 (409600)
I0415 17:17:05.313371 17006 net.cpp:165] Memory required for data: 33998000
I0415 17:17:05.313397 17006 layer_factory.hpp:77] Creating layer relu3
I0415 17:17:05.313417 17006 net.cpp:106] Creating Layer relu3
I0415 17:17:05.313433 17006 net.cpp:454] relu3 <- conv3
I0415 17:17:05.313453 17006 net.cpp:397] relu3 -> conv3 (in-place)
I0415 17:17:05.314183 17006 net.cpp:150] Setting up relu3
I0415 17:17:05.314199 17006 net.cpp:157] Top shape: 100 64 8 8 (409600)
I0415 17:17:05.314206 17006 net.cpp:165] Memory required for data: 35636400
I0415 17:17:05.314213 17006 layer_factory.hpp:77] Creating layer pool3
I0415 17:17:05.314224 17006 net.cpp:106] Creating Layer pool3
I0415 17:17:05.314232 17006 net.cpp:454] pool3 <- conv3
I0415 17:17:05.314265 17006 net.cpp:411] pool3 -> pool3
I0415 17:17:05.315208 17006 net.cpp:150] Setting up pool3
I0415 17:17:05.315234 17006 net.cpp:157] Top shape: 100 64 4 4 (102400)
I0415 17:17:05.315243 17006 net.cpp:165] Memory required for data: 36046000
I0415 17:17:05.315250 17006 layer_factory.hpp:77] Creating layer ip1
I0415 17:17:05.315264 17006 net.cpp:106] Creating Layer ip1
I0415 17:17:05.315274 17006 net.cpp:454] ip1 <- pool3
I0415 17:17:05.315287 17006 net.cpp:411] ip1 -> ip1
I0415 17:17:05.333544 17006 net.cpp:150] Setting up ip1
I0415 17:17:05.333588 17006 net.cpp:157] Top shape: 100 512 (51200)
I0415 17:17:05.333597 17006 net.cpp:165] Memory required for data: 36250800
I0415 17:17:05.333612 17006 layer_factory.hpp:77] Creating layer relu4
I0415 17:17:05.333629 17006 net.cpp:106] Creating Layer relu4
I0415 17:17:05.333639 17006 net.cpp:454] relu4 <- ip1
I0415 17:17:05.333652 17006 net.cpp:397] relu4 -> ip1 (in-place)
I0415 17:17:05.334974 17006 net.cpp:150] Setting up relu4
I0415 17:17:05.335012 17006 net.cpp:157] Top shape: 100 512 (51200)
I0415 17:17:05.335021 17006 net.cpp:165] Memory required for data: 36455600
I0415 17:17:05.335028 17006 layer_factory.hpp:77] Creating layer ip2
I0415 17:17:05.335047 17006 net.cpp:106] Creating Layer ip2
I0415 17:17:05.335057 17006 net.cpp:454] ip2 <- ip1
I0415 17:17:05.335069 17006 net.cpp:411] ip2 -> ip2
I0415 17:17:05.338057 17006 net.cpp:150] Setting up ip2
I0415 17:17:05.338102 17006 net.cpp:157] Top shape: 100 128 (12800)
I0415 17:17:05.338112 17006 net.cpp:165] Memory required for data: 36506800
I0415 17:17:05.338135 17006 layer_factory.hpp:77] Creating layer relu5
I0415 17:17:05.338153 17006 net.cpp:106] Creating Layer relu5
I0415 17:17:05.338162 17006 net.cpp:454] relu5 <- ip2
I0415 17:17:05.338173 17006 net.cpp:397] relu5 -> ip2 (in-place)
I0415 17:17:05.339340 17006 net.cpp:150] Setting up relu5
I0415 17:17:05.339373 17006 net.cpp:157] Top shape: 100 128 (12800)
I0415 17:17:05.339382 17006 net.cpp:165] Memory required for data: 36558000
I0415 17:17:05.339390 17006 layer_factory.hpp:77] Creating layer ip3
I0415 17:17:05.339412 17006 net.cpp:106] Creating Layer ip3
I0415 17:17:05.339421 17006 net.cpp:454] ip3 <- ip2
I0415 17:17:05.339442 17006 net.cpp:411] ip3 -> ip3
I0415 17:17:05.339731 17006 net.cpp:150] Setting up ip3
I0415 17:17:05.339746 17006 net.cpp:157] Top shape: 100 10 (1000)
I0415 17:17:05.339753 17006 net.cpp:165] Memory required for data: 36562000
I0415 17:17:05.339766 17006 layer_factory.hpp:77] Creating layer ip3_ip3_0_split
I0415 17:17:05.339778 17006 net.cpp:106] Creating Layer ip3_ip3_0_split
I0415 17:17:05.339787 17006 net.cpp:454] ip3_ip3_0_split <- ip3
I0415 17:17:05.339795 17006 net.cpp:411] ip3_ip3_0_split -> ip3_ip3_0_split_0
I0415 17:17:05.339807 17006 net.cpp:411] ip3_ip3_0_split -> ip3_ip3_0_split_1
I0415 17:17:05.339876 17006 net.cpp:150] Setting up ip3_ip3_0_split
I0415 17:17:05.339890 17006 net.cpp:157] Top shape: 100 10 (1000)
I0415 17:17:05.339897 17006 net.cpp:157] Top shape: 100 10 (1000)
I0415 17:17:05.339903 17006 net.cpp:165] Memory required for data: 36570000
I0415 17:17:05.339908 17006 layer_factory.hpp:77] Creating layer accuracy
I0415 17:17:05.339918 17006 net.cpp:106] Creating Layer accuracy
I0415 17:17:05.339926 17006 net.cpp:454] accuracy <- ip3_ip3_0_split_0
I0415 17:17:05.339932 17006 net.cpp:454] accuracy <- label_cifar_1_split_0
I0415 17:17:05.339944 17006 net.cpp:411] accuracy -> accuracy
…
