…
I0408 13:34:03.607431 32083 net.cpp:322] The NetState phase (0) differed from the phase (1) specified by a rule in layer cifar
I0408 13:34:03.607452 32083 net.cpp:322] The NetState phase (0) differed from the phase (1) specified by a rule in layer accuracy
I0408 13:34:03.607550 32083 net.cpp:49] Initializing net from parameters: 
name: "CIFAR10_full"
state {
  phase: TRAIN
}
layer {
  name: "cifar"
  type: "Data"
  top: "data"
  top: "label"
  include {
    phase: TRAIN
  }
  transform_param {
    mean_file: "examples/cifar10/mean.binaryproto"
  }
  data_param {
    source: "examples/cifar10/cifar10_train_lmdb"
    batch_size: 100
    backend: LMDB
  }
}
layer {
  name: "ip1"
  type: "InnerProduct"
  bottom: "data"
  top: "ip1"
  param {
    lr_mult: 1
  }
  param {
    lr_mult: 2
  }
  inner_product_param {
    num_output: 1024
    weight_filler {
      type: "xavier"
    }
  }
}
layer {
  name: "relu1"
  type: "ReLU"
  bottom: "ip1"
  top: "ip1"
}
layer {
  name: "ip1-2"
  type: "InnerProduct"
  bottom: "ip1"
  top: "ip1-2"
  param {
    lr_mult: 1
  }
  param {
    lr_mult: 2
  }
  inner_product_param {
    num_output: 128
    weight_filler {
      type: "xavier"
    }
  }
}
layer {
  name: "relu1-2"
  type: "ReLU"
  bottom: "ip1-2"
  top: "ip1-2"
}
layer {
  name: "ip2"
  type: "InnerProduct"
  bottom: "ip1-2"
  top: "ip2"
  param {
    lr_mult: 1
  }
  param {
    lr_mult: 2
  }
  inner_product_param {
    num_output: 1024
    weight_filler {
      type: "xavier"
    }
  }
}
layer {
  name: "relu2"
  type: "ReLU"
  bottom: "ip2"
  top: "ip2"
}
layer {
  name: "ip2-3"
  type: "InnerProduct"
  bottom: "ip2"
  top: "ip2-3"
  param {
    lr_mult: 1
  }
  param {
    lr_mult: 2
  }
  inner_product_param {
    num_output: 128
    weight_filler {
      type: "xavier"
    }
  }
}
layer {
  name: "relu2-3"
  type: "ReLU"
  bottom: "ip2-3"
  top: "ip2-3"
}
layer {
  name: "ip3"
  type: "InnerProduct"
  bottom: "ip2-3"
  top: "ip3"
  param {
    lr_mult: 1
  }
  param {
    lr_mult: 2
  }
  inner_product_param {
    num_output: 1024
    weight_filler {
      type: "xavier"
    }
  }
}
layer {
  name: "relu3"
  type: "ReLU"
  bottom: "ip3"
  top: "ip3"
}
layer {
  name: "ip4"
  type: "InnerProduct"
  bottom: "ip3"
  top: "ip4"
  param {
    lr_mult: 1
  }
  param {
    lr_mult: 2
  }
  inner_product_param {
    num_output: 10
    weight_filler {
      type: "xavier"
    }
  }
}
layer {
  name: "loss"
  type: "SoftmaxWithLoss"
  bottom: "ip4"
  bottom: "label"
  top: "loss"
}
I0408 13:34:03.607650 32083 layer_factory.hpp:77] Creating layer cifar
I0408 13:34:03.608250 32083 net.cpp:106] Creating Layer cifar
I0408 13:34:03.608294 32083 net.cpp:411] cifar -> data
I0408 13:34:03.608335 32083 net.cpp:411] cifar -> label
I0408 13:34:03.608362 32083 data_transformer.cpp:25] Loading mean file from: examples/cifar10/mean.binaryproto
I0408 13:34:03.637877 32088 db_lmdb.cpp:38] Opened lmdb examples/cifar10/cifar10_train_lmdb
I0408 13:34:03.651389 32083 data_layer.cpp:41] output data size: 100,3,32,32
I0408 13:34:03.654603 32083 net.cpp:150] Setting up cifar
I0408 13:34:03.654647 32083 net.cpp:157] Top shape: 100 3 32 32 (307200)
I0408 13:34:03.654659 32083 net.cpp:157] Top shape: 100 (100)
I0408 13:34:03.654664 32083 net.cpp:165] Memory required for data: 1229200
I0408 13:34:03.654677 32083 layer_factory.hpp:77] Creating layer ip1
I0408 13:34:03.654696 32083 net.cpp:106] Creating Layer ip1
I0408 13:34:03.654706 32083 net.cpp:454] ip1 <- data
I0408 13:34:03.654727 32083 net.cpp:411] ip1 -> ip1
I0408 13:34:03.680845 32083 net.cpp:150] Setting up ip1
I0408 13:34:03.680928 32083 net.cpp:157] Top shape: 100 1024 (102400)
I0408 13:34:03.680937 32083 net.cpp:165] Memory required for data: 1638800
I0408 13:34:03.680960 32083 layer_factory.hpp:77] Creating layer relu1
I0408 13:34:03.680986 32083 net.cpp:106] Creating Layer relu1
I0408 13:34:03.680992 32083 net.cpp:454] relu1 <- ip1
I0408 13:34:03.680999 32083 net.cpp:397] relu1 -> ip1 (in-place)
I0408 13:34:04.395684 32083 net.cpp:150] Setting up relu1
I0408 13:34:04.395719 32083 net.cpp:157] Top shape: 100 1024 (102400)
I0408 13:34:04.395723 32083 net.cpp:165] Memory required for data: 2048400
I0408 13:34:04.395728 32083 layer_factory.hpp:77] Creating layer ip1-2
I0408 13:34:04.395740 32083 net.cpp:106] Creating Layer ip1-2
I0408 13:34:04.395745 32083 net.cpp:454] ip1-2 <- ip1
I0408 13:34:04.395751 32083 net.cpp:411] ip1-2 -> ip1-2
I0408 13:34:04.397013 32083 net.cpp:150] Setting up ip1-2
I0408 13:34:04.397042 32083 net.cpp:157] Top shape: 100 128 (12800)
I0408 13:34:04.397047 32083 net.cpp:165] Memory required for data: 2099600
I0408 13:34:04.397059 32083 layer_factory.hpp:77] Creating layer relu1-2
I0408 13:34:04.397070 32083 net.cpp:106] Creating Layer relu1-2
I0408 13:34:04.397074 32083 net.cpp:454] relu1-2 <- ip1-2
I0408 13:34:04.397080 32083 net.cpp:397] relu1-2 -> ip1-2 (in-place)
I0408 13:34:04.397788 32083 net.cpp:150] Setting up relu1-2
I0408 13:34:04.397809 32083 net.cpp:157] Top shape: 100 128 (12800)
I0408 13:34:04.397814 32083 net.cpp:165] Memory required for data: 2150800
I0408 13:34:04.397817 32083 layer_factory.hpp:77] Creating layer ip2
I0408 13:34:04.397826 32083 net.cpp:106] Creating Layer ip2
I0408 13:34:04.397830 32083 net.cpp:454] ip2 <- ip1-2
I0408 13:34:04.397835 32083 net.cpp:411] ip2 -> ip2
I0408 13:34:04.398669 32083 net.cpp:150] Setting up ip2
I0408 13:34:04.398687 32083 net.cpp:157] Top shape: 100 1024 (102400)
I0408 13:34:04.398691 32083 net.cpp:165] Memory required for data: 2560400
I0408 13:34:04.398702 32083 layer_factory.hpp:77] Creating layer relu2
I0408 13:34:04.398711 32083 net.cpp:106] Creating Layer relu2
I0408 13:34:04.398715 32083 net.cpp:454] relu2 <- ip2
I0408 13:34:04.398720 32083 net.cpp:397] relu2 -> ip2 (in-place)
I0408 13:34:04.399345 32083 net.cpp:150] Setting up relu2
I0408 13:34:04.399365 32083 net.cpp:157] Top shape: 100 1024 (102400)
I0408 13:34:04.399370 32083 net.cpp:165] Memory required for data: 2970000
I0408 13:34:04.399374 32083 layer_factory.hpp:77] Creating layer ip2-3
I0408 13:34:04.399382 32083 net.cpp:106] Creating Layer ip2-3
I0408 13:34:04.399386 32083 net.cpp:454] ip2-3 <- ip2
I0408 13:34:04.399392 32083 net.cpp:411] ip2-3 -> ip2-3
I0408 13:34:04.400591 32083 net.cpp:150] Setting up ip2-3
I0408 13:34:04.400622 32083 net.cpp:157] Top shape: 100 128 (12800)
I0408 13:34:04.400626 32083 net.cpp:165] Memory required for data: 3021200
I0408 13:34:04.400635 32083 layer_factory.hpp:77] Creating layer relu2-3
I0408 13:34:04.400645 32083 net.cpp:106] Creating Layer relu2-3
I0408 13:34:04.400650 32083 net.cpp:454] relu2-3 <- ip2-3
I0408 13:34:04.400655 32083 net.cpp:397] relu2-3 -> ip2-3 (in-place)
I0408 13:34:04.401309 32083 net.cpp:150] Setting up relu2-3
I0408 13:34:04.401329 32083 net.cpp:157] Top shape: 100 128 (12800)
I0408 13:34:04.401334 32083 net.cpp:165] Memory required for data: 3072400
I0408 13:34:04.401337 32083 layer_factory.hpp:77] Creating layer ip3
I0408 13:34:04.401346 32083 net.cpp:106] Creating Layer ip3
I0408 13:34:04.401350 32083 net.cpp:454] ip3 <- ip2-3
I0408 13:34:04.401355 32083 net.cpp:411] ip3 -> ip3
I0408 13:34:04.402189 32083 net.cpp:150] Setting up ip3
I0408 13:34:04.402209 32083 net.cpp:157] Top shape: 100 1024 (102400)
I0408 13:34:04.402211 32083 net.cpp:165] Memory required for data: 3482000
I0408 13:34:04.402223 32083 layer_factory.hpp:77] Creating layer relu3
I0408 13:34:04.402231 32083 net.cpp:106] Creating Layer relu3
I0408 13:34:04.402235 32083 net.cpp:454] relu3 <- ip3
I0408 13:34:04.402240 32083 net.cpp:397] relu3 -> ip3 (in-place)
I0408 13:34:04.402873 32083 net.cpp:150] Setting up relu3
I0408 13:34:04.402894 32083 net.cpp:157] Top shape: 100 1024 (102400)
I0408 13:34:04.402922 32083 net.cpp:165] Memory required for data: 3891600
I0408 13:34:04.402926 32083 layer_factory.hpp:77] Creating layer ip4
I0408 13:34:04.402935 32083 net.cpp:106] Creating Layer ip4
I0408 13:34:04.402938 32083 net.cpp:454] ip4 <- ip3
I0408 13:34:04.402945 32083 net.cpp:411] ip4 -> ip4
I0408 13:34:04.403492 32083 net.cpp:150] Setting up ip4
I0408 13:34:04.403512 32083 net.cpp:157] Top shape: 100 10 (1000)
I0408 13:34:04.403514 32083 net.cpp:165] Memory required for data: 3895600
I0408 13:34:04.403522 32083 layer_factory.hpp:77] Creating layer loss
I0408 13:34:04.403529 32083 net.cpp:106] Creating Layer loss
I0408 13:34:04.403532 32083 net.cpp:454] loss <- ip4
I0408 13:34:04.403537 32083 net.cpp:454] loss <- label
I0408 13:34:04.403544 32083 net.cpp:411] loss -> loss
I0408 13:34:04.403564 32083 layer_factory.hpp:77] Creating layer loss
…
I0408 13:34:04.404692 32083 solver.cpp:181] Creating test net (#0) specified by net file: examples/cifar10/test/cifar10_full_train_test.prototxt
I0408 13:34:04.404718 32083 net.cpp:322] The NetState phase (1) differed from the phase (0) specified by a rule in layer cifar
I0408 13:34:04.404799 32083 net.cpp:49] Initializing net from parameters: 
name: "CIFAR10_full"
state {
  phase: TEST
}
layer {
  name: "cifar"
  type: "Data"
  top: "data"
  top: "label"
  include {
    phase: TEST
  }
  transform_param {
    mean_file: "examples/cifar10/mean.binaryproto"
  }
  data_param {
    source: "examples/cifar10/cifar10_test_lmdb"
    batch_size: 100
    backend: LMDB
  }
}
layer {
  name: "ip1"
  type: "InnerProduct"
  bottom: "data"
  top: "ip1"
  param {
    lr_mult: 1
  }
  param {
    lr_mult: 2
  }
  inner_product_param {
    num_output: 1024
    weight_filler {
      type: "xavier"
    }
  }
}
layer {
  name: "relu1"
  type: "ReLU"
  bottom: "ip1"
  top: "ip1"
}
layer {
  name: "ip1-2"
  type: "InnerProduct"
  bottom: "ip1"
  top: "ip1-2"
  param {
    lr_mult: 1
  }
  param {
    lr_mult: 2
  }
  inner_product_param {
    num_output: 128
    weight_filler {
      type: "xavier"
    }
  }
}
layer {
  name: "relu1-2"
  type: "ReLU"
  bottom: "ip1-2"
  top: "ip1-2"
}
layer {
  name: "ip2"
  type: "InnerProduct"
  bottom: "ip1-2"
  top: "ip2"
  param {
    lr_mult: 1
  }
  param {
    lr_mult: 2
  }
  inner_product_param {
    num_output: 1024
    weight_filler {
      type: "xavier"
    }
  }
}
layer {
  name: "relu2"
  type: "ReLU"
  bottom: "ip2"
  top: "ip2"
}
layer {
  name: "ip2-3"
  type: "InnerProduct"
  bottom: "ip2"
  top: "ip2-3"
  param {
    lr_mult: 1
  }
  param {
    lr_mult: 2
  }
  inner_product_param {
    num_output: 128
    weight_filler {
      type: "xavier"
    }
  }
}
layer {
  name: "relu2-3"
  type: "ReLU"
  bottom: "ip2-3"
  top: "ip2-3"
}
layer {
  name: "ip3"
  type: "InnerProduct"
  bottom: "ip2-3"
  top: "ip3"
  param {
    lr_mult: 1
  }
  param {
    lr_mult: 2
  }
  inner_product_param {
    num_output: 1024
    weight_filler {
      type: "xavier"
    }
  }
}
layer {
  name: "relu3"
  type: "ReLU"
  bottom: "ip3"
  top: "ip3"
}
layer {
  name: "ip4"
  type: "InnerProduct"
  bottom: "ip3"
  top: "ip4"
  param {
    lr_mult: 1
  }
  param {
    lr_mult: 2
  }
  inner_product_param {
    num_output: 10
    weight_filler {
      type: "xavier"
    }
  }
}
layer {
  name: "accuracy"
  type: "Accuracy"
  bottom: "ip4"
  bottom: "label"
  top: "accuracy"
  include {
    phase: TEST
  }
}
layer {
  name: "loss"
  type: "SoftmaxWithLoss"
  bottom: "ip4"
  bottom: "label"
  top: "loss"
}
I0408 13:34:04.404886 32083 layer_factory.hpp:77] Creating layer cifar
I0408 13:34:04.404996 32083 net.cpp:106] Creating Layer cifar
I0408 13:34:04.405007 32083 net.cpp:411] cifar -> data
I0408 13:34:04.405016 32083 net.cpp:411] cifar -> label
I0408 13:34:04.405024 32083 data_transformer.cpp:25] Loading mean file from: examples/cifar10/mean.binaryproto
I0408 13:34:04.411445 32090 db_lmdb.cpp:38] Opened lmdb examples/cifar10/cifar10_test_lmdb
I0408 13:34:04.416538 32083 data_layer.cpp:41] output data size: 100,3,32,32
I0408 13:34:04.419320 32083 net.cpp:150] Setting up cifar
I0408 13:34:04.419363 32083 net.cpp:157] Top shape: 100 3 32 32 (307200)
I0408 13:34:04.419370 32083 net.cpp:157] Top shape: 100 (100)
I0408 13:34:04.419375 32083 net.cpp:165] Memory required for data: 1229200
I0408 13:34:04.419383 32083 layer_factory.hpp:77] Creating layer label_cifar_1_split
I0408 13:34:04.419397 32083 net.cpp:106] Creating Layer label_cifar_1_split
I0408 13:34:04.419402 32083 net.cpp:454] label_cifar_1_split <- label
I0408 13:34:04.419409 32083 net.cpp:411] label_cifar_1_split -> label_cifar_1_split_0
I0408 13:34:04.419420 32083 net.cpp:411] label_cifar_1_split -> label_cifar_1_split_1
I0408 13:34:04.419476 32083 net.cpp:150] Setting up label_cifar_1_split
I0408 13:34:04.419486 32083 net.cpp:157] Top shape: 100 (100)
I0408 13:34:04.419491 32083 net.cpp:157] Top shape: 100 (100)
I0408 13:34:04.419493 32083 net.cpp:165] Memory required for data: 1230000
I0408 13:34:04.419497 32083 layer_factory.hpp:77] Creating layer ip1
I0408 13:34:04.419507 32083 net.cpp:106] Creating Layer ip1
I0408 13:34:04.419509 32083 net.cpp:454] ip1 <- data
I0408 13:34:04.419515 32083 net.cpp:411] ip1 -> ip1
I0408 13:34:04.441025 32083 net.cpp:150] Setting up ip1
I0408 13:34:04.441059 32083 net.cpp:157] Top shape: 100 1024 (102400)
I0408 13:34:04.441063 32083 net.cpp:165] Memory required for data: 1639600
I0408 13:34:04.441076 32083 layer_factory.hpp:77] Creating layer relu1
I0408 13:34:04.441087 32083 net.cpp:106] Creating Layer relu1
I0408 13:34:04.441090 32083 net.cpp:454] relu1 <- ip1
I0408 13:34:04.441095 32083 net.cpp:397] relu1 -> ip1 (in-place)
I0408 13:34:04.441798 32083 net.cpp:150] Setting up relu1
I0408 13:34:04.441824 32083 net.cpp:157] Top shape: 100 1024 (102400)
I0408 13:34:04.441828 32083 net.cpp:165] Memory required for data: 2049200
I0408 13:34:04.441833 32083 layer_factory.hpp:77] Creating layer ip1-2
I0408 13:34:04.441845 32083 net.cpp:106] Creating Layer ip1-2
I0408 13:34:04.441850 32083 net.cpp:454] ip1-2 <- ip1
I0408 13:34:04.441857 32083 net.cpp:411] ip1-2 -> ip1-2
I0408 13:34:04.443102 32083 net.cpp:150] Setting up ip1-2
I0408 13:34:04.443135 32083 net.cpp:157] Top shape: 100 128 (12800)
I0408 13:34:04.443138 32083 net.cpp:165] Memory required for data: 2100400
I0408 13:34:04.443150 32083 layer_factory.hpp:77] Creating layer relu1-2
I0408 13:34:04.443159 32083 net.cpp:106] Creating Layer relu1-2
I0408 13:34:04.443163 32083 net.cpp:454] relu1-2 <- ip1-2
I0408 13:34:04.443168 32083 net.cpp:397] relu1-2 -> ip1-2 (in-place)
I0408 13:34:04.443882 32083 net.cpp:150] Setting up relu1-2
I0408 13:34:04.443908 32083 net.cpp:157] Top shape: 100 128 (12800)
I0408 13:34:04.443912 32083 net.cpp:165] Memory required for data: 2151600
I0408 13:34:04.443938 32083 layer_factory.hpp:77] Creating layer ip2
I0408 13:34:04.443948 32083 net.cpp:106] Creating Layer ip2
I0408 13:34:04.443953 32083 net.cpp:454] ip2 <- ip1-2
I0408 13:34:04.443959 32083 net.cpp:411] ip2 -> ip2
I0408 13:34:04.444844 32083 net.cpp:150] Setting up ip2
I0408 13:34:04.444866 32083 net.cpp:157] Top shape: 100 1024 (102400)
I0408 13:34:04.444869 32083 net.cpp:165] Memory required for data: 2561200
I0408 13:34:04.444882 32083 layer_factory.hpp:77] Creating layer relu2
I0408 13:34:04.444892 32083 net.cpp:106] Creating Layer relu2
I0408 13:34:04.444903 32083 net.cpp:454] relu2 <- ip2
I0408 13:34:04.444913 32083 net.cpp:397] relu2 -> ip2 (in-place)
I0408 13:34:04.445699 32083 net.cpp:150] Setting up relu2
I0408 13:34:04.445724 32083 net.cpp:157] Top shape: 100 1024 (102400)
I0408 13:34:04.445726 32083 net.cpp:165] Memory required for data: 2970800
I0408 13:34:04.445730 32083 layer_factory.hpp:77] Creating layer ip2-3
I0408 13:34:04.445744 32083 net.cpp:106] Creating Layer ip2-3
I0408 13:34:04.445747 32083 net.cpp:454] ip2-3 <- ip2
I0408 13:34:04.445754 32083 net.cpp:411] ip2-3 -> ip2-3
I0408 13:34:04.446980 32083 net.cpp:150] Setting up ip2-3
I0408 13:34:04.447008 32083 net.cpp:157] Top shape: 100 128 (12800)
I0408 13:34:04.447012 32083 net.cpp:165] Memory required for data: 3022000
I0408 13:34:04.447021 32083 layer_factory.hpp:77] Creating layer relu2-3
I0408 13:34:04.447036 32083 net.cpp:106] Creating Layer relu2-3
I0408 13:34:04.447041 32083 net.cpp:454] relu2-3 <- ip2-3
I0408 13:34:04.447046 32083 net.cpp:397] relu2-3 -> ip2-3 (in-place)
I0408 13:34:04.447732 32083 net.cpp:150] Setting up relu2-3
I0408 13:34:04.447753 32083 net.cpp:157] Top shape: 100 128 (12800)
I0408 13:34:04.447757 32083 net.cpp:165] Memory required for data: 3073200
I0408 13:34:04.447760 32083 layer_factory.hpp:77] Creating layer ip3
I0408 13:34:04.447770 32083 net.cpp:106] Creating Layer ip3
I0408 13:34:04.447774 32083 net.cpp:454] ip3 <- ip2-3
I0408 13:34:04.447782 32083 net.cpp:411] ip3 -> ip3
I0408 13:34:04.448642 32083 net.cpp:150] Setting up ip3
I0408 13:34:04.448662 32083 net.cpp:157] Top shape: 100 1024 (102400)
I0408 13:34:04.448667 32083 net.cpp:165] Memory required for data: 3482800
I0408 13:34:04.448679 32083 layer_factory.hpp:77] Creating layer relu3
I0408 13:34:04.448688 32083 net.cpp:106] Creating Layer relu3
I0408 13:34:04.448691 32083 net.cpp:454] relu3 <- ip3
I0408 13:34:04.448698 32083 net.cpp:397] relu3 -> ip3 (in-place)
I0408 13:34:04.449406 32083 net.cpp:150] Setting up relu3
I0408 13:34:04.449430 32083 net.cpp:157] Top shape: 100 1024 (102400)
I0408 13:34:04.449434 32083 net.cpp:165] Memory required for data: 3892400
I0408 13:34:04.449439 32083 layer_factory.hpp:77] Creating layer ip4
I0408 13:34:04.449447 32083 net.cpp:106] Creating Layer ip4
I0408 13:34:04.449451 32083 net.cpp:454] ip4 <- ip3
I0408 13:34:04.449458 32083 net.cpp:411] ip4 -> ip4
I0408 13:34:04.449627 32083 net.cpp:150] Setting up ip4
I0408 13:34:04.449636 32083 net.cpp:157] Top shape: 100 10 (1000)
I0408 13:34:04.449640 32083 net.cpp:165] Memory required for data: 3896400
I0408 13:34:04.449645 32083 layer_factory.hpp:77] Creating layer ip4_ip4_0_split
I0408 13:34:04.449652 32083 net.cpp:106] Creating Layer ip4_ip4_0_split
I0408 13:34:04.449656 32083 net.cpp:454] ip4_ip4_0_split <- ip4
I0408 13:34:04.449659 32083 net.cpp:411] ip4_ip4_0_split -> ip4_ip4_0_split_0
I0408 13:34:04.449666 32083 net.cpp:411] ip4_ip4_0_split -> ip4_ip4_0_split_1
I0408 13:34:04.449693 32083 net.cpp:150] Setting up ip4_ip4_0_split
I0408 13:34:04.449698 32083 net.cpp:157] Top shape: 100 10 (1000)
I0408 13:34:04.449702 32083 net.cpp:157] Top shape: 100 10 (1000)
I0408 13:34:04.449704 32083 net.cpp:165] Memory required for data: 3904400
I0408 13:34:04.449707 32083 layer_factory.hpp:77] Creating layer accuracy
I0408 13:34:04.449713 32083 net.cpp:106] Creating Layer accuracy
I0408 13:34:04.449717 32083 net.cpp:454] accuracy <- ip4_ip4_0_split_0
I0408 13:34:04.449719 32083 net.cpp:454] accuracy <- label_cifar_1_split_0
I0408 13:34:04.449723 32083 net.cpp:411] accuracy -> accuracy
…
