…
I0425 16:46:29.955175 13142 net.cpp:322] The NetState phase (0) differed from the phase (1) specified by a rule in layer batch3
I0425 16:46:29.955181 13142 net.cpp:322] The NetState phase (0) differed from the phase (1) specified by a rule in layer accuracy
I0425 16:46:29.955327 13142 net.cpp:49] Initializing net from parameters: 
name: "CIFAR10_full"
state {
  phase: TRAIN
}
layer {
  name: "cifar"
  type: "Data"
  top: "data"
  top: "label"
  include {
    phase: TRAIN
  }
  transform_param {
    mean_file: "examples/cifar10/mean.binaryproto"
  }
  data_param {
    source: "examples/cifar10/cifar10_train_lmdb"
    batch_size: 100
    backend: LMDB
  }
}
layer {
  name: "conv1"
  type: "Convolution"
  bottom: "data"
  top: "conv1"
  param {
    lr_mult: 1
  }
  param {
    lr_mult: 2
  }
  convolution_param {
    num_output: 32
    pad: 2
    kernel_size: 5
    stride: 1
    weight_filler {
      type: "gaussian"
      std: 0.0001
    }
    bias_filler {
      type: "constant"
    }
  }
}
layer {
  name: "batch1"
  type: "BatchNorm"
  bottom: "conv1"
  top: "batch1"
  param {
    lr_mult: 0
  }
  param {
    lr_mult: 0
  }
  param {
    lr_mult: 0
  }
  include {
    phase: TRAIN
  }
  batch_norm_param {
    use_global_stats: false
  }
}
layer {
  name: "pool1"
  type: "Pooling"
  bottom: "batch1"
  top: "pool1"
  pooling_param {
    pool: MAX
    kernel_size: 3
    stride: 2
  }
}
layer {
  name: "relu1"
  type: "ReLU"
  bottom: "pool1"
  top: "pool1"
}
layer {
  name: "norm1"
  type: "LRN"
  bottom: "pool1"
  top: "norm1"
  lrn_param {
    local_size: 3
    alpha: 5e-05
    beta: 0.75
    norm_region: WITHIN_CHANNEL
  }
}
layer {
  name: "conv2"
  type: "Convolution"
  bottom: "norm1"
  top: "conv2"
  param {
    lr_mult: 1
  }
  param {
    lr_mult: 2
  }
  convolution_param {
    num_output: 32
    pad: 2
    kernel_size: 5
    stride: 1
    weight_filler {
      type: "gaussian"
      std: 0.01
    }
    bias_filler {
      type: "constant"
    }
  }
}
layer {
  name: "batch2"
  type: "BatchNorm"
  bottom: "conv2"
  top: "batch2"
  param {
    lr_mult: 0
  }
  param {
    lr_mult: 0
  }
  param {
    lr_mult: 0
  }
  include {
    phase: TRAIN
  }
  batch_norm_param {
    use_global_stats: false
  }
}
layer {
  name: "relu2"
  type: "ReLU"
  bottom: "batch2"
  top: "relu2"
}
layer {
  name: "pool2"
  type: "Pooling"
  bottom: "relu2"
  top: "pool2"
  pooling_param {
    pool: AVE
    kernel_size: 3
    stride: 2
  }
}
layer {
  name: "norm2"
  type: "LRN"
  bottom: "pool2"
  top: "norm2"
  lrn_param {
    local_size: 3
    alpha: 5e-05
    beta: 0.75
    norm_region: WITHIN_CHANNEL
  }
}
layer {
  name: "conv3"
  type: "Convolution"
  bottom: "norm2"
  top: "conv3"
  convolution_param {
    num_output: 64
    pad: 2
    kernel_size: 5
    stride: 1
    weight_filler {
      type: "gaussian"
      std: 0.01
    }
    bias_filler {
      type: "constant"
    }
  }
}
layer {
  name: "batch3"
  type: "BatchNorm"
  bottom: "conv3"
  top: "batch3"
  param {
    lr_mult: 0
  }
  param {
    lr_mult: 0
  }
  param {
    lr_mult: 0
  }
  include {
    phase: TRAIN
  }
  batch_norm_param {
    use_global_stats: false
  }
}
layer {
  name: "relu3"
  type: "ReLU"
  bottom: "batch3"
  top: "relu3"
}
layer {
  name: "pool3"
  type: "Pooling"
  bottom: "relu3"
  top: "pool3"
  pooling_param {
    pool: AVE
    kernel_size: 3
    stride: 2
  }
}
layer {
  name: "ip3"
  type: "InnerProduct"
  bottom: "pool3"
  top: "ip3"
  param {
    lr_mult: 1
  }
  param {
    lr_mult: 2
  }
  inner_product_param {
    num_output: 10
    weight_filler {
      type: "gaussian"
      std: 0.1
    }
    bias_filler {
      type: "constant"
    }
  }
}
layer {
  name: "loss"
  type: "SoftmaxWithLoss"
  bottom: "ip3"
  bottom: "label"
  top: "loss"
}
I0425 16:46:29.955471 13142 layer_factory.hpp:77] Creating layer cifar
I0425 16:46:29.956409 13142 net.cpp:106] Creating Layer cifar
I0425 16:46:29.956429 13142 net.cpp:411] cifar -> data
I0425 16:46:29.956493 13142 net.cpp:411] cifar -> label
I0425 16:46:29.956537 13142 data_transformer.cpp:25] Loading mean file from: examples/cifar10/mean.binaryproto
I0425 16:46:29.958591 13147 db_lmdb.cpp:38] Opened lmdb examples/cifar10/cifar10_train_lmdb
I0425 16:46:29.966244 13142 data_layer.cpp:41] output data size: 100,3,32,32
I0425 16:46:29.969104 13142 net.cpp:150] Setting up cifar
I0425 16:46:29.969128 13142 net.cpp:157] Top shape: 100 3 32 32 (307200)
I0425 16:46:29.969135 13142 net.cpp:157] Top shape: 100 (100)
I0425 16:46:29.969138 13142 net.cpp:165] Memory required for data: 1229200
I0425 16:46:29.969151 13142 layer_factory.hpp:77] Creating layer conv1
I0425 16:46:29.969199 13142 net.cpp:106] Creating Layer conv1
I0425 16:46:29.969214 13142 net.cpp:454] conv1 <- data
I0425 16:46:29.969228 13142 net.cpp:411] conv1 -> conv1
I0425 16:46:30.104679 13142 net.cpp:150] Setting up conv1
I0425 16:46:30.104712 13142 net.cpp:157] Top shape: 100 32 32 32 (3276800)
I0425 16:46:30.104717 13142 net.cpp:165] Memory required for data: 14336400
I0425 16:46:30.104733 13142 layer_factory.hpp:77] Creating layer batch1
I0425 16:46:30.104753 13142 net.cpp:106] Creating Layer batch1
I0425 16:46:30.104756 13142 net.cpp:454] batch1 <- conv1
I0425 16:46:30.104763 13142 net.cpp:411] batch1 -> batch1
I0425 16:46:30.104921 13142 net.cpp:150] Setting up batch1
I0425 16:46:30.104930 13142 net.cpp:157] Top shape: 100 32 32 32 (3276800)
I0425 16:46:30.104934 13142 net.cpp:165] Memory required for data: 27443600
I0425 16:46:30.104943 13142 layer_factory.hpp:77] Creating layer pool1
I0425 16:46:30.104951 13142 net.cpp:106] Creating Layer pool1
I0425 16:46:30.104954 13142 net.cpp:454] pool1 <- batch1
I0425 16:46:30.104959 13142 net.cpp:411] pool1 -> pool1
I0425 16:46:30.105550 13142 net.cpp:150] Setting up pool1
I0425 16:46:30.105562 13142 net.cpp:157] Top shape: 100 32 16 16 (819200)
I0425 16:46:30.105566 13142 net.cpp:165] Memory required for data: 30720400
I0425 16:46:30.105571 13142 layer_factory.hpp:77] Creating layer relu1
I0425 16:46:30.105576 13142 net.cpp:106] Creating Layer relu1
I0425 16:46:30.105581 13142 net.cpp:454] relu1 <- pool1
I0425 16:46:30.105584 13142 net.cpp:397] relu1 -> pool1 (in-place)
I0425 16:46:30.106123 13142 net.cpp:150] Setting up relu1
I0425 16:46:30.106137 13142 net.cpp:157] Top shape: 100 32 16 16 (819200)
I0425 16:46:30.106139 13142 net.cpp:165] Memory required for data: 33997200
I0425 16:46:30.106142 13142 layer_factory.hpp:77] Creating layer norm1
I0425 16:46:30.106154 13142 net.cpp:106] Creating Layer norm1
I0425 16:46:30.106158 13142 net.cpp:454] norm1 <- pool1
I0425 16:46:30.106163 13142 net.cpp:411] norm1 -> norm1
I0425 16:46:30.106995 13142 net.cpp:150] Setting up norm1
I0425 16:46:30.107009 13142 net.cpp:157] Top shape: 100 32 16 16 (819200)
I0425 16:46:30.107012 13142 net.cpp:165] Memory required for data: 37274000
I0425 16:46:30.107017 13142 layer_factory.hpp:77] Creating layer conv2
I0425 16:46:30.107025 13142 net.cpp:106] Creating Layer conv2
I0425 16:46:30.107028 13142 net.cpp:454] conv2 <- norm1
I0425 16:46:30.107034 13142 net.cpp:411] conv2 -> conv2
I0425 16:46:30.110143 13142 net.cpp:150] Setting up conv2
I0425 16:46:30.110158 13142 net.cpp:157] Top shape: 100 32 16 16 (819200)
I0425 16:46:30.110162 13142 net.cpp:165] Memory required for data: 40550800
I0425 16:46:30.110186 13142 layer_factory.hpp:77] Creating layer batch2
I0425 16:46:30.110196 13142 net.cpp:106] Creating Layer batch2
I0425 16:46:30.110199 13142 net.cpp:454] batch2 <- conv2
I0425 16:46:30.110205 13142 net.cpp:411] batch2 -> batch2
I0425 16:46:30.110359 13142 net.cpp:150] Setting up batch2
I0425 16:46:30.110368 13142 net.cpp:157] Top shape: 100 32 16 16 (819200)
I0425 16:46:30.110370 13142 net.cpp:165] Memory required for data: 43827600
I0425 16:46:30.110379 13142 layer_factory.hpp:77] Creating layer relu2
I0425 16:46:30.110385 13142 net.cpp:106] Creating Layer relu2
I0425 16:46:30.110388 13142 net.cpp:454] relu2 <- batch2
I0425 16:46:30.110393 13142 net.cpp:411] relu2 -> relu2
I0425 16:46:30.111021 13142 net.cpp:150] Setting up relu2
I0425 16:46:30.111035 13142 net.cpp:157] Top shape: 100 32 16 16 (819200)
I0425 16:46:30.111038 13142 net.cpp:165] Memory required for data: 47104400
I0425 16:46:30.111042 13142 layer_factory.hpp:77] Creating layer pool2
I0425 16:46:30.111049 13142 net.cpp:106] Creating Layer pool2
I0425 16:46:30.111052 13142 net.cpp:454] pool2 <- relu2
I0425 16:46:30.111057 13142 net.cpp:411] pool2 -> pool2
I0425 16:46:30.111662 13142 net.cpp:150] Setting up pool2
I0425 16:46:30.111675 13142 net.cpp:157] Top shape: 100 32 8 8 (204800)
I0425 16:46:30.111678 13142 net.cpp:165] Memory required for data: 47923600
I0425 16:46:30.111682 13142 layer_factory.hpp:77] Creating layer norm2
I0425 16:46:30.111690 13142 net.cpp:106] Creating Layer norm2
I0425 16:46:30.111692 13142 net.cpp:454] norm2 <- pool2
I0425 16:46:30.111698 13142 net.cpp:411] norm2 -> norm2
I0425 16:46:30.112547 13142 net.cpp:150] Setting up norm2
I0425 16:46:30.112561 13142 net.cpp:157] Top shape: 100 32 8 8 (204800)
I0425 16:46:30.112565 13142 net.cpp:165] Memory required for data: 48742800
I0425 16:46:30.112567 13142 layer_factory.hpp:77] Creating layer conv3
I0425 16:46:30.112576 13142 net.cpp:106] Creating Layer conv3
I0425 16:46:30.112579 13142 net.cpp:454] conv3 <- norm2
I0425 16:46:30.112584 13142 net.cpp:411] conv3 -> conv3
I0425 16:46:30.115880 13142 net.cpp:150] Setting up conv3
I0425 16:46:30.115895 13142 net.cpp:157] Top shape: 100 64 8 8 (409600)
I0425 16:46:30.115897 13142 net.cpp:165] Memory required for data: 50381200
I0425 16:46:30.115905 13142 layer_factory.hpp:77] Creating layer batch3
I0425 16:46:30.115914 13142 net.cpp:106] Creating Layer batch3
I0425 16:46:30.115917 13142 net.cpp:454] batch3 <- conv3
I0425 16:46:30.115922 13142 net.cpp:411] batch3 -> batch3
I0425 16:46:30.116082 13142 net.cpp:150] Setting up batch3
I0425 16:46:30.116091 13142 net.cpp:157] Top shape: 100 64 8 8 (409600)
I0425 16:46:30.116093 13142 net.cpp:165] Memory required for data: 52019600
I0425 16:46:30.116101 13142 layer_factory.hpp:77] Creating layer relu3
I0425 16:46:30.116106 13142 net.cpp:106] Creating Layer relu3
I0425 16:46:30.116108 13142 net.cpp:454] relu3 <- batch3
I0425 16:46:30.116113 13142 net.cpp:411] relu3 -> relu3
I0425 16:46:30.116742 13142 net.cpp:150] Setting up relu3
I0425 16:46:30.116755 13142 net.cpp:157] Top shape: 100 64 8 8 (409600)
I0425 16:46:30.116760 13142 net.cpp:165] Memory required for data: 53658000
I0425 16:46:30.116762 13142 layer_factory.hpp:77] Creating layer pool3
I0425 16:46:30.116770 13142 net.cpp:106] Creating Layer pool3
I0425 16:46:30.116772 13142 net.cpp:454] pool3 <- relu3
I0425 16:46:30.116776 13142 net.cpp:411] pool3 -> pool3
I0425 16:46:30.117394 13142 net.cpp:150] Setting up pool3
I0425 16:46:30.117409 13142 net.cpp:157] Top shape: 100 64 4 4 (102400)
I0425 16:46:30.117413 13142 net.cpp:165] Memory required for data: 54067600
I0425 16:46:30.117415 13142 layer_factory.hpp:77] Creating layer ip3
I0425 16:46:30.117424 13142 net.cpp:106] Creating Layer ip3
I0425 16:46:30.117426 13142 net.cpp:454] ip3 <- pool3
I0425 16:46:30.117432 13142 net.cpp:411] ip3 -> ip3
I0425 16:46:30.118207 13142 net.cpp:150] Setting up ip3
I0425 16:46:30.118221 13142 net.cpp:157] Top shape: 100 10 (1000)
I0425 16:46:30.118223 13142 net.cpp:165] Memory required for data: 54071600
I0425 16:46:30.118243 13142 layer_factory.hpp:77] Creating layer loss
I0425 16:46:30.118253 13142 net.cpp:106] Creating Layer loss
I0425 16:46:30.118257 13142 net.cpp:454] loss <- ip3
I0425 16:46:30.118260 13142 net.cpp:454] loss <- label
I0425 16:46:30.118266 13142 net.cpp:411] loss -> loss
I0425 16:46:30.118276 13142 layer_factory.hpp:77] Creating layer loss
…
I0425 16:46:30.119642 13142 net.cpp:322] The NetState phase (1) differed from the phase (0) specified by a rule in layer batch2
I0425 16:46:30.119647 13142 net.cpp:322] The NetState phase (1) differed from the phase (0) specified by a rule in layer batch3
I0425 16:46:30.119755 13142 net.cpp:49] Initializing net from parameters: 
name: "CIFAR10_full"
state {
  phase: TEST
}
layer {
  name: "cifar"
  type: "Data"
  top: "data"
  top: "label"
  include {
    phase: TEST
  }
  transform_param {
    mean_file: "examples/cifar10/mean.binaryproto"
  }
  data_param {
    source: "examples/cifar10/cifar10_test_lmdb"
    batch_size: 100
    backend: LMDB
  }
}
layer {
  name: "conv1"
  type: "Convolution"
  bottom: "data"
  top: "conv1"
  param {
    lr_mult: 1
  }
  param {
    lr_mult: 2
  }
  convolution_param {
    num_output: 32
    pad: 2
    kernel_size: 5
    stride: 1
    weight_filler {
      type: "gaussian"
      std: 0.0001
    }
    bias_filler {
      type: "constant"
    }
  }
}
layer {
  name: "batch1"
  type: "BatchNorm"
  bottom: "conv1"
  top: "batch1"
  param {
    lr_mult: 0
  }
  param {
    lr_mult: 0
  }
  param {
    lr_mult: 0
  }
  include {
    phase: TEST
  }
  batch_norm_param {
    use_global_stats: true
  }
}
layer {
  name: "pool1"
  type: "Pooling"
  bottom: "batch1"
  top: "pool1"
  pooling_param {
    pool: MAX
    kernel_size: 3
    stride: 2
  }
}
layer {
  name: "relu1"
  type: "ReLU"
  bottom: "pool1"
  top: "pool1"
}
layer {
  name: "norm1"
  type: "LRN"
  bottom: "pool1"
  top: "norm1"
  lrn_param {
    local_size: 3
    alpha: 5e-05
    beta: 0.75
    norm_region: WITHIN_CHANNEL
  }
}
layer {
  name: "conv2"
  type: "Convolution"
  bottom: "norm1"
  top: "conv2"
  param {
    lr_mult: 1
  }
  param {
    lr_mult: 2
  }
  convolution_param {
    num_output: 32
    pad: 2
    kernel_size: 5
    stride: 1
    weight_filler {
      type: "gaussian"
      std: 0.01
    }
    bias_filler {
      type: "constant"
    }
  }
}
layer {
  name: "batch2"
  type: "BatchNorm"
  bottom: "conv2"
  top: "batch2"
  param {
    lr_mult: 0
  }
  param {
    lr_mult: 0
  }
  param {
    lr_mult: 0
  }
  include {
    phase: TEST
  }
  batch_norm_param {
    use_global_stats: true
  }
}
layer {
  name: "relu2"
  type: "ReLU"
  bottom: "batch2"
  top: "relu2"
}
layer {
  name: "pool2"
  type: "Pooling"
  bottom: "relu2"
  top: "pool2"
  pooling_param {
    pool: AVE
    kernel_size: 3
    stride: 2
  }
}
layer {
  name: "norm2"
  type: "LRN"
  bottom: "pool2"
  top: "norm2"
  lrn_param {
    local_size: 3
    alpha: 5e-05
    beta: 0.75
    norm_region: WITHIN_CHANNEL
  }
}
layer {
  name: "conv3"
  type: "Convolution"
  bottom: "norm2"
  top: "conv3"
  convolution_param {
    num_output: 64
    pad: 2
    kernel_size: 5
    stride: 1
    weight_filler {
      type: "gaussian"
      std: 0.01
    }
    bias_filler {
      type: "constant"
    }
  }
}
layer {
  name: "batch3"
  type: "BatchNorm"
  bottom: "conv3"
  top: "batch3"
  param {
    lr_mult: 0
  }
  param {
    lr_mult: 0
  }
  param {
    lr_mult: 0
  }
  include {
    phase: TEST
  }
  batch_norm_param {
    use_global_stats: true
  }
}
layer {
  name: "relu3"
  type: "ReLU"
  bottom: "batch3"
  top: "relu3"
}
layer {
  name: "pool3"
  type: "Pooling"
  bottom: "relu3"
  top: "pool3"
  pooling_param {
    pool: AVE
    kernel_size: 3
    stride: 2
  }
}
layer {
  name: "ip3"
  type: "InnerProduct"
  bottom: "pool3"
  top: "ip3"
  param {
    lr_mult: 1
  }
  param {
    lr_mult: 2
  }
  inner_product_param {
    num_output: 10
    weight_filler {
      type: "gaussian"
      std: 0.1
    }
    bias_filler {
      type: "constant"
    }
  }
}
layer {
  name: "accuracy"
  type: "Accuracy"
  bottom: "ip3"
  bottom: "label"
  top: "accuracy"
  include {
    phase: TEST
  }
}
layer {
  name: "loss"
  type: "SoftmaxWithLoss"
  bottom: "ip3"
  bottom: "label"
  top: "loss"
}
I0425 16:46:30.119858 13142 layer_factory.hpp:77] Creating layer cifar
I0425 16:46:30.119956 13142 net.cpp:106] Creating Layer cifar
I0425 16:46:30.119982 13142 net.cpp:411] cifar -> data
I0425 16:46:30.119990 13142 net.cpp:411] cifar -> label
I0425 16:46:30.119998 13142 data_transformer.cpp:25] Loading mean file from: examples/cifar10/mean.binaryproto
I0425 16:46:30.121688 13149 db_lmdb.cpp:38] Opened lmdb examples/cifar10/cifar10_test_lmdb
I0425 16:46:30.121820 13142 data_layer.cpp:41] output data size: 100,3,32,32
I0425 16:46:30.124259 13142 net.cpp:150] Setting up cifar
I0425 16:46:30.124275 13142 net.cpp:157] Top shape: 100 3 32 32 (307200)
I0425 16:46:30.124280 13142 net.cpp:157] Top shape: 100 (100)
I0425 16:46:30.124284 13142 net.cpp:165] Memory required for data: 1229200
I0425 16:46:30.124286 13142 layer_factory.hpp:77] Creating layer label_cifar_1_split
I0425 16:46:30.124294 13142 net.cpp:106] Creating Layer label_cifar_1_split
I0425 16:46:30.124311 13142 net.cpp:454] label_cifar_1_split <- label
I0425 16:46:30.124316 13142 net.cpp:411] label_cifar_1_split -> label_cifar_1_split_0
I0425 16:46:30.124323 13142 net.cpp:411] label_cifar_1_split -> label_cifar_1_split_1
I0425 16:46:30.124379 13142 net.cpp:150] Setting up label_cifar_1_split
I0425 16:46:30.124385 13142 net.cpp:157] Top shape: 100 (100)
I0425 16:46:30.124389 13142 net.cpp:157] Top shape: 100 (100)
I0425 16:46:30.124392 13142 net.cpp:165] Memory required for data: 1230000
I0425 16:46:30.124394 13142 layer_factory.hpp:77] Creating layer conv1
I0425 16:46:30.124404 13142 net.cpp:106] Creating Layer conv1
I0425 16:46:30.124408 13142 net.cpp:454] conv1 <- data
I0425 16:46:30.124413 13142 net.cpp:411] conv1 -> conv1
I0425 16:46:30.127025 13142 net.cpp:150] Setting up conv1
I0425 16:46:30.127044 13142 net.cpp:157] Top shape: 100 32 32 32 (3276800)
I0425 16:46:30.127061 13142 net.cpp:165] Memory required for data: 14337200
I0425 16:46:30.127073 13142 layer_factory.hpp:77] Creating layer batch1
I0425 16:46:30.127079 13142 net.cpp:106] Creating Layer batch1
I0425 16:46:30.127082 13142 net.cpp:454] batch1 <- conv1
I0425 16:46:30.127090 13142 net.cpp:411] batch1 -> batch1
I0425 16:46:30.127267 13142 net.cpp:150] Setting up batch1
I0425 16:46:30.127275 13142 net.cpp:157] Top shape: 100 32 32 32 (3276800)
I0425 16:46:30.127285 13142 net.cpp:165] Memory required for data: 27444400
I0425 16:46:30.127296 13142 layer_factory.hpp:77] Creating layer pool1
I0425 16:46:30.127305 13142 net.cpp:106] Creating Layer pool1
I0425 16:46:30.127307 13142 net.cpp:454] pool1 <- batch1
I0425 16:46:30.127322 13142 net.cpp:411] pool1 -> pool1
I0425 16:46:30.127975 13142 net.cpp:150] Setting up pool1
I0425 16:46:30.127988 13142 net.cpp:157] Top shape: 100 32 16 16 (819200)
I0425 16:46:30.127993 13142 net.cpp:165] Memory required for data: 30721200
I0425 16:46:30.127996 13142 layer_factory.hpp:77] Creating layer relu1
I0425 16:46:30.128002 13142 net.cpp:106] Creating Layer relu1
I0425 16:46:30.128005 13142 net.cpp:454] relu1 <- pool1
I0425 16:46:30.128011 13142 net.cpp:397] relu1 -> pool1 (in-place)
I0425 16:46:30.128618 13142 net.cpp:150] Setting up relu1
I0425 16:46:30.128638 13142 net.cpp:157] Top shape: 100 32 16 16 (819200)
I0425 16:46:30.128640 13142 net.cpp:165] Memory required for data: 33998000
I0425 16:46:30.128643 13142 layer_factory.hpp:77] Creating layer norm1
I0425 16:46:30.128654 13142 net.cpp:106] Creating Layer norm1
I0425 16:46:30.128656 13142 net.cpp:454] norm1 <- pool1
I0425 16:46:30.128660 13142 net.cpp:411] norm1 -> norm1
I0425 16:46:30.129647 13142 net.cpp:150] Setting up norm1
I0425 16:46:30.129662 13142 net.cpp:157] Top shape: 100 32 16 16 (819200)
I0425 16:46:30.129665 13142 net.cpp:165] Memory required for data: 37274800
I0425 16:46:30.129668 13142 layer_factory.hpp:77] Creating layer conv2
I0425 16:46:30.129678 13142 net.cpp:106] Creating Layer conv2
I0425 16:46:30.129680 13142 net.cpp:454] conv2 <- norm1
I0425 16:46:30.129688 13142 net.cpp:411] conv2 -> conv2
I0425 16:46:30.132720 13142 net.cpp:150] Setting up conv2
I0425 16:46:30.132735 13142 net.cpp:157] Top shape: 100 32 16 16 (819200)
I0425 16:46:30.132737 13142 net.cpp:165] Memory required for data: 40551600
I0425 16:46:30.132743 13142 layer_factory.hpp:77] Creating layer batch2
I0425 16:46:30.132752 13142 net.cpp:106] Creating Layer batch2
I0425 16:46:30.132756 13142 net.cpp:454] batch2 <- conv2
I0425 16:46:30.132762 13142 net.cpp:411] batch2 -> batch2
I0425 16:46:30.133052 13142 net.cpp:150] Setting up batch2
I0425 16:46:30.133064 13142 net.cpp:157] Top shape: 100 32 16 16 (819200)
I0425 16:46:30.133066 13142 net.cpp:165] Memory required for data: 43828400
I0425 16:46:30.133080 13142 layer_factory.hpp:77] Creating layer relu2
I0425 16:46:30.133085 13142 net.cpp:106] Creating Layer relu2
I0425 16:46:30.133087 13142 net.cpp:454] relu2 <- batch2
I0425 16:46:30.133092 13142 net.cpp:411] relu2 -> relu2
I0425 16:46:30.133731 13142 net.cpp:150] Setting up relu2
I0425 16:46:30.133745 13142 net.cpp:157] Top shape: 100 32 16 16 (819200)
I0425 16:46:30.133749 13142 net.cpp:165] Memory required for data: 47105200
I0425 16:46:30.133752 13142 layer_factory.hpp:77] Creating layer pool2
I0425 16:46:30.133762 13142 net.cpp:106] Creating Layer pool2
I0425 16:46:30.133765 13142 net.cpp:454] pool2 <- relu2
I0425 16:46:30.133774 13142 net.cpp:411] pool2 -> pool2
I0425 16:46:30.134400 13142 net.cpp:150] Setting up pool2
I0425 16:46:30.134415 13142 net.cpp:157] Top shape: 100 32 8 8 (204800)
I0425 16:46:30.134428 13142 net.cpp:165] Memory required for data: 47924400
I0425 16:46:30.134439 13142 layer_factory.hpp:77] Creating layer norm2
I0425 16:46:30.134445 13142 net.cpp:106] Creating Layer norm2
I0425 16:46:30.134449 13142 net.cpp:454] norm2 <- pool2
I0425 16:46:30.134455 13142 net.cpp:411] norm2 -> norm2
I0425 16:46:30.135406 13142 net.cpp:150] Setting up norm2
I0425 16:46:30.135423 13142 net.cpp:157] Top shape: 100 32 8 8 (204800)
I0425 16:46:30.135445 13142 net.cpp:165] Memory required for data: 48743600
I0425 16:46:30.135457 13142 layer_factory.hpp:77] Creating layer conv3
I0425 16:46:30.135479 13142 net.cpp:106] Creating Layer conv3
I0425 16:46:30.135515 13142 net.cpp:454] conv3 <- norm2
I0425 16:46:30.135534 13142 net.cpp:411] conv3 -> conv3
I0425 16:46:30.139004 13142 net.cpp:150] Setting up conv3
I0425 16:46:30.139021 13142 net.cpp:157] Top shape: 100 64 8 8 (409600)
I0425 16:46:30.139027 13142 net.cpp:165] Memory required for data: 50382000
I0425 16:46:30.139037 13142 layer_factory.hpp:77] Creating layer batch3
I0425 16:46:30.139052 13142 net.cpp:106] Creating Layer batch3
I0425 16:46:30.139056 13142 net.cpp:454] batch3 <- conv3
I0425 16:46:30.139061 13142 net.cpp:411] batch3 -> batch3
I0425 16:46:30.139246 13142 net.cpp:150] Setting up batch3
I0425 16:46:30.139256 13142 net.cpp:157] Top shape: 100 64 8 8 (409600)
I0425 16:46:30.139258 13142 net.cpp:165] Memory required for data: 52020400
I0425 16:46:30.139264 13142 layer_factory.hpp:77] Creating layer relu3
I0425 16:46:30.139271 13142 net.cpp:106] Creating Layer relu3
I0425 16:46:30.139276 13142 net.cpp:454] relu3 <- batch3
I0425 16:46:30.139279 13142 net.cpp:411] relu3 -> relu3
I0425 16:46:30.139924 13142 net.cpp:150] Setting up relu3
I0425 16:46:30.139937 13142 net.cpp:157] Top shape: 100 64 8 8 (409600)
I0425 16:46:30.139940 13142 net.cpp:165] Memory required for data: 53658800
I0425 16:46:30.139943 13142 layer_factory.hpp:77] Creating layer pool3
I0425 16:46:30.139950 13142 net.cpp:106] Creating Layer pool3
I0425 16:46:30.139952 13142 net.cpp:454] pool3 <- relu3
I0425 16:46:30.139958 13142 net.cpp:411] pool3 -> pool3
I0425 16:46:30.140583 13142 net.cpp:150] Setting up pool3
I0425 16:46:30.140599 13142 net.cpp:157] Top shape: 100 64 4 4 (102400)
I0425 16:46:30.140602 13142 net.cpp:165] Memory required for data: 54068400
I0425 16:46:30.140605 13142 layer_factory.hpp:77] Creating layer ip3
I0425 16:46:30.140614 13142 net.cpp:106] Creating Layer ip3
I0425 16:46:30.140617 13142 net.cpp:454] ip3 <- pool3
I0425 16:46:30.140625 13142 net.cpp:411] ip3 -> ip3
I0425 16:46:30.140997 13142 net.cpp:150] Setting up ip3
I0425 16:46:30.141006 13142 net.cpp:157] Top shape: 100 10 (1000)
I0425 16:46:30.141010 13142 net.cpp:165] Memory required for data: 54072400
I0425 16:46:30.141021 13142 layer_factory.hpp:77] Creating layer ip3_ip3_0_split
I0425 16:46:30.141026 13142 net.cpp:106] Creating Layer ip3_ip3_0_split
I0425 16:46:30.141031 13142 net.cpp:454] ip3_ip3_0_split <- ip3
I0425 16:46:30.141034 13142 net.cpp:411] ip3_ip3_0_split -> ip3_ip3_0_split_0
I0425 16:46:30.141041 13142 net.cpp:411] ip3_ip3_0_split -> ip3_ip3_0_split_1
I0425 16:46:30.141077 13142 net.cpp:150] Setting up ip3_ip3_0_split
I0425 16:46:30.141085 13142 net.cpp:157] Top shape: 100 10 (1000)
I0425 16:46:30.141089 13142 net.cpp:157] Top shape: 100 10 (1000)
I0425 16:46:30.141091 13142 net.cpp:165] Memory required for data: 54080400
I0425 16:46:30.141094 13142 layer_factory.hpp:77] Creating layer accuracy
I0425 16:46:30.141099 13142 net.cpp:106] Creating Layer accuracy
I0425 16:46:30.141103 13142 net.cpp:454] accuracy <- ip3_ip3_0_split_0
I0425 16:46:30.141106 13142 net.cpp:454] accuracy <- label_cifar_1_split_0
I0425 16:46:30.141110 13142 net.cpp:411] accuracy -> accuracy
…
