…
I0415 14:12:50.258849 16619 net.cpp:322] The NetState phase (0) differed from the phase (1) specified by a rule in layer cifar
I0415 14:12:50.258868 16619 net.cpp:322] The NetState phase (0) differed from the phase (1) specified by a rule in layer accuracy
I0415 14:12:50.258965 16619 net.cpp:49] Initializing net from parameters: 
name: "CIFAR10_full"
state {
  phase: TRAIN
}
layer {
  name: "cifar"
  type: "Data"
  top: "data"
  top: "label"
  include {
    phase: TRAIN
  }
  transform_param {
    mean_file: "examples/cifar10/mean.binaryproto"
  }
  data_param {
    source: "examples/cifar10/cifar10_train_lmdb"
    batch_size: 100
    backend: LMDB
  }
}
layer {
  name: "conv1"
  type: "Convolution"
  bottom: "data"
  top: "conv1"
  param {
    lr_mult: 1
  }
  param {
    lr_mult: 2
  }
  convolution_param {
    num_output: 32
    pad: 2
    kernel_size: 5
    stride: 1
    weight_filler {
      type: "gaussian"
      std: 0.0001
    }
    bias_filler {
      type: "constant"
    }
  }
}
layer {
  name: "pool1"
  type: "Pooling"
  bottom: "conv1"
  top: "pool1"
  pooling_param {
    pool: MAX
    kernel_size: 3
    stride: 2
  }
}
layer {
  name: "relu1"
  type: "ReLU"
  bottom: "pool1"
  top: "pool1"
}
layer {
  name: "norm1"
  type: "LRN"
  bottom: "pool1"
  top: "norm1"
  lrn_param {
    local_size: 3
    alpha: 5e-05
    beta: 0.75
    norm_region: WITHIN_CHANNEL
  }
}
layer {
  name: "conv2"
  type: "Convolution"
  bottom: "norm1"
  top: "conv2"
  param {
    lr_mult: 1
  }
  param {
    lr_mult: 2
  }
  convolution_param {
    num_output: 32
    pad: 2
    kernel_size: 5
    stride: 1
    weight_filler {
      type: "gaussian"
      std: 0.01
    }
    bias_filler {
      type: "constant"
    }
  }
}
layer {
  name: "relu2"
  type: "ReLU"
  bottom: "conv2"
  top: "conv2"
}
layer {
  name: "pool2"
  type: "Pooling"
  bottom: "conv2"
  top: "pool2"
  pooling_param {
    pool: AVE
    kernel_size: 3
    stride: 2
  }
}
layer {
  name: "norm2"
  type: "LRN"
  bottom: "pool2"
  top: "norm2"
  lrn_param {
    local_size: 3
    alpha: 5e-05
    beta: 0.75
    norm_region: WITHIN_CHANNEL
  }
}
layer {
  name: "conv3"
  type: "Convolution"
  bottom: "norm2"
  top: "conv3"
  convolution_param {
    num_output: 64
    pad: 2
    kernel_size: 5
    stride: 1
    weight_filler {
      type: "gaussian"
      std: 0.01
    }
    bias_filler {
      type: "constant"
    }
  }
}
layer {
  name: "relu3"
  type: "ReLU"
  bottom: "conv3"
  top: "conv3"
}
layer {
  name: "pool3"
  type: "Pooling"
  bottom: "conv3"
  top: "pool3"
  pooling_param {
    pool: AVE
    kernel_size: 3
    stride: 2
  }
}
layer {
  name: "ip2"
  type: "InnerProduct"
  bottom: "pool3"
  top: "ip2"
  param {
    lr_mult: 1
  }
  param {
    lr_mult: 2
  }
  inner_product_param {
    num_output: 128
    weight_filler {
      type: "gaussian"
      std: 0.1
    }
    bias_filler {
      type: "constant"
    }
  }
}
layer {
  name: "relu5"
  type: "ReLU"
  bottom: "ip2"
  top: "ip2"
}
layer {
  name: "ip3"
  type: "InnerProduct"
  bottom: "ip2"
  top: "ip3"
  param {
    lr_mult: 1
  }
  param {
    lr_mult: 2
  }
  inner_product_param {
    num_output: 10
    weight_filler {
      type: "gaussian"
      std: 0.1
    }
    bias_filler {
      type: "constant"
    }
  }
}
layer {
  name: "loss"
  type: "SoftmaxWithLoss"
  bottom: "ip3"
  bottom: "label"
  top: "loss"
}
I0415 14:12:50.259047 16619 layer_factory.hpp:77] Creating layer cifar
I0415 14:12:50.259510 16619 net.cpp:106] Creating Layer cifar
I0415 14:12:50.259523 16619 net.cpp:411] cifar -> data
I0415 14:12:50.259563 16619 net.cpp:411] cifar -> label
I0415 14:12:50.259583 16619 data_transformer.cpp:25] Loading mean file from: examples/cifar10/mean.binaryproto
I0415 14:12:50.262231 16624 db_lmdb.cpp:38] Opened lmdb examples/cifar10/cifar10_train_lmdb
I0415 14:12:50.266314 16619 data_layer.cpp:41] output data size: 100,3,32,32
I0415 14:12:50.268292 16619 net.cpp:150] Setting up cifar
I0415 14:12:50.268311 16619 net.cpp:157] Top shape: 100 3 32 32 (307200)
I0415 14:12:50.268317 16619 net.cpp:157] Top shape: 100 (100)
I0415 14:12:50.268319 16619 net.cpp:165] Memory required for data: 1229200
I0415 14:12:50.268328 16619 layer_factory.hpp:77] Creating layer conv1
I0415 14:12:50.268358 16619 net.cpp:106] Creating Layer conv1
I0415 14:12:50.268368 16619 net.cpp:454] conv1 <- data
I0415 14:12:50.268378 16619 net.cpp:411] conv1 -> conv1
I0415 14:12:50.460070 16619 net.cpp:150] Setting up conv1
I0415 14:12:50.460098 16619 net.cpp:157] Top shape: 100 32 32 32 (3276800)
I0415 14:12:50.460103 16619 net.cpp:165] Memory required for data: 14336400
I0415 14:12:50.460119 16619 layer_factory.hpp:77] Creating layer pool1
I0415 14:12:50.460130 16619 net.cpp:106] Creating Layer pool1
I0415 14:12:50.460134 16619 net.cpp:454] pool1 <- conv1
I0415 14:12:50.460139 16619 net.cpp:411] pool1 -> pool1
I0415 14:12:50.460688 16619 net.cpp:150] Setting up pool1
I0415 14:12:50.460701 16619 net.cpp:157] Top shape: 100 32 16 16 (819200)
I0415 14:12:50.460705 16619 net.cpp:165] Memory required for data: 17613200
I0415 14:12:50.460708 16619 layer_factory.hpp:77] Creating layer relu1
I0415 14:12:50.460714 16619 net.cpp:106] Creating Layer relu1
I0415 14:12:50.460717 16619 net.cpp:454] relu1 <- pool1
I0415 14:12:50.460721 16619 net.cpp:397] relu1 -> pool1 (in-place)
I0415 14:12:50.461226 16619 net.cpp:150] Setting up relu1
I0415 14:12:50.461239 16619 net.cpp:157] Top shape: 100 32 16 16 (819200)
I0415 14:12:50.461242 16619 net.cpp:165] Memory required for data: 20890000
I0415 14:12:50.461246 16619 layer_factory.hpp:77] Creating layer norm1
I0415 14:12:50.461258 16619 net.cpp:106] Creating Layer norm1
I0415 14:12:50.461262 16619 net.cpp:454] norm1 <- pool1
I0415 14:12:50.461266 16619 net.cpp:411] norm1 -> norm1
I0415 14:12:50.462055 16619 net.cpp:150] Setting up norm1
I0415 14:12:50.462069 16619 net.cpp:157] Top shape: 100 32 16 16 (819200)
I0415 14:12:50.462072 16619 net.cpp:165] Memory required for data: 24166800
I0415 14:12:50.462075 16619 layer_factory.hpp:77] Creating layer conv2
I0415 14:12:50.462085 16619 net.cpp:106] Creating Layer conv2
I0415 14:12:50.462087 16619 net.cpp:454] conv2 <- norm1
I0415 14:12:50.462092 16619 net.cpp:411] conv2 -> conv2
I0415 14:12:50.464828 16619 net.cpp:150] Setting up conv2
I0415 14:12:50.464841 16619 net.cpp:157] Top shape: 100 32 16 16 (819200)
I0415 14:12:50.464845 16619 net.cpp:165] Memory required for data: 27443600
I0415 14:12:50.464853 16619 layer_factory.hpp:77] Creating layer relu2
I0415 14:12:50.464859 16619 net.cpp:106] Creating Layer relu2
I0415 14:12:50.464861 16619 net.cpp:454] relu2 <- conv2
I0415 14:12:50.464865 16619 net.cpp:397] relu2 -> conv2 (in-place)
I0415 14:12:50.465395 16619 net.cpp:150] Setting up relu2
I0415 14:12:50.465407 16619 net.cpp:157] Top shape: 100 32 16 16 (819200)
I0415 14:12:50.465410 16619 net.cpp:165] Memory required for data: 30720400
I0415 14:12:50.465414 16619 layer_factory.hpp:77] Creating layer pool2
I0415 14:12:50.465420 16619 net.cpp:106] Creating Layer pool2
I0415 14:12:50.465422 16619 net.cpp:454] pool2 <- conv2
I0415 14:12:50.465426 16619 net.cpp:411] pool2 -> pool2
I0415 14:12:50.465934 16619 net.cpp:150] Setting up pool2
I0415 14:12:50.465946 16619 net.cpp:157] Top shape: 100 32 8 8 (204800)
I0415 14:12:50.465950 16619 net.cpp:165] Memory required for data: 31539600
I0415 14:12:50.465953 16619 layer_factory.hpp:77] Creating layer norm2
I0415 14:12:50.465960 16619 net.cpp:106] Creating Layer norm2
I0415 14:12:50.465963 16619 net.cpp:454] norm2 <- pool2
I0415 14:12:50.465967 16619 net.cpp:411] norm2 -> norm2
I0415 14:12:50.466711 16619 net.cpp:150] Setting up norm2
I0415 14:12:50.466733 16619 net.cpp:157] Top shape: 100 32 8 8 (204800)
I0415 14:12:50.466738 16619 net.cpp:165] Memory required for data: 32358800
I0415 14:12:50.466742 16619 layer_factory.hpp:77] Creating layer conv3
I0415 14:12:50.466748 16619 net.cpp:106] Creating Layer conv3
I0415 14:12:50.466752 16619 net.cpp:454] conv3 <- norm2
I0415 14:12:50.466756 16619 net.cpp:411] conv3 -> conv3
I0415 14:12:50.469789 16619 net.cpp:150] Setting up conv3
I0415 14:12:50.469802 16619 net.cpp:157] Top shape: 100 64 8 8 (409600)
I0415 14:12:50.469805 16619 net.cpp:165] Memory required for data: 33997200
I0415 14:12:50.469813 16619 layer_factory.hpp:77] Creating layer relu3
I0415 14:12:50.469820 16619 net.cpp:106] Creating Layer relu3
I0415 14:12:50.469822 16619 net.cpp:454] relu3 <- conv3
I0415 14:12:50.469827 16619 net.cpp:397] relu3 -> conv3 (in-place)
I0415 14:12:50.470393 16619 net.cpp:150] Setting up relu3
I0415 14:12:50.470405 16619 net.cpp:157] Top shape: 100 64 8 8 (409600)
I0415 14:12:50.470408 16619 net.cpp:165] Memory required for data: 35635600
I0415 14:12:50.470412 16619 layer_factory.hpp:77] Creating layer pool3
I0415 14:12:50.470418 16619 net.cpp:106] Creating Layer pool3
I0415 14:12:50.470422 16619 net.cpp:454] pool3 <- conv3
I0415 14:12:50.470425 16619 net.cpp:411] pool3 -> pool3
I0415 14:12:50.470985 16619 net.cpp:150] Setting up pool3
I0415 14:12:50.470998 16619 net.cpp:157] Top shape: 100 64 4 4 (102400)
I0415 14:12:50.471000 16619 net.cpp:165] Memory required for data: 36045200
I0415 14:12:50.471004 16619 layer_factory.hpp:77] Creating layer ip2
I0415 14:12:50.471010 16619 net.cpp:106] Creating Layer ip2
I0415 14:12:50.471014 16619 net.cpp:454] ip2 <- pool3
I0415 14:12:50.471019 16619 net.cpp:411] ip2 -> ip2
I0415 14:12:50.474514 16619 net.cpp:150] Setting up ip2
I0415 14:12:50.474527 16619 net.cpp:157] Top shape: 100 128 (12800)
I0415 14:12:50.474530 16619 net.cpp:165] Memory required for data: 36096400
I0415 14:12:50.474536 16619 layer_factory.hpp:77] Creating layer relu5
I0415 14:12:50.474541 16619 net.cpp:106] Creating Layer relu5
I0415 14:12:50.474545 16619 net.cpp:454] relu5 <- ip2
I0415 14:12:50.474548 16619 net.cpp:397] relu5 -> ip2 (in-place)
I0415 14:12:50.475111 16619 net.cpp:150] Setting up relu5
I0415 14:12:50.475124 16619 net.cpp:157] Top shape: 100 128 (12800)
I0415 14:12:50.475127 16619 net.cpp:165] Memory required for data: 36147600
I0415 14:12:50.475131 16619 layer_factory.hpp:77] Creating layer ip3
I0415 14:12:50.475137 16619 net.cpp:106] Creating Layer ip3
I0415 14:12:50.475141 16619 net.cpp:454] ip3 <- ip2
I0415 14:12:50.475147 16619 net.cpp:411] ip3 -> ip3
I0415 14:12:50.475275 16619 net.cpp:150] Setting up ip3
I0415 14:12:50.475281 16619 net.cpp:157] Top shape: 100 10 (1000)
I0415 14:12:50.475284 16619 net.cpp:165] Memory required for data: 36151600
I0415 14:12:50.475292 16619 layer_factory.hpp:77] Creating layer loss
I0415 14:12:50.475297 16619 net.cpp:106] Creating Layer loss
I0415 14:12:50.475301 16619 net.cpp:454] loss <- ip3
I0415 14:12:50.475303 16619 net.cpp:454] loss <- label
I0415 14:12:50.475311 16619 net.cpp:411] loss -> loss
I0415 14:12:50.475318 16619 layer_factory.hpp:77] Creating layer loss
…
I0415 14:12:50.476440 16619 solver.cpp:181] Creating test net (#0) specified by net file: examples/cifar10/test/cifar10_full_train_test.prototxt
I0415 14:12:50.476469 16619 net.cpp:322] The NetState phase (1) differed from the phase (0) specified by a rule in layer cifar
I0415 14:12:50.476578 16619 net.cpp:49] Initializing net from parameters: 
name: "CIFAR10_full"
state {
  phase: TEST
}
layer {
  name: "cifar"
  type: "Data"
  top: "data"
  top: "label"
  include {
    phase: TEST
  }
  transform_param {
    mean_file: "examples/cifar10/mean.binaryproto"
  }
  data_param {
    source: "examples/cifar10/cifar10_test_lmdb"
    batch_size: 100
    backend: LMDB
  }
}
layer {
  name: "conv1"
  type: "Convolution"
  bottom: "data"
  top: "conv1"
  param {
    lr_mult: 1
  }
  param {
    lr_mult: 2
  }
  convolution_param {
    num_output: 32
    pad: 2
    kernel_size: 5
    stride: 1
    weight_filler {
      type: "gaussian"
      std: 0.0001
    }
    bias_filler {
      type: "constant"
    }
  }
}
layer {
  name: "pool1"
  type: "Pooling"
  bottom: "conv1"
  top: "pool1"
  pooling_param {
    pool: MAX
    kernel_size: 3
    stride: 2
  }
}
layer {
  name: "relu1"
  type: "ReLU"
  bottom: "pool1"
  top: "pool1"
}
layer {
  name: "norm1"
  type: "LRN"
  bottom: "pool1"
  top: "norm1"
  lrn_param {
    local_size: 3
    alpha: 5e-05
    beta: 0.75
    norm_region: WITHIN_CHANNEL
  }
}
layer {
  name: "conv2"
  type: "Convolution"
  bottom: "norm1"
  top: "conv2"
  param {
    lr_mult: 1
  }
  param {
    lr_mult: 2
  }
  convolution_param {
    num_output: 32
    pad: 2
    kernel_size: 5
    stride: 1
    weight_filler {
      type: "gaussian"
      std: 0.01
    }
    bias_filler {
      type: "constant"
    }
  }
}
layer {
  name: "relu2"
  type: "ReLU"
  bottom: "conv2"
  top: "conv2"
}
layer {
  name: "pool2"
  type: "Pooling"
  bottom: "conv2"
  top: "pool2"
  pooling_param {
    pool: AVE
    kernel_size: 3
    stride: 2
  }
}
layer {
  name: "norm2"
  type: "LRN"
  bottom: "pool2"
  top: "norm2"
  lrn_param {
    local_size: 3
    alpha: 5e-05
    beta: 0.75
    norm_region: WITHIN_CHANNEL
  }
}
layer {
  name: "conv3"
  type: "Convolution"
  bottom: "norm2"
  top: "conv3"
  convolution_param {
    num_output: 64
    pad: 2
    kernel_size: 5
    stride: 1
    weight_filler {
      type: "gaussian"
      std: 0.01
    }
    bias_filler {
      type: "constant"
    }
  }
}
layer {
  name: "relu3"
  type: "ReLU"
  bottom: "conv3"
  top: "conv3"
}
layer {
  name: "pool3"
  type: "Pooling"
  bottom: "conv3"
  top: "pool3"
  pooling_param {
    pool: AVE
    kernel_size: 3
    stride: 2
  }
}
layer {
  name: "ip2"
  type: "InnerProduct"
  bottom: "pool3"
  top: "ip2"
  param {
    lr_mult: 1
  }
  param {
    lr_mult: 2
  }
  inner_product_param {
    num_output: 128
    weight_filler {
      type: "gaussian"
      std: 0.1
    }
    bias_filler {
      type: "constant"
    }
  }
}
layer {
  name: "relu5"
  type: "ReLU"
  bottom: "ip2"
  top: "ip2"
}
layer {
  name: "ip3"
  type: "InnerProduct"
  bottom: "ip2"
  top: "ip3"
  param {
    lr_mult: 1
  }
  param {
    lr_mult: 2
  }
  inner_product_param {
    num_output: 10
    weight_filler {
      type: "gaussian"
      std: 0.1
    }
    bias_filler {
      type: "constant"
    }
  }
}
layer {
  name: "accuracy"
  type: "Accuracy"
  bottom: "ip3"
  bottom: "label"
  top: "accuracy"
  include {
    phase: TEST
  }
}
layer {
  name: "loss"
  type: "SoftmaxWithLoss"
  bottom: "ip3"
  bottom: "label"
  top: "loss"
}
I0415 14:12:50.476665 16619 layer_factory.hpp:77] Creating layer cifar
I0415 14:12:50.476755 16619 net.cpp:106] Creating Layer cifar
I0415 14:12:50.476779 16619 net.cpp:411] cifar -> data
I0415 14:12:50.476788 16619 net.cpp:411] cifar -> label
I0415 14:12:50.476795 16619 data_transformer.cpp:25] Loading mean file from: examples/cifar10/mean.binaryproto
I0415 14:12:50.478404 16626 db_lmdb.cpp:38] Opened lmdb examples/cifar10/cifar10_test_lmdb
I0415 14:12:50.478530 16619 data_layer.cpp:41] output data size: 100,3,32,32
I0415 14:12:50.489133 16619 net.cpp:150] Setting up cifar
I0415 14:12:50.489166 16619 net.cpp:157] Top shape: 100 3 32 32 (307200)
I0415 14:12:50.489171 16619 net.cpp:157] Top shape: 100 (100)
I0415 14:12:50.489173 16619 net.cpp:165] Memory required for data: 1229200
I0415 14:12:50.489178 16619 layer_factory.hpp:77] Creating layer label_cifar_1_split
I0415 14:12:50.489189 16619 net.cpp:106] Creating Layer label_cifar_1_split
I0415 14:12:50.489193 16619 net.cpp:454] label_cifar_1_split <- label
I0415 14:12:50.489202 16619 net.cpp:411] label_cifar_1_split -> label_cifar_1_split_0
I0415 14:12:50.489212 16619 net.cpp:411] label_cifar_1_split -> label_cifar_1_split_1
I0415 14:12:50.489302 16619 net.cpp:150] Setting up label_cifar_1_split
I0415 14:12:50.489310 16619 net.cpp:157] Top shape: 100 (100)
I0415 14:12:50.489313 16619 net.cpp:157] Top shape: 100 (100)
I0415 14:12:50.489316 16619 net.cpp:165] Memory required for data: 1230000
I0415 14:12:50.489320 16619 layer_factory.hpp:77] Creating layer conv1
I0415 14:12:50.489341 16619 net.cpp:106] Creating Layer conv1
I0415 14:12:50.489346 16619 net.cpp:454] conv1 <- data
I0415 14:12:50.489351 16619 net.cpp:411] conv1 -> conv1
I0415 14:12:50.492063 16619 net.cpp:150] Setting up conv1
I0415 14:12:50.492079 16619 net.cpp:157] Top shape: 100 32 32 32 (3276800)
I0415 14:12:50.492082 16619 net.cpp:165] Memory required for data: 14337200
I0415 14:12:50.492096 16619 layer_factory.hpp:77] Creating layer pool1
I0415 14:12:50.492105 16619 net.cpp:106] Creating Layer pool1
I0415 14:12:50.492108 16619 net.cpp:454] pool1 <- conv1
I0415 14:12:50.492113 16619 net.cpp:411] pool1 -> pool1
I0415 14:12:50.492727 16619 net.cpp:150] Setting up pool1
I0415 14:12:50.492740 16619 net.cpp:157] Top shape: 100 32 16 16 (819200)
I0415 14:12:50.492748 16619 net.cpp:165] Memory required for data: 17614000
I0415 14:12:50.492750 16619 layer_factory.hpp:77] Creating layer relu1
I0415 14:12:50.492763 16619 net.cpp:106] Creating Layer relu1
I0415 14:12:50.492768 16619 net.cpp:454] relu1 <- pool1
I0415 14:12:50.492771 16619 net.cpp:397] relu1 -> pool1 (in-place)
I0415 14:12:50.493355 16619 net.cpp:150] Setting up relu1
I0415 14:12:50.493368 16619 net.cpp:157] Top shape: 100 32 16 16 (819200)
I0415 14:12:50.493372 16619 net.cpp:165] Memory required for data: 20890800
I0415 14:12:50.493386 16619 layer_factory.hpp:77] Creating layer norm1
I0415 14:12:50.493392 16619 net.cpp:106] Creating Layer norm1
I0415 14:12:50.493396 16619 net.cpp:454] norm1 <- pool1
I0415 14:12:50.493399 16619 net.cpp:411] norm1 -> norm1
I0415 14:12:50.494230 16619 net.cpp:150] Setting up norm1
I0415 14:12:50.494246 16619 net.cpp:157] Top shape: 100 32 16 16 (819200)
I0415 14:12:50.494249 16619 net.cpp:165] Memory required for data: 24167600
I0415 14:12:50.494252 16619 layer_factory.hpp:77] Creating layer conv2
I0415 14:12:50.494261 16619 net.cpp:106] Creating Layer conv2
I0415 14:12:50.494266 16619 net.cpp:454] conv2 <- norm1
I0415 14:12:50.494271 16619 net.cpp:411] conv2 -> conv2
I0415 14:12:50.497225 16619 net.cpp:150] Setting up conv2
I0415 14:12:50.497238 16619 net.cpp:157] Top shape: 100 32 16 16 (819200)
I0415 14:12:50.497242 16619 net.cpp:165] Memory required for data: 27444400
I0415 14:12:50.497251 16619 layer_factory.hpp:77] Creating layer relu2
I0415 14:12:50.497257 16619 net.cpp:106] Creating Layer relu2
I0415 14:12:50.497261 16619 net.cpp:454] relu2 <- conv2
I0415 14:12:50.497265 16619 net.cpp:397] relu2 -> conv2 (in-place)
I0415 14:12:50.497855 16619 net.cpp:150] Setting up relu2
I0415 14:12:50.497869 16619 net.cpp:157] Top shape: 100 32 16 16 (819200)
I0415 14:12:50.497872 16619 net.cpp:165] Memory required for data: 30721200
I0415 14:12:50.497875 16619 layer_factory.hpp:77] Creating layer pool2
I0415 14:12:50.497884 16619 net.cpp:106] Creating Layer pool2
I0415 14:12:50.497889 16619 net.cpp:454] pool2 <- conv2
I0415 14:12:50.497897 16619 net.cpp:411] pool2 -> pool2
I0415 14:12:50.498491 16619 net.cpp:150] Setting up pool2
I0415 14:12:50.498502 16619 net.cpp:157] Top shape: 100 32 8 8 (204800)
I0415 14:12:50.498507 16619 net.cpp:165] Memory required for data: 31540400
I0415 14:12:50.498509 16619 layer_factory.hpp:77] Creating layer norm2
I0415 14:12:50.498517 16619 net.cpp:106] Creating Layer norm2
I0415 14:12:50.498527 16619 net.cpp:454] norm2 <- pool2
I0415 14:12:50.498531 16619 net.cpp:411] norm2 -> norm2
I0415 14:12:50.499380 16619 net.cpp:150] Setting up norm2
I0415 14:12:50.499393 16619 net.cpp:157] Top shape: 100 32 8 8 (204800)
I0415 14:12:50.499397 16619 net.cpp:165] Memory required for data: 32359600
I0415 14:12:50.499399 16619 layer_factory.hpp:77] Creating layer conv3
I0415 14:12:50.499408 16619 net.cpp:106] Creating Layer conv3
I0415 14:12:50.499413 16619 net.cpp:454] conv3 <- norm2
I0415 14:12:50.499421 16619 net.cpp:411] conv3 -> conv3
I0415 14:12:50.502702 16619 net.cpp:150] Setting up conv3
I0415 14:12:50.502718 16619 net.cpp:157] Top shape: 100 64 8 8 (409600)
I0415 14:12:50.502722 16619 net.cpp:165] Memory required for data: 33998000
I0415 14:12:50.502730 16619 layer_factory.hpp:77] Creating layer relu3
I0415 14:12:50.502737 16619 net.cpp:106] Creating Layer relu3
I0415 14:12:50.502739 16619 net.cpp:454] relu3 <- conv3
I0415 14:12:50.502745 16619 net.cpp:397] relu3 -> conv3 (in-place)
I0415 14:12:50.503356 16619 net.cpp:150] Setting up relu3
I0415 14:12:50.503368 16619 net.cpp:157] Top shape: 100 64 8 8 (409600)
I0415 14:12:50.503371 16619 net.cpp:165] Memory required for data: 35636400
I0415 14:12:50.503376 16619 layer_factory.hpp:77] Creating layer pool3
I0415 14:12:50.503382 16619 net.cpp:106] Creating Layer pool3
I0415 14:12:50.503387 16619 net.cpp:454] pool3 <- conv3
I0415 14:12:50.503392 16619 net.cpp:411] pool3 -> pool3
I0415 14:12:50.503974 16619 net.cpp:150] Setting up pool3
I0415 14:12:50.503986 16619 net.cpp:157] Top shape: 100 64 4 4 (102400)
I0415 14:12:50.503989 16619 net.cpp:165] Memory required for data: 36046000
I0415 14:12:50.503993 16619 layer_factory.hpp:77] Creating layer ip2
I0415 14:12:50.504001 16619 net.cpp:106] Creating Layer ip2
I0415 14:12:50.504007 16619 net.cpp:454] ip2 <- pool3
I0415 14:12:50.504017 16619 net.cpp:411] ip2 -> ip2
I0415 14:12:50.507216 16619 net.cpp:150] Setting up ip2
I0415 14:12:50.507225 16619 net.cpp:157] Top shape: 100 128 (12800)
I0415 14:12:50.507228 16619 net.cpp:165] Memory required for data: 36097200
I0415 14:12:50.507235 16619 layer_factory.hpp:77] Creating layer relu5
I0415 14:12:50.507239 16619 net.cpp:106] Creating Layer relu5
I0415 14:12:50.507242 16619 net.cpp:454] relu5 <- ip2
I0415 14:12:50.507247 16619 net.cpp:397] relu5 -> ip2 (in-place)
I0415 14:12:50.507825 16619 net.cpp:150] Setting up relu5
I0415 14:12:50.507838 16619 net.cpp:157] Top shape: 100 128 (12800)
I0415 14:12:50.507841 16619 net.cpp:165] Memory required for data: 36148400
I0415 14:12:50.507844 16619 layer_factory.hpp:77] Creating layer ip3
I0415 14:12:50.507853 16619 net.cpp:106] Creating Layer ip3
I0415 14:12:50.507858 16619 net.cpp:454] ip3 <- ip2
I0415 14:12:50.507863 16619 net.cpp:411] ip3 -> ip3
I0415 14:12:50.508003 16619 net.cpp:150] Setting up ip3
I0415 14:12:50.508011 16619 net.cpp:157] Top shape: 100 10 (1000)
I0415 14:12:50.508014 16619 net.cpp:165] Memory required for data: 36152400
I0415 14:12:50.508021 16619 layer_factory.hpp:77] Creating layer ip3_ip3_0_split
I0415 14:12:50.508029 16619 net.cpp:106] Creating Layer ip3_ip3_0_split
I0415 14:12:50.508033 16619 net.cpp:454] ip3_ip3_0_split <- ip3
I0415 14:12:50.508036 16619 net.cpp:411] ip3_ip3_0_split -> ip3_ip3_0_split_0
I0415 14:12:50.508055 16619 net.cpp:411] ip3_ip3_0_split -> ip3_ip3_0_split_1
I0415 14:12:50.508091 16619 net.cpp:150] Setting up ip3_ip3_0_split
I0415 14:12:50.508096 16619 net.cpp:157] Top shape: 100 10 (1000)
I0415 14:12:50.508100 16619 net.cpp:157] Top shape: 100 10 (1000)
I0415 14:12:50.508102 16619 net.cpp:165] Memory required for data: 36160400
I0415 14:12:50.508105 16619 layer_factory.hpp:77] Creating layer accuracy
I0415 14:12:50.508112 16619 net.cpp:106] Creating Layer accuracy
I0415 14:12:50.508116 16619 net.cpp:454] accuracy <- ip3_ip3_0_split_0
I0415 14:12:50.508118 16619 net.cpp:454] accuracy <- label_cifar_1_split_0
I0415 14:12:50.508122 16619 net.cpp:411] accuracy -> accuracy
…
