…
I0415 12:53:12.389053 16090 net.cpp:322] The NetState phase (0) differed from the phase (1) specified by a rule in layer cifar
I0415 12:53:12.389084 16090 net.cpp:322] The NetState phase (0) differed from the phase (1) specified by a rule in layer accuracy
I0415 12:53:12.389259 16090 net.cpp:49] Initializing net from parameters: 
name: "CIFAR10_full"
state {
  phase: TRAIN
}
layer {
  name: "cifar"
  type: "Data"
  top: "data"
  top: "label"
  include {
    phase: TRAIN
  }
  transform_param {
    mean_file: "examples/cifar10/mean.binaryproto"
  }
  data_param {
    source: "examples/cifar10/cifar10_train_lmdb"
    batch_size: 100
    backend: LMDB
  }
}
layer {
  name: "conv1"
  type: "Convolution"
  bottom: "data"
  top: "conv1"
  param {
    lr_mult: 1
  }
  param {
    lr_mult: 2
  }
  convolution_param {
    num_output: 32
    pad: 2
    kernel_size: 5
    stride: 1
    weight_filler {
      type: "gaussian"
      std: 0.0001
    }
    bias_filler {
      type: "constant"
    }
  }
}
layer {
  name: "pool1"
  type: "Pooling"
  bottom: "conv1"
  top: "pool1"
  pooling_param {
    pool: MAX
    kernel_size: 3
    stride: 2
  }
}
layer {
  name: "relu1"
  type: "ReLU"
  bottom: "pool1"
  top: "pool1"
}
layer {
  name: "norm1"
  type: "LRN"
  bottom: "pool1"
  top: "norm1"
  lrn_param {
    local_size: 3
    alpha: 5e-05
    beta: 0.75
    norm_region: WITHIN_CHANNEL
  }
}
layer {
  name: "conv2"
  type: "Convolution"
  bottom: "norm1"
  top: "conv2"
  param {
    lr_mult: 1
  }
  param {
    lr_mult: 2
  }
  convolution_param {
    num_output: 32
    pad: 2
    kernel_size: 5
    stride: 1
    weight_filler {
      type: "gaussian"
      std: 0.01
    }
    bias_filler {
      type: "constant"
    }
  }
}
layer {
  name: "relu2"
  type: "ReLU"
  bottom: "conv2"
  top: "conv2"
}
layer {
  name: "pool2"
  type: "Pooling"
  bottom: "conv2"
  top: "pool2"
  pooling_param {
    pool: AVE
    kernel_size: 3
    stride: 2
  }
}
layer {
  name: "norm2"
  type: "LRN"
  bottom: "pool2"
  top: "norm2"
  lrn_param {
    local_size: 3
    alpha: 5e-05
    beta: 0.75
    norm_region: WITHIN_CHANNEL
  }
}
layer {
  name: "conv3"
  type: "Convolution"
  bottom: "norm2"
  top: "conv3"
  convolution_param {
    num_output: 64
    pad: 2
    kernel_size: 5
    stride: 1
    weight_filler {
      type: "gaussian"
      std: 0.01
    }
    bias_filler {
      type: "constant"
    }
  }
}
layer {
  name: "relu3"
  type: "ReLU"
  bottom: "conv3"
  top: "conv3"
}
layer {
  name: "pool3"
  type: "Pooling"
  bottom: "conv3"
  top: "pool3"
  pooling_param {
    pool: AVE
    kernel_size: 3
    stride: 2
  }
}
layer {
  name: "ip2"
  type: "InnerProduct"
  bottom: "pool3"
  top: "ip2"
  param {
    lr_mult: 1
  }
  param {
    lr_mult: 2
  }
  inner_product_param {
    num_output: 10
    weight_filler {
      type: "gaussian"
      std: 0.1
    }
    bias_filler {
      type: "constant"
    }
  }
}
layer {
  name: "loss"
  type: "SoftmaxWithLoss"
  bottom: "ip2"
  bottom: "label"
  top: "loss"
}
I0415 12:53:12.389387 16090 layer_factory.hpp:77] Creating layer cifar
I0415 12:53:12.400210 16090 net.cpp:106] Creating Layer cifar
I0415 12:53:12.400290 16090 net.cpp:411] cifar -> data
I0415 12:53:12.400351 16090 net.cpp:411] cifar -> label
I0415 12:53:12.408061 16090 data_transformer.cpp:25] Loading mean file from: examples/cifar10/mean.binaryproto
I0415 12:53:12.414347 16095 db_lmdb.cpp:38] Opened lmdb examples/cifar10/cifar10_train_lmdb
I0415 12:53:12.583993 16090 data_layer.cpp:41] output data size: 100,3,32,32
I0415 12:53:12.602561 16090 net.cpp:150] Setting up cifar
I0415 12:53:12.602635 16090 net.cpp:157] Top shape: 100 3 32 32 (307200)
I0415 12:53:12.602644 16090 net.cpp:157] Top shape: 100 (100)
I0415 12:53:12.602648 16090 net.cpp:165] Memory required for data: 1229200
I0415 12:53:12.602663 16090 layer_factory.hpp:77] Creating layer conv1
I0415 12:53:12.602686 16090 net.cpp:106] Creating Layer conv1
I0415 12:53:12.602696 16090 net.cpp:454] conv1 <- data
I0415 12:53:12.602717 16090 net.cpp:411] conv1 -> conv1
I0415 12:53:13.456976 16090 net.cpp:150] Setting up conv1
I0415 12:53:13.457026 16090 net.cpp:157] Top shape: 100 32 32 32 (3276800)
I0415 12:53:13.457036 16090 net.cpp:165] Memory required for data: 14336400
I0415 12:53:13.457067 16090 layer_factory.hpp:77] Creating layer pool1
I0415 12:53:13.457101 16090 net.cpp:106] Creating Layer pool1
I0415 12:53:13.457116 16090 net.cpp:454] pool1 <- conv1
I0415 12:53:13.457129 16090 net.cpp:411] pool1 -> pool1
I0415 12:53:13.458153 16090 net.cpp:150] Setting up pool1
I0415 12:53:13.458176 16090 net.cpp:157] Top shape: 100 32 16 16 (819200)
I0415 12:53:13.458184 16090 net.cpp:165] Memory required for data: 17613200
I0415 12:53:13.458190 16090 layer_factory.hpp:77] Creating layer relu1
I0415 12:53:13.458204 16090 net.cpp:106] Creating Layer relu1
I0415 12:53:13.458214 16090 net.cpp:454] relu1 <- pool1
I0415 12:53:13.458222 16090 net.cpp:397] relu1 -> pool1 (in-place)
I0415 12:53:13.459048 16090 net.cpp:150] Setting up relu1
I0415 12:53:13.459064 16090 net.cpp:157] Top shape: 100 32 16 16 (819200)
I0415 12:53:13.459069 16090 net.cpp:165] Memory required for data: 20890000
I0415 12:53:13.459074 16090 layer_factory.hpp:77] Creating layer norm1
I0415 12:53:13.459092 16090 net.cpp:106] Creating Layer norm1
I0415 12:53:13.459100 16090 net.cpp:454] norm1 <- pool1
I0415 12:53:13.459106 16090 net.cpp:411] norm1 -> norm1
I0415 12:53:13.460862 16090 net.cpp:150] Setting up norm1
I0415 12:53:13.460880 16090 net.cpp:157] Top shape: 100 32 16 16 (819200)
I0415 12:53:13.460886 16090 net.cpp:165] Memory required for data: 24166800
I0415 12:53:13.460891 16090 layer_factory.hpp:77] Creating layer conv2
I0415 12:53:13.460911 16090 net.cpp:106] Creating Layer conv2
I0415 12:53:13.460921 16090 net.cpp:454] conv2 <- norm1
I0415 12:53:13.460930 16090 net.cpp:411] conv2 -> conv2
I0415 12:53:13.464828 16090 net.cpp:150] Setting up conv2
I0415 12:53:13.464845 16090 net.cpp:157] Top shape: 100 32 16 16 (819200)
I0415 12:53:13.464850 16090 net.cpp:165] Memory required for data: 27443600
I0415 12:53:13.464864 16090 layer_factory.hpp:77] Creating layer relu2
I0415 12:53:13.464875 16090 net.cpp:106] Creating Layer relu2
I0415 12:53:13.464886 16090 net.cpp:454] relu2 <- conv2
I0415 12:53:13.464892 16090 net.cpp:397] relu2 -> conv2 (in-place)
I0415 12:53:13.465633 16090 net.cpp:150] Setting up relu2
I0415 12:53:13.465648 16090 net.cpp:157] Top shape: 100 32 16 16 (819200)
I0415 12:53:13.465654 16090 net.cpp:165] Memory required for data: 30720400
I0415 12:53:13.465658 16090 layer_factory.hpp:77] Creating layer pool2
I0415 12:53:13.465667 16090 net.cpp:106] Creating Layer pool2
I0415 12:53:13.465672 16090 net.cpp:454] pool2 <- conv2
I0415 12:53:13.465680 16090 net.cpp:411] pool2 -> pool2
I0415 12:53:13.466389 16090 net.cpp:150] Setting up pool2
I0415 12:53:13.466404 16090 net.cpp:157] Top shape: 100 32 8 8 (204800)
I0415 12:53:13.466408 16090 net.cpp:165] Memory required for data: 31539600
I0415 12:53:13.466413 16090 layer_factory.hpp:77] Creating layer norm2
I0415 12:53:13.466424 16090 net.cpp:106] Creating Layer norm2
I0415 12:53:13.466428 16090 net.cpp:454] norm2 <- pool2
I0415 12:53:13.466435 16090 net.cpp:411] norm2 -> norm2
I0415 12:53:13.467452 16090 net.cpp:150] Setting up norm2
I0415 12:53:13.467466 16090 net.cpp:157] Top shape: 100 32 8 8 (204800)
I0415 12:53:13.467471 16090 net.cpp:165] Memory required for data: 32358800
I0415 12:53:13.467475 16090 layer_factory.hpp:77] Creating layer conv3
I0415 12:53:13.467486 16090 net.cpp:106] Creating Layer conv3
I0415 12:53:13.467491 16090 net.cpp:454] conv3 <- norm2
I0415 12:53:13.467499 16090 net.cpp:411] conv3 -> conv3
I0415 12:53:13.471632 16090 net.cpp:150] Setting up conv3
I0415 12:53:13.471649 16090 net.cpp:157] Top shape: 100 64 8 8 (409600)
I0415 12:53:13.471654 16090 net.cpp:165] Memory required for data: 33997200
I0415 12:53:13.471667 16090 layer_factory.hpp:77] Creating layer relu3
I0415 12:53:13.471675 16090 net.cpp:106] Creating Layer relu3
I0415 12:53:13.471679 16090 net.cpp:454] relu3 <- conv3
I0415 12:53:13.471688 16090 net.cpp:397] relu3 -> conv3 (in-place)
I0415 12:53:13.472445 16090 net.cpp:150] Setting up relu3
I0415 12:53:13.472460 16090 net.cpp:157] Top shape: 100 64 8 8 (409600)
I0415 12:53:13.472465 16090 net.cpp:165] Memory required for data: 35635600
I0415 12:53:13.472470 16090 layer_factory.hpp:77] Creating layer pool3
I0415 12:53:13.472481 16090 net.cpp:106] Creating Layer pool3
I0415 12:53:13.472486 16090 net.cpp:454] pool3 <- conv3
I0415 12:53:13.472492 16090 net.cpp:411] pool3 -> pool3
I0415 12:53:13.473248 16090 net.cpp:150] Setting up pool3
I0415 12:53:13.473264 16090 net.cpp:157] Top shape: 100 64 4 4 (102400)
I0415 12:53:13.473268 16090 net.cpp:165] Memory required for data: 36045200
I0415 12:53:13.473273 16090 layer_factory.hpp:77] Creating layer ip2
I0415 12:53:13.473284 16090 net.cpp:106] Creating Layer ip2
I0415 12:53:13.473287 16090 net.cpp:454] ip2 <- pool3
I0415 12:53:13.473297 16090 net.cpp:411] ip2 -> ip2
I0415 12:53:13.474251 16090 net.cpp:150] Setting up ip2
I0415 12:53:13.474269 16090 net.cpp:157] Top shape: 100 10 (1000)
I0415 12:53:13.474277 16090 net.cpp:165] Memory required for data: 36049200
I0415 12:53:13.474287 16090 layer_factory.hpp:77] Creating layer loss
I0415 12:53:13.474297 16090 net.cpp:106] Creating Layer loss
I0415 12:53:13.474303 16090 net.cpp:454] loss <- ip2
I0415 12:53:13.474309 16090 net.cpp:454] loss <- label
I0415 12:53:13.474319 16090 net.cpp:411] loss -> loss
I0415 12:53:13.474335 16090 layer_factory.hpp:77] Creating layer loss
…
I0415 12:53:13.476111 16090 solver.cpp:181] Creating test net (#0) specified by net file: examples/cifar10/test/cifar10_full_train_test.prototxt
I0415 12:53:13.476156 16090 net.cpp:322] The NetState phase (1) differed from the phase (0) specified by a rule in layer cifar
I0415 12:53:13.476263 16090 net.cpp:49] Initializing net from parameters: 
name: "CIFAR10_full"
state {
  phase: TEST
}
layer {
  name: "cifar"
  type: "Data"
  top: "data"
  top: "label"
  include {
    phase: TEST
  }
  transform_param {
    mean_file: "examples/cifar10/mean.binaryproto"
  }
  data_param {
    source: "examples/cifar10/cifar10_test_lmdb"
    batch_size: 100
    backend: LMDB
  }
}
layer {
  name: "conv1"
  type: "Convolution"
  bottom: "data"
  top: "conv1"
  param {
    lr_mult: 1
  }
  param {
    lr_mult: 2
  }
  convolution_param {
    num_output: 32
    pad: 2
    kernel_size: 5
    stride: 1
    weight_filler {
      type: "gaussian"
      std: 0.0001
    }
    bias_filler {
      type: "constant"
    }
  }
}
layer {
  name: "pool1"
  type: "Pooling"
  bottom: "conv1"
  top: "pool1"
  pooling_param {
    pool: MAX
    kernel_size: 3
    stride: 2
  }
}
layer {
  name: "relu1"
  type: "ReLU"
  bottom: "pool1"
  top: "pool1"
}
layer {
  name: "norm1"
  type: "LRN"
  bottom: "pool1"
  top: "norm1"
  lrn_param {
    local_size: 3
    alpha: 5e-05
    beta: 0.75
    norm_region: WITHIN_CHANNEL
  }
}
layer {
  name: "conv2"
  type: "Convolution"
  bottom: "norm1"
  top: "conv2"
  param {
    lr_mult: 1
  }
  param {
    lr_mult: 2
  }
  convolution_param {
    num_output: 32
    pad: 2
    kernel_size: 5
    stride: 1
    weight_filler {
      type: "gaussian"
      std: 0.01
    }
    bias_filler {
      type: "constant"
    }
  }
}
layer {
  name: "relu2"
  type: "ReLU"
  bottom: "conv2"
  top: "conv2"
}
layer {
  name: "pool2"
  type: "Pooling"
  bottom: "conv2"
  top: "pool2"
  pooling_param {
    pool: AVE
    kernel_size: 3
    stride: 2
  }
}
layer {
  name: "norm2"
  type: "LRN"
  bottom: "pool2"
  top: "norm2"
  lrn_param {
    local_size: 3
    alpha: 5e-05
    beta: 0.75
    norm_region: WITHIN_CHANNEL
  }
}
layer {
  name: "conv3"
  type: "Convolution"
  bottom: "norm2"
  top: "conv3"
  convolution_param {
    num_output: 64
    pad: 2
    kernel_size: 5
    stride: 1
    weight_filler {
      type: "gaussian"
      std: 0.01
    }
    bias_filler {
      type: "constant"
    }
  }
}
layer {
  name: "relu3"
  type: "ReLU"
  bottom: "conv3"
  top: "conv3"
}
layer {
  name: "pool3"
  type: "Pooling"
  bottom: "conv3"
  top: "pool3"
  pooling_param {
    pool: AVE
    kernel_size: 3
    stride: 2
  }
}
layer {
  name: "ip2"
  type: "InnerProduct"
  bottom: "pool3"
  top: "ip2"
  param {
    lr_mult: 1
  }
  param {
    lr_mult: 2
  }
  inner_product_param {
    num_output: 10
    weight_filler {
      type: "gaussian"
      std: 0.1
    }
    bias_filler {
      type: "constant"
    }
  }
}
layer {
  name: "accuracy"
  type: "Accuracy"
  bottom: "ip2"
  bottom: "label"
  top: "accuracy"
  include {
    phase: TEST
  }
}
layer {
  name: "loss"
  type: "SoftmaxWithLoss"
  bottom: "ip2"
  bottom: "label"
  top: "loss"
}
I0415 12:53:13.476353 16090 layer_factory.hpp:77] Creating layer cifar
I0415 12:53:13.476454 16090 net.cpp:106] Creating Layer cifar
I0415 12:53:13.476461 16090 net.cpp:411] cifar -> data
I0415 12:53:13.476469 16090 net.cpp:411] cifar -> label
I0415 12:53:13.476478 16090 data_transformer.cpp:25] Loading mean file from: examples/cifar10/mean.binaryproto
I0415 12:53:13.477449 16105 db_lmdb.cpp:38] Opened lmdb examples/cifar10/cifar10_test_lmdb
I0415 12:53:13.528600 16090 data_layer.cpp:41] output data size: 100,3,32,32
I0415 12:53:13.532763 16090 net.cpp:150] Setting up cifar
I0415 12:53:13.532799 16090 net.cpp:157] Top shape: 100 3 32 32 (307200)
I0415 12:53:13.532812 16090 net.cpp:157] Top shape: 100 (100)
I0415 12:53:13.532820 16090 net.cpp:165] Memory required for data: 1229200
I0415 12:53:13.532830 16090 layer_factory.hpp:77] Creating layer label_cifar_1_split
I0415 12:53:13.532851 16090 net.cpp:106] Creating Layer label_cifar_1_split
I0415 12:53:13.532865 16090 net.cpp:454] label_cifar_1_split <- label
I0415 12:53:13.532878 16090 net.cpp:411] label_cifar_1_split -> label_cifar_1_split_0
I0415 12:53:13.532908 16090 net.cpp:411] label_cifar_1_split -> label_cifar_1_split_1
I0415 12:53:13.533118 16090 net.cpp:150] Setting up label_cifar_1_split
I0415 12:53:13.533140 16090 net.cpp:157] Top shape: 100 (100)
I0415 12:53:13.533155 16090 net.cpp:157] Top shape: 100 (100)
I0415 12:53:13.533165 16090 net.cpp:165] Memory required for data: 1230000
I0415 12:53:13.533174 16090 layer_factory.hpp:77] Creating layer conv1
I0415 12:53:13.533201 16090 net.cpp:106] Creating Layer conv1
I0415 12:53:13.533213 16090 net.cpp:454] conv1 <- data
I0415 12:53:13.533262 16090 net.cpp:411] conv1 -> conv1
I0415 12:53:13.538913 16106 blocking_queue.cpp:50] Waiting for data
I0415 12:53:13.539146 16090 net.cpp:150] Setting up conv1
I0415 12:53:13.539186 16090 net.cpp:157] Top shape: 100 32 32 32 (3276800)
I0415 12:53:13.539199 16090 net.cpp:165] Memory required for data: 14337200
I0415 12:53:13.539235 16090 layer_factory.hpp:77] Creating layer pool1
I0415 12:53:13.539258 16090 net.cpp:106] Creating Layer pool1
I0415 12:53:13.539274 16090 net.cpp:454] pool1 <- conv1
I0415 12:53:13.539294 16090 net.cpp:411] pool1 -> pool1
I0415 12:53:13.540889 16090 net.cpp:150] Setting up pool1
I0415 12:53:13.540945 16090 net.cpp:157] Top shape: 100 32 16 16 (819200)
I0415 12:53:13.540956 16090 net.cpp:165] Memory required for data: 17614000
I0415 12:53:13.540966 16090 layer_factory.hpp:77] Creating layer relu1
I0415 12:53:13.540983 16090 net.cpp:106] Creating Layer relu1
I0415 12:53:13.540994 16090 net.cpp:454] relu1 <- pool1
I0415 12:53:13.541020 16090 net.cpp:397] relu1 -> pool1 (in-place)
I0415 12:53:13.542501 16090 net.cpp:150] Setting up relu1
I0415 12:53:13.542533 16090 net.cpp:157] Top shape: 100 32 16 16 (819200)
I0415 12:53:13.542544 16090 net.cpp:165] Memory required for data: 20890800
I0415 12:53:13.542554 16090 layer_factory.hpp:77] Creating layer norm1
I0415 12:53:13.542582 16090 net.cpp:106] Creating Layer norm1
I0415 12:53:13.542593 16090 net.cpp:454] norm1 <- pool1
I0415 12:53:13.542609 16090 net.cpp:411] norm1 -> norm1
I0415 12:53:13.544708 16090 net.cpp:150] Setting up norm1
I0415 12:53:13.544740 16090 net.cpp:157] Top shape: 100 32 16 16 (819200)
I0415 12:53:13.544750 16090 net.cpp:165] Memory required for data: 24167600
I0415 12:53:13.544761 16090 layer_factory.hpp:77] Creating layer conv2
I0415 12:53:13.544790 16090 net.cpp:106] Creating Layer conv2
I0415 12:53:13.544802 16090 net.cpp:454] conv2 <- norm1
I0415 12:53:13.544828 16090 net.cpp:411] conv2 -> conv2
I0415 12:53:13.551867 16090 net.cpp:150] Setting up conv2
I0415 12:53:13.551901 16090 net.cpp:157] Top shape: 100 32 16 16 (819200)
I0415 12:53:13.551910 16090 net.cpp:165] Memory required for data: 27444400
I0415 12:53:13.551931 16090 layer_factory.hpp:77] Creating layer relu2
I0415 12:53:13.551949 16090 net.cpp:106] Creating Layer relu2
I0415 12:53:13.551959 16090 net.cpp:454] relu2 <- conv2
I0415 12:53:13.551977 16090 net.cpp:397] relu2 -> conv2 (in-place)
I0415 12:53:13.553645 16090 net.cpp:150] Setting up relu2
I0415 12:53:13.553675 16090 net.cpp:157] Top shape: 100 32 16 16 (819200)
I0415 12:53:13.553688 16090 net.cpp:165] Memory required for data: 30721200
I0415 12:53:13.553695 16090 layer_factory.hpp:77] Creating layer pool2
I0415 12:53:13.553720 16090 net.cpp:106] Creating Layer pool2
I0415 12:53:13.553742 16090 net.cpp:454] pool2 <- conv2
I0415 12:53:13.553762 16090 net.cpp:411] pool2 -> pool2
I0415 12:53:13.555177 16090 net.cpp:150] Setting up pool2
I0415 12:53:13.555207 16090 net.cpp:157] Top shape: 100 32 8 8 (204800)
I0415 12:53:13.555218 16090 net.cpp:165] Memory required for data: 31540400
I0415 12:53:13.555227 16090 layer_factory.hpp:77] Creating layer norm2
I0415 12:53:13.555239 16090 net.cpp:106] Creating Layer norm2
I0415 12:53:13.555254 16090 net.cpp:454] norm2 <- pool2
I0415 12:53:13.555279 16090 net.cpp:411] norm2 -> norm2
I0415 12:53:13.557309 16090 net.cpp:150] Setting up norm2
I0415 12:53:13.557338 16090 net.cpp:157] Top shape: 100 32 8 8 (204800)
I0415 12:53:13.557346 16090 net.cpp:165] Memory required for data: 32359600
I0415 12:53:13.557354 16090 layer_factory.hpp:77] Creating layer conv3
I0415 12:53:13.557376 16090 net.cpp:106] Creating Layer conv3
I0415 12:53:13.557390 16090 net.cpp:454] conv3 <- norm2
I0415 12:53:13.557413 16090 net.cpp:411] conv3 -> conv3
I0415 12:53:13.565163 16090 net.cpp:150] Setting up conv3
I0415 12:53:13.565196 16090 net.cpp:157] Top shape: 100 64 8 8 (409600)
I0415 12:53:13.565207 16090 net.cpp:165] Memory required for data: 33998000
I0415 12:53:13.565227 16090 layer_factory.hpp:77] Creating layer relu3
I0415 12:53:13.565243 16090 net.cpp:106] Creating Layer relu3
I0415 12:53:13.565285 16090 net.cpp:454] relu3 <- conv3
I0415 12:53:13.565305 16090 net.cpp:397] relu3 -> conv3 (in-place)
I0415 12:53:13.566644 16090 net.cpp:150] Setting up relu3
I0415 12:53:13.566673 16090 net.cpp:157] Top shape: 100 64 8 8 (409600)
I0415 12:53:13.566680 16090 net.cpp:165] Memory required for data: 35636400
I0415 12:53:13.566689 16090 layer_factory.hpp:77] Creating layer pool3
I0415 12:53:13.566701 16090 net.cpp:106] Creating Layer pool3
I0415 12:53:13.566710 16090 net.cpp:454] pool3 <- conv3
I0415 12:53:13.566725 16090 net.cpp:411] pool3 -> pool3
I0415 12:53:13.568053 16090 net.cpp:150] Setting up pool3
I0415 12:53:13.568081 16090 net.cpp:157] Top shape: 100 64 4 4 (102400)
I0415 12:53:13.568091 16090 net.cpp:165] Memory required for data: 36046000
I0415 12:53:13.568099 16090 layer_factory.hpp:77] Creating layer ip2
I0415 12:53:13.568114 16090 net.cpp:106] Creating Layer ip2
I0415 12:53:13.568122 16090 net.cpp:454] ip2 <- pool3
I0415 12:53:13.568138 16090 net.cpp:411] ip2 -> ip2
I0415 12:53:13.569056 16090 net.cpp:150] Setting up ip2
I0415 12:53:13.569082 16090 net.cpp:157] Top shape: 100 10 (1000)
I0415 12:53:13.569090 16090 net.cpp:165] Memory required for data: 36050000
I0415 12:53:13.569104 16090 layer_factory.hpp:77] Creating layer ip2_ip2_0_split
I0415 12:53:13.569135 16090 net.cpp:106] Creating Layer ip2_ip2_0_split
I0415 12:53:13.569144 16090 net.cpp:454] ip2_ip2_0_split <- ip2
I0415 12:53:13.569154 16090 net.cpp:411] ip2_ip2_0_split -> ip2_ip2_0_split_0
I0415 12:53:13.569175 16090 net.cpp:411] ip2_ip2_0_split -> ip2_ip2_0_split_1
I0415 12:53:13.569270 16090 net.cpp:150] Setting up ip2_ip2_0_split
I0415 12:53:13.569285 16090 net.cpp:157] Top shape: 100 10 (1000)
I0415 12:53:13.569293 16090 net.cpp:157] Top shape: 100 10 (1000)
I0415 12:53:13.569301 16090 net.cpp:165] Memory required for data: 36058000
I0415 12:53:13.569308 16090 layer_factory.hpp:77] Creating layer accuracy
I0415 12:53:13.569319 16090 net.cpp:106] Creating Layer accuracy
I0415 12:53:13.569331 16090 net.cpp:454] accuracy <- ip2_ip2_0_split_0
I0415 12:53:13.569340 16090 net.cpp:454] accuracy <- label_cifar_1_split_0
I0415 12:53:13.569352 16090 net.cpp:411] accuracy -> accuracy
…
