…
I0407 22:14:30.189188 21381 net.cpp:322] The NetState phase (0) differed from the phase (1) specified by a rule in layer cifar
I0407 22:14:30.189208 21381 net.cpp:322] The NetState phase (0) differed from the phase (1) specified by a rule in layer accuracy
I0407 22:14:30.189296 21381 net.cpp:49] Initializing net from parameters: 
name: "CIFAR10_full"
state {
  phase: TRAIN
}
layer {
  name: "cifar"
  type: "Data"
  top: "data"
  top: "label"
  include {
    phase: TRAIN
  }
  transform_param {
    mean_file: "examples/cifar10/mean.binaryproto"
  }
  data_param {
    source: "examples/cifar10/cifar10_train_lmdb"
    batch_size: 100
    backend: LMDB
  }
}
layer {
  name: "ip1"
  type: "InnerProduct"
  bottom: "data"
  top: "ip1"
  param {
    lr_mult: 1
  }
  param {
    lr_mult: 2
  }
  inner_product_param {
    num_output: 1024
    weight_filler {
      type: "xavier"
    }
  }
}
layer {
  name: "relu1"
  type: "ReLU"
  bottom: "ip1"
  top: "ip1"
}
layer {
  name: "ip2"
  type: "InnerProduct"
  bottom: "ip1"
  top: "ip2"
  param {
    lr_mult: 1
  }
  param {
    lr_mult: 2
  }
  inner_product_param {
    num_output: 1024
    weight_filler {
      type: "xavier"
    }
  }
}
layer {
  name: "relu2"
  type: "ReLU"
  bottom: "ip2"
  top: "ip2"
}
layer {
  name: "ip3"
  type: "InnerProduct"
  bottom: "ip2"
  top: "ip3"
  param {
    lr_mult: 1
  }
  param {
    lr_mult: 2
  }
  inner_product_param {
    num_output: 1024
    weight_filler {
      type: "xavier"
    }
  }
}
layer {
  name: "relu3"
  type: "ReLU"
  bottom: "ip3"
  top: "ip3"
}
layer {
  name: "ip4"
  type: "InnerProduct"
  bottom: "ip3"
  top: "ip4"
  param {
    lr_mult: 1
  }
  param {
    lr_mult: 2
  }
  inner_product_param {
    num_output: 10
    weight_filler {
      type: "xavier"
    }
  }
}
layer {
  name: "loss"
  type: "SoftmaxWithLoss"
  bottom: "ip4"
  bottom: "label"
  top: "loss"
}
I0407 22:14:30.189373 21381 layer_factory.hpp:77] Creating layer cifar
I0407 22:14:30.189927 21381 net.cpp:106] Creating Layer cifar
I0407 22:14:30.189952 21381 net.cpp:411] cifar -> data
I0407 22:14:30.190017 21381 net.cpp:411] cifar -> label
I0407 22:14:30.190052 21381 data_transformer.cpp:25] Loading mean file from: examples/cifar10/mean.binaryproto
I0407 22:14:30.191463 21386 db_lmdb.cpp:38] Opened lmdb examples/cifar10/cifar10_train_lmdb
I0407 22:14:30.197260 21381 data_layer.cpp:41] output data size: 100,3,32,32
I0407 22:14:30.199585 21381 net.cpp:150] Setting up cifar
I0407 22:14:30.199625 21381 net.cpp:157] Top shape: 100 3 32 32 (307200)
I0407 22:14:30.199632 21381 net.cpp:157] Top shape: 100 (100)
I0407 22:14:30.199636 21381 net.cpp:165] Memory required for data: 1229200
I0407 22:14:30.199651 21381 layer_factory.hpp:77] Creating layer ip1
I0407 22:14:30.199676 21381 net.cpp:106] Creating Layer ip1
I0407 22:14:30.199687 21381 net.cpp:454] ip1 <- data
I0407 22:14:30.199704 21381 net.cpp:411] ip1 -> ip1
I0407 22:14:30.221292 21381 net.cpp:150] Setting up ip1
I0407 22:14:30.221329 21381 net.cpp:157] Top shape: 100 1024 (102400)
I0407 22:14:30.221334 21381 net.cpp:165] Memory required for data: 1638800
I0407 22:14:30.221360 21381 layer_factory.hpp:77] Creating layer relu1
I0407 22:14:30.221400 21381 net.cpp:106] Creating Layer relu1
I0407 22:14:30.221408 21381 net.cpp:454] relu1 <- ip1
I0407 22:14:30.221418 21381 net.cpp:397] relu1 -> ip1 (in-place)
I0407 22:14:31.135949 21381 net.cpp:150] Setting up relu1
I0407 22:14:31.135987 21381 net.cpp:157] Top shape: 100 1024 (102400)
I0407 22:14:31.135993 21381 net.cpp:165] Memory required for data: 2048400
I0407 22:14:31.136051 21381 layer_factory.hpp:77] Creating layer ip2
I0407 22:14:31.136071 21381 net.cpp:106] Creating Layer ip2
I0407 22:14:31.136080 21381 net.cpp:454] ip2 <- ip1
I0407 22:14:31.136103 21381 net.cpp:411] ip2 -> ip2
I0407 22:14:31.143151 21381 net.cpp:150] Setting up ip2
I0407 22:14:31.143187 21381 net.cpp:157] Top shape: 100 1024 (102400)
I0407 22:14:31.143193 21381 net.cpp:165] Memory required for data: 2458000
I0407 22:14:31.143209 21381 layer_factory.hpp:77] Creating layer relu2
I0407 22:14:31.143225 21381 net.cpp:106] Creating Layer relu2
I0407 22:14:31.143234 21381 net.cpp:454] relu2 <- ip2
I0407 22:14:31.143260 21381 net.cpp:397] relu2 -> ip2 (in-place)
I0407 22:14:31.143961 21381 net.cpp:150] Setting up relu2
I0407 22:14:31.143976 21381 net.cpp:157] Top shape: 100 1024 (102400)
I0407 22:14:31.143982 21381 net.cpp:165] Memory required for data: 2867600
I0407 22:14:31.144006 21381 layer_factory.hpp:77] Creating layer ip3
I0407 22:14:31.144018 21381 net.cpp:106] Creating Layer ip3
I0407 22:14:31.144037 21381 net.cpp:454] ip3 <- ip2
I0407 22:14:31.144047 21381 net.cpp:411] ip3 -> ip3
I0407 22:14:31.150948 21381 net.cpp:150] Setting up ip3
I0407 22:14:31.150984 21381 net.cpp:157] Top shape: 100 1024 (102400)
I0407 22:14:31.150990 21381 net.cpp:165] Memory required for data: 3277200
I0407 22:14:31.151006 21381 layer_factory.hpp:77] Creating layer relu3
I0407 22:14:31.151021 21381 net.cpp:106] Creating Layer relu3
I0407 22:14:31.151046 21381 net.cpp:454] relu3 <- ip3
I0407 22:14:31.151057 21381 net.cpp:397] relu3 -> ip3 (in-place)
I0407 22:14:31.151727 21381 net.cpp:150] Setting up relu3
I0407 22:14:31.151751 21381 net.cpp:157] Top shape: 100 1024 (102400)
I0407 22:14:31.151757 21381 net.cpp:165] Memory required for data: 3686800
I0407 22:14:31.151762 21381 layer_factory.hpp:77] Creating layer ip4
I0407 22:14:31.151790 21381 net.cpp:106] Creating Layer ip4
I0407 22:14:31.151798 21381 net.cpp:454] ip4 <- ip3
I0407 22:14:31.151808 21381 net.cpp:411] ip4 -> ip4
I0407 22:14:31.152390 21381 net.cpp:150] Setting up ip4
I0407 22:14:31.152407 21381 net.cpp:157] Top shape: 100 10 (1000)
I0407 22:14:31.152413 21381 net.cpp:165] Memory required for data: 3690800
I0407 22:14:31.152441 21381 layer_factory.hpp:77] Creating layer loss
I0407 22:14:31.152456 21381 net.cpp:106] Creating Layer loss
I0407 22:14:31.152463 21381 net.cpp:454] loss <- ip4
I0407 22:14:31.152482 21381 net.cpp:454] loss <- label
I0407 22:14:31.152495 21381 net.cpp:411] loss -> loss
I0407 22:14:31.152513 21381 layer_factory.hpp:77] Creating layer loss
…
I0407 22:14:31.153657 21381 solver.cpp:181] Creating test net (#0) specified by net file: examples/cifar10/test/cifar10_full_train_test.prototxt
I0407 22:14:31.153687 21381 net.cpp:322] The NetState phase (1) differed from the phase (0) specified by a rule in layer cifar
I0407 22:14:31.153759 21381 net.cpp:49] Initializing net from parameters: 
name: "CIFAR10_full"
state {
  phase: TEST
}
layer {
  name: "cifar"
  type: "Data"
  top: "data"
  top: "label"
  include {
    phase: TEST
  }
  transform_param {
    mean_file: "examples/cifar10/mean.binaryproto"
  }
  data_param {
    source: "examples/cifar10/cifar10_test_lmdb"
    batch_size: 100
    backend: LMDB
  }
}
layer {
  name: "ip1"
  type: "InnerProduct"
  bottom: "data"
  top: "ip1"
  param {
    lr_mult: 1
  }
  param {
    lr_mult: 2
  }
  inner_product_param {
    num_output: 1024
    weight_filler {
      type: "xavier"
    }
  }
}
layer {
  name: "relu1"
  type: "ReLU"
  bottom: "ip1"
  top: "ip1"
}
layer {
  name: "ip2"
  type: "InnerProduct"
  bottom: "ip1"
  top: "ip2"
  param {
    lr_mult: 1
  }
  param {
    lr_mult: 2
  }
  inner_product_param {
    num_output: 1024
    weight_filler {
      type: "xavier"
    }
  }
}
layer {
  name: "relu2"
  type: "ReLU"
  bottom: "ip2"
  top: "ip2"
}
layer {
  name: "ip3"
  type: "InnerProduct"
  bottom: "ip2"
  top: "ip3"
  param {
    lr_mult: 1
  }
  param {
    lr_mult: 2
  }
  inner_product_param {
    num_output: 1024
    weight_filler {
      type: "xavier"
    }
  }
}
layer {
  name: "relu3"
  type: "ReLU"
  bottom: "ip3"
  top: "ip3"
}
layer {
  name: "ip4"
  type: "InnerProduct"
  bottom: "ip3"
  top: "ip4"
  param {
    lr_mult: 1
  }
  param {
    lr_mult: 2
  }
  inner_product_param {
    num_output: 10
    weight_filler {
      type: "xavier"
    }
  }
}
layer {
  name: "accuracy"
  type: "Accuracy"
  bottom: "ip4"
  bottom: "label"
  top: "accuracy"
  include {
    phase: TEST
  }
}
layer {
  name: "loss"
  type: "SoftmaxWithLoss"
  bottom: "ip4"
  bottom: "label"
  top: "loss"
}
I0407 22:14:31.153861 21381 layer_factory.hpp:77] Creating layer cifar
I0407 22:14:31.153975 21381 net.cpp:106] Creating Layer cifar
I0407 22:14:31.153986 21381 net.cpp:411] cifar -> data
I0407 22:14:31.154000 21381 net.cpp:411] cifar -> label
I0407 22:14:31.154012 21381 data_transformer.cpp:25] Loading mean file from: examples/cifar10/mean.binaryproto
I0407 22:14:31.155016 21388 db_lmdb.cpp:38] Opened lmdb examples/cifar10/cifar10_test_lmdb
I0407 22:14:31.155345 21381 data_layer.cpp:41] output data size: 100,3,32,32
I0407 22:14:31.160264 21381 net.cpp:150] Setting up cifar
I0407 22:14:31.160329 21381 net.cpp:157] Top shape: 100 3 32 32 (307200)
I0407 22:14:31.160351 21381 net.cpp:157] Top shape: 100 (100)
I0407 22:14:31.160365 21381 net.cpp:165] Memory required for data: 1229200
I0407 22:14:31.160390 21381 layer_factory.hpp:77] Creating layer label_cifar_1_split
I0407 22:14:31.160429 21381 net.cpp:106] Creating Layer label_cifar_1_split
I0407 22:14:31.160445 21381 net.cpp:454] label_cifar_1_split <- label
I0407 22:14:31.160466 21381 net.cpp:411] label_cifar_1_split -> label_cifar_1_split_0
I0407 22:14:31.160497 21381 net.cpp:411] label_cifar_1_split -> label_cifar_1_split_1
I0407 22:14:31.160656 21381 net.cpp:150] Setting up label_cifar_1_split
I0407 22:14:31.160687 21381 net.cpp:157] Top shape: 100 (100)
I0407 22:14:31.160706 21381 net.cpp:157] Top shape: 100 (100)
I0407 22:14:31.160775 21381 net.cpp:165] Memory required for data: 1230000
I0407 22:14:31.160838 21381 layer_factory.hpp:77] Creating layer ip1
I0407 22:14:31.160887 21381 net.cpp:106] Creating Layer ip1
I0407 22:14:31.161087 21381 net.cpp:454] ip1 <- data
I0407 22:14:31.161113 21381 net.cpp:411] ip1 -> ip1
I0407 22:14:31.201254 21381 net.cpp:150] Setting up ip1
I0407 22:14:31.201295 21381 net.cpp:157] Top shape: 100 1024 (102400)
I0407 22:14:31.201302 21381 net.cpp:165] Memory required for data: 1639600
I0407 22:14:31.201319 21381 layer_factory.hpp:77] Creating layer relu1
I0407 22:14:31.201350 21381 net.cpp:106] Creating Layer relu1
I0407 22:14:31.201362 21381 net.cpp:454] relu1 <- ip1
I0407 22:14:31.201376 21381 net.cpp:397] relu1 -> ip1 (in-place)
I0407 22:14:31.203064 21381 net.cpp:150] Setting up relu1
I0407 22:14:31.203117 21381 net.cpp:157] Top shape: 100 1024 (102400)
I0407 22:14:31.203130 21381 net.cpp:165] Memory required for data: 2049200
I0407 22:14:31.203145 21381 layer_factory.hpp:77] Creating layer ip2
I0407 22:14:31.203207 21381 net.cpp:106] Creating Layer ip2
I0407 22:14:31.203243 21381 net.cpp:454] ip2 <- ip1
I0407 22:14:31.203311 21381 net.cpp:411] ip2 -> ip2
I0407 22:14:31.216881 21381 net.cpp:150] Setting up ip2
I0407 22:14:31.216990 21381 net.cpp:157] Top shape: 100 1024 (102400)
I0407 22:14:31.217023 21381 net.cpp:165] Memory required for data: 2458800
I0407 22:14:31.217072 21381 layer_factory.hpp:77] Creating layer relu2
I0407 22:14:31.217116 21381 net.cpp:106] Creating Layer relu2
I0407 22:14:31.217149 21381 net.cpp:454] relu2 <- ip2
I0407 22:14:31.217185 21381 net.cpp:397] relu2 -> ip2 (in-place)
I0407 22:14:31.218497 21381 net.cpp:150] Setting up relu2
I0407 22:14:31.218581 21381 net.cpp:157] Top shape: 100 1024 (102400)
I0407 22:14:31.218616 21381 net.cpp:165] Memory required for data: 2868400
I0407 22:14:31.218649 21381 layer_factory.hpp:77] Creating layer ip3
I0407 22:14:31.218695 21381 net.cpp:106] Creating Layer ip3
I0407 22:14:31.218729 21381 net.cpp:454] ip3 <- ip2
I0407 22:14:31.218766 21381 net.cpp:411] ip3 -> ip3
I0407 22:14:31.229984 21381 net.cpp:150] Setting up ip3
I0407 22:14:31.230016 21381 net.cpp:157] Top shape: 100 1024 (102400)
I0407 22:14:31.230020 21381 net.cpp:165] Memory required for data: 3278000
I0407 22:14:31.230036 21381 layer_factory.hpp:77] Creating layer relu3
I0407 22:14:31.230051 21381 net.cpp:106] Creating Layer relu3
I0407 22:14:31.230057 21381 net.cpp:454] relu3 <- ip3
I0407 22:14:31.230065 21381 net.cpp:397] relu3 -> ip3 (in-place)
I0407 22:14:31.230829 21381 net.cpp:150] Setting up relu3
I0407 22:14:31.230844 21381 net.cpp:157] Top shape: 100 1024 (102400)
I0407 22:14:31.230849 21381 net.cpp:165] Memory required for data: 3687600
I0407 22:14:31.230852 21381 layer_factory.hpp:77] Creating layer ip4
I0407 22:14:31.230862 21381 net.cpp:106] Creating Layer ip4
I0407 22:14:31.230866 21381 net.cpp:454] ip4 <- ip3
I0407 22:14:31.230873 21381 net.cpp:411] ip4 -> ip4
I0407 22:14:31.231061 21381 net.cpp:150] Setting up ip4
I0407 22:14:31.231071 21381 net.cpp:157] Top shape: 100 10 (1000)
I0407 22:14:31.231076 21381 net.cpp:165] Memory required for data: 3691600
I0407 22:14:31.231086 21381 layer_factory.hpp:77] Creating layer ip4_ip4_0_split
I0407 22:14:31.231097 21381 net.cpp:106] Creating Layer ip4_ip4_0_split
I0407 22:14:31.231106 21381 net.cpp:454] ip4_ip4_0_split <- ip4
I0407 22:14:31.231115 21381 net.cpp:411] ip4_ip4_0_split -> ip4_ip4_0_split_0
I0407 22:14:31.231129 21381 net.cpp:411] ip4_ip4_0_split -> ip4_ip4_0_split_1
I0407 22:14:31.231178 21381 net.cpp:150] Setting up ip4_ip4_0_split
I0407 22:14:31.231187 21381 net.cpp:157] Top shape: 100 10 (1000)
I0407 22:14:31.231192 21381 net.cpp:157] Top shape: 100 10 (1000)
I0407 22:14:31.231197 21381 net.cpp:165] Memory required for data: 3699600
I0407 22:14:31.231204 21381 layer_factory.hpp:77] Creating layer accuracy
I0407 22:14:31.231215 21381 net.cpp:106] Creating Layer accuracy
I0407 22:14:31.231221 21381 net.cpp:454] accuracy <- ip4_ip4_0_split_0
I0407 22:14:31.231230 21381 net.cpp:454] accuracy <- label_cifar_1_split_0
I0407 22:14:31.231238 21381 net.cpp:411] accuracy -> accuracy
…
