…
I0408 02:17:03.916249 30437 net.cpp:322] The NetState phase (0) differed from the phase (1) specified by a rule in layer cifar
I0408 02:17:03.916268 30437 net.cpp:322] The NetState phase (0) differed from the phase (1) specified by a rule in layer accuracy
I0408 02:17:03.916352 30437 net.cpp:49] Initializing net from parameters: 
name: "CIFAR10_full"
state {
  phase: TRAIN
}
layer {
  name: "cifar"
  type: "Data"
  top: "data"
  top: "label"
  include {
    phase: TRAIN
  }
  transform_param {
    mean_file: "examples/cifar10/mean.binaryproto"
  }
  data_param {
    source: "examples/cifar10/cifar10_train_lmdb"
    batch_size: 100
    backend: LMDB
  }
}
layer {
  name: "ip1"
  type: "InnerProduct"
  bottom: "data"
  top: "ip1"
  param {
    lr_mult: 1
  }
  param {
    lr_mult: 2
  }
  inner_product_param {
    num_output: 1024
    weight_filler {
      type: "xavier"
    }
  }
}
layer {
  name: "tanh1"
  type: "TanH"
  bottom: "ip1"
  top: "ip1"
}
layer {
  name: "ip1-2"
  type: "InnerProduct"
  bottom: "ip1"
  top: "ip1-2"
  param {
    lr_mult: 1
  }
  param {
    lr_mult: 2
  }
  inner_product_param {
    num_output: 128
    weight_filler {
      type: "xavier"
    }
  }
}
layer {
  name: "relu1"
  type: "ReLU"
  bottom: "ip1-2"
  top: "ip1-2"
}
layer {
  name: "ip2"
  type: "InnerProduct"
  bottom: "ip1-2"
  top: "ip2"
  param {
    lr_mult: 1
  }
  param {
    lr_mult: 2
  }
  inner_product_param {
    num_output: 1024
    weight_filler {
      type: "xavier"
    }
  }
}
layer {
  name: "tanh2"
  type: "TanH"
  bottom: "ip2"
  top: "ip2"
}
layer {
  name: "ip2-3"
  type: "InnerProduct"
  bottom: "ip2"
  top: "ip2-3"
  param {
    lr_mult: 1
  }
  param {
    lr_mult: 2
  }
  inner_product_param {
    num_output: 128
    weight_filler {
      type: "xavier"
    }
  }
}
layer {
  name: "relu2"
  type: "ReLU"
  bottom: "ip2-3"
  top: "ip2-3"
}
layer {
  name: "ip3"
  type: "InnerProduct"
  bottom: "ip2-3"
  top: "ip3"
  param {
    lr_mult: 1
  }
  param {
    lr_mult: 2
  }
  inner_product_param {
    num_output: 1024
    weight_filler {
      type: "xavier"
    }
  }
}
layer {
  name: "tanh3"
  type: "TanH"
  bottom: "ip3"
  top: "ip3"
}
layer {
  name: "ip4"
  type: "InnerProduct"
  bottom: "ip3"
  top: "ip4"
  param {
    lr_mult: 1
  }
  param {
    lr_mult: 2
  }
  inner_product_param {
    num_output: 10
    weight_filler {
      type: "xavier"
    }
  }
}
layer {
  name: "loss"
  type: "SoftmaxWithLoss"
  bottom: "ip4"
  bottom: "label"
  top: "loss"
}
I0408 02:17:03.916440 30437 layer_factory.hpp:77] Creating layer cifar
I0408 02:17:03.917042 30437 net.cpp:106] Creating Layer cifar
I0408 02:17:03.917062 30437 net.cpp:411] cifar -> data
I0408 02:17:03.917099 30437 net.cpp:411] cifar -> label
I0408 02:17:03.917130 30437 data_transformer.cpp:25] Loading mean file from: examples/cifar10/mean.binaryproto
I0408 02:17:03.918164 30442 db_lmdb.cpp:38] Opened lmdb examples/cifar10/cifar10_train_lmdb
I0408 02:17:03.924302 30437 data_layer.cpp:41] output data size: 100,3,32,32
I0408 02:17:03.933013 30437 net.cpp:150] Setting up cifar
I0408 02:17:03.933055 30437 net.cpp:157] Top shape: 100 3 32 32 (307200)
I0408 02:17:03.933063 30437 net.cpp:157] Top shape: 100 (100)
I0408 02:17:03.933068 30437 net.cpp:165] Memory required for data: 1229200
I0408 02:17:03.933087 30437 layer_factory.hpp:77] Creating layer ip1
I0408 02:17:03.933135 30437 net.cpp:106] Creating Layer ip1
I0408 02:17:03.933164 30437 net.cpp:454] ip1 <- data
I0408 02:17:03.933185 30437 net.cpp:411] ip1 -> ip1
I0408 02:17:03.955282 30437 net.cpp:150] Setting up ip1
I0408 02:17:03.955346 30437 net.cpp:157] Top shape: 100 1024 (102400)
I0408 02:17:03.955353 30437 net.cpp:165] Memory required for data: 1638800
I0408 02:17:03.955379 30437 layer_factory.hpp:77] Creating layer tanh1
I0408 02:17:03.955401 30437 net.cpp:106] Creating Layer tanh1
I0408 02:17:03.955406 30437 net.cpp:454] tanh1 <- ip1
I0408 02:17:03.955415 30437 net.cpp:397] tanh1 -> ip1 (in-place)
I0408 02:17:04.182411 30437 net.cpp:150] Setting up tanh1
I0408 02:17:04.182445 30437 net.cpp:157] Top shape: 100 1024 (102400)
I0408 02:17:04.182448 30437 net.cpp:165] Memory required for data: 2048400
I0408 02:17:04.182454 30437 layer_factory.hpp:77] Creating layer ip1-2
I0408 02:17:04.182467 30437 net.cpp:106] Creating Layer ip1-2
I0408 02:17:04.182472 30437 net.cpp:454] ip1-2 <- ip1
I0408 02:17:04.182479 30437 net.cpp:411] ip1-2 -> ip1-2
I0408 02:17:04.183728 30437 net.cpp:150] Setting up ip1-2
I0408 02:17:04.183746 30437 net.cpp:157] Top shape: 100 128 (12800)
I0408 02:17:04.183750 30437 net.cpp:165] Memory required for data: 2099600
I0408 02:17:04.183763 30437 layer_factory.hpp:77] Creating layer relu1
I0408 02:17:04.183771 30437 net.cpp:106] Creating Layer relu1
I0408 02:17:04.183775 30437 net.cpp:454] relu1 <- ip1-2
I0408 02:17:04.183780 30437 net.cpp:397] relu1 -> ip1-2 (in-place)
I0408 02:17:04.184419 30437 net.cpp:150] Setting up relu1
I0408 02:17:04.184433 30437 net.cpp:157] Top shape: 100 128 (12800)
I0408 02:17:04.184437 30437 net.cpp:165] Memory required for data: 2150800
I0408 02:17:04.184440 30437 layer_factory.hpp:77] Creating layer ip2
I0408 02:17:04.184447 30437 net.cpp:106] Creating Layer ip2
I0408 02:17:04.184450 30437 net.cpp:454] ip2 <- ip1-2
I0408 02:17:04.184455 30437 net.cpp:411] ip2 -> ip2
I0408 02:17:04.185261 30437 net.cpp:150] Setting up ip2
I0408 02:17:04.185272 30437 net.cpp:157] Top shape: 100 1024 (102400)
I0408 02:17:04.185276 30437 net.cpp:165] Memory required for data: 2560400
I0408 02:17:04.185283 30437 layer_factory.hpp:77] Creating layer tanh2
I0408 02:17:04.185289 30437 net.cpp:106] Creating Layer tanh2
I0408 02:17:04.185292 30437 net.cpp:454] tanh2 <- ip2
I0408 02:17:04.185297 30437 net.cpp:397] tanh2 -> ip2 (in-place)
I0408 02:17:04.185858 30437 net.cpp:150] Setting up tanh2
I0408 02:17:04.185875 30437 net.cpp:157] Top shape: 100 1024 (102400)
I0408 02:17:04.185878 30437 net.cpp:165] Memory required for data: 2970000
I0408 02:17:04.185883 30437 layer_factory.hpp:77] Creating layer ip2-3
I0408 02:17:04.185890 30437 net.cpp:106] Creating Layer ip2-3
I0408 02:17:04.185894 30437 net.cpp:454] ip2-3 <- ip2
I0408 02:17:04.185900 30437 net.cpp:411] ip2-3 -> ip2-3
I0408 02:17:04.187433 30437 net.cpp:150] Setting up ip2-3
I0408 02:17:04.187470 30437 net.cpp:157] Top shape: 100 128 (12800)
I0408 02:17:04.187477 30437 net.cpp:165] Memory required for data: 3021200
I0408 02:17:04.187490 30437 layer_factory.hpp:77] Creating layer relu2
I0408 02:17:04.187505 30437 net.cpp:106] Creating Layer relu2
I0408 02:17:04.187508 30437 net.cpp:454] relu2 <- ip2-3
I0408 02:17:04.187522 30437 net.cpp:397] relu2 -> ip2-3 (in-place)
I0408 02:17:04.188441 30437 net.cpp:150] Setting up relu2
I0408 02:17:04.188457 30437 net.cpp:157] Top shape: 100 128 (12800)
I0408 02:17:04.188460 30437 net.cpp:165] Memory required for data: 3072400
I0408 02:17:04.188467 30437 layer_factory.hpp:77] Creating layer ip3
I0408 02:17:04.188477 30437 net.cpp:106] Creating Layer ip3
I0408 02:17:04.188482 30437 net.cpp:454] ip3 <- ip2-3
I0408 02:17:04.188488 30437 net.cpp:411] ip3 -> ip3
I0408 02:17:04.189728 30437 net.cpp:150] Setting up ip3
I0408 02:17:04.189744 30437 net.cpp:157] Top shape: 100 1024 (102400)
I0408 02:17:04.189749 30437 net.cpp:165] Memory required for data: 3482000
I0408 02:17:04.189764 30437 layer_factory.hpp:77] Creating layer tanh3
I0408 02:17:04.189774 30437 net.cpp:106] Creating Layer tanh3
I0408 02:17:04.189777 30437 net.cpp:454] tanh3 <- ip3
I0408 02:17:04.189782 30437 net.cpp:397] tanh3 -> ip3 (in-place)
I0408 02:17:04.190579 30437 net.cpp:150] Setting up tanh3
I0408 02:17:04.190601 30437 net.cpp:157] Top shape: 100 1024 (102400)
I0408 02:17:04.190637 30437 net.cpp:165] Memory required for data: 3891600
I0408 02:17:04.190644 30437 layer_factory.hpp:77] Creating layer ip4
I0408 02:17:04.190657 30437 net.cpp:106] Creating Layer ip4
I0408 02:17:04.190665 30437 net.cpp:454] ip4 <- ip3
I0408 02:17:04.190673 30437 net.cpp:411] ip4 -> ip4
I0408 02:17:04.191341 30437 net.cpp:150] Setting up ip4
I0408 02:17:04.191355 30437 net.cpp:157] Top shape: 100 10 (1000)
I0408 02:17:04.191359 30437 net.cpp:165] Memory required for data: 3895600
I0408 02:17:04.191365 30437 layer_factory.hpp:77] Creating layer loss
I0408 02:17:04.191373 30437 net.cpp:106] Creating Layer loss
I0408 02:17:04.191377 30437 net.cpp:454] loss <- ip4
I0408 02:17:04.191382 30437 net.cpp:454] loss <- label
I0408 02:17:04.191390 30437 net.cpp:411] loss -> loss
I0408 02:17:04.191413 30437 layer_factory.hpp:77] Creating layer loss
…
I0408 02:17:04.192642 30437 solver.cpp:181] Creating test net (#0) specified by net file: examples/cifar10/test/cifar10_full_train_test.prototxt
I0408 02:17:04.192672 30437 net.cpp:322] The NetState phase (1) differed from the phase (0) specified by a rule in layer cifar
I0408 02:17:04.192760 30437 net.cpp:49] Initializing net from parameters: 
name: "CIFAR10_full"
state {
  phase: TEST
}
layer {
  name: "cifar"
  type: "Data"
  top: "data"
  top: "label"
  include {
    phase: TEST
  }
  transform_param {
    mean_file: "examples/cifar10/mean.binaryproto"
  }
  data_param {
    source: "examples/cifar10/cifar10_test_lmdb"
    batch_size: 100
    backend: LMDB
  }
}
layer {
  name: "ip1"
  type: "InnerProduct"
  bottom: "data"
  top: "ip1"
  param {
    lr_mult: 1
  }
  param {
    lr_mult: 2
  }
  inner_product_param {
    num_output: 1024
    weight_filler {
      type: "xavier"
    }
  }
}
layer {
  name: "tanh1"
  type: "TanH"
  bottom: "ip1"
  top: "ip1"
}
layer {
  name: "ip1-2"
  type: "InnerProduct"
  bottom: "ip1"
  top: "ip1-2"
  param {
    lr_mult: 1
  }
  param {
    lr_mult: 2
  }
  inner_product_param {
    num_output: 128
    weight_filler {
      type: "xavier"
    }
  }
}
layer {
  name: "relu1"
  type: "ReLU"
  bottom: "ip1-2"
  top: "ip1-2"
}
layer {
  name: "ip2"
  type: "InnerProduct"
  bottom: "ip1-2"
  top: "ip2"
  param {
    lr_mult: 1
  }
  param {
    lr_mult: 2
  }
  inner_product_param {
    num_output: 1024
    weight_filler {
      type: "xavier"
    }
  }
}
layer {
  name: "tanh2"
  type: "TanH"
  bottom: "ip2"
  top: "ip2"
}
layer {
  name: "ip2-3"
  type: "InnerProduct"
  bottom: "ip2"
  top: "ip2-3"
  param {
    lr_mult: 1
  }
  param {
    lr_mult: 2
  }
  inner_product_param {
    num_output: 128
    weight_filler {
      type: "xavier"
    }
  }
}
layer {
  name: "relu2"
  type: "ReLU"
  bottom: "ip2-3"
  top: "ip2-3"
}
layer {
  name: "ip3"
  type: "InnerProduct"
  bottom: "ip2-3"
  top: "ip3"
  param {
    lr_mult: 1
  }
  param {
    lr_mult: 2
  }
  inner_product_param {
    num_output: 1024
    weight_filler {
      type: "xavier"
    }
  }
}
layer {
  name: "tanh3"
  type: "TanH"
  bottom: "ip3"
  top: "ip3"
}
layer {
  name: "ip4"
  type: "InnerProduct"
  bottom: "ip3"
  top: "ip4"
  param {
    lr_mult: 1
  }
  param {
    lr_mult: 2
  }
  inner_product_param {
    num_output: 10
    weight_filler {
      type: "xavier"
    }
  }
}
layer {
  name: "accuracy"
  type: "Accuracy"
  bottom: "ip4"
  bottom: "label"
  top: "accuracy"
  include {
    phase: TEST
  }
}
layer {
  name: "loss"
  type: "SoftmaxWithLoss"
  bottom: "ip4"
  bottom: "label"
  top: "loss"
}
I0408 02:17:04.192859 30437 layer_factory.hpp:77] Creating layer cifar
I0408 02:17:04.192993 30437 net.cpp:106] Creating Layer cifar
I0408 02:17:04.193019 30437 net.cpp:411] cifar -> data
I0408 02:17:04.193030 30437 net.cpp:411] cifar -> label
I0408 02:17:04.193038 30437 data_transformer.cpp:25] Loading mean file from: examples/cifar10/mean.binaryproto
I0408 02:17:04.194854 30444 db_lmdb.cpp:38] Opened lmdb examples/cifar10/cifar10_test_lmdb
I0408 02:17:04.195040 30437 data_layer.cpp:41] output data size: 100,3,32,32
I0408 02:17:04.197816 30437 net.cpp:150] Setting up cifar
I0408 02:17:04.197851 30437 net.cpp:157] Top shape: 100 3 32 32 (307200)
I0408 02:17:04.197856 30437 net.cpp:157] Top shape: 100 (100)
I0408 02:17:04.197860 30437 net.cpp:165] Memory required for data: 1229200
I0408 02:17:04.197865 30437 layer_factory.hpp:77] Creating layer label_cifar_1_split
I0408 02:17:04.197877 30437 net.cpp:106] Creating Layer label_cifar_1_split
I0408 02:17:04.197881 30437 net.cpp:454] label_cifar_1_split <- label
I0408 02:17:04.197892 30437 net.cpp:411] label_cifar_1_split -> label_cifar_1_split_0
I0408 02:17:04.197902 30437 net.cpp:411] label_cifar_1_split -> label_cifar_1_split_1
I0408 02:17:04.198006 30437 net.cpp:150] Setting up label_cifar_1_split
I0408 02:17:04.198015 30437 net.cpp:157] Top shape: 100 (100)
I0408 02:17:04.198019 30437 net.cpp:157] Top shape: 100 (100)
I0408 02:17:04.198021 30437 net.cpp:165] Memory required for data: 1230000
I0408 02:17:04.198024 30437 layer_factory.hpp:77] Creating layer ip1
I0408 02:17:04.198034 30437 net.cpp:106] Creating Layer ip1
I0408 02:17:04.198036 30437 net.cpp:454] ip1 <- data
I0408 02:17:04.198042 30437 net.cpp:411] ip1 -> ip1
I0408 02:17:04.219550 30437 net.cpp:150] Setting up ip1
I0408 02:17:04.219588 30437 net.cpp:157] Top shape: 100 1024 (102400)
I0408 02:17:04.219591 30437 net.cpp:165] Memory required for data: 1639600
I0408 02:17:04.219604 30437 layer_factory.hpp:77] Creating layer tanh1
I0408 02:17:04.219615 30437 net.cpp:106] Creating Layer tanh1
I0408 02:17:04.219624 30437 net.cpp:454] tanh1 <- ip1
I0408 02:17:04.219630 30437 net.cpp:397] tanh1 -> ip1 (in-place)
I0408 02:17:04.220407 30437 net.cpp:150] Setting up tanh1
I0408 02:17:04.220432 30437 net.cpp:157] Top shape: 100 1024 (102400)
I0408 02:17:04.220437 30437 net.cpp:165] Memory required for data: 2049200
I0408 02:17:04.220440 30437 layer_factory.hpp:77] Creating layer ip1-2
I0408 02:17:04.220455 30437 net.cpp:106] Creating Layer ip1-2
I0408 02:17:04.220459 30437 net.cpp:454] ip1-2 <- ip1
I0408 02:17:04.220466 30437 net.cpp:411] ip1-2 -> ip1-2
I0408 02:17:04.221809 30437 net.cpp:150] Setting up ip1-2
I0408 02:17:04.221845 30437 net.cpp:157] Top shape: 100 128 (12800)
I0408 02:17:04.221849 30437 net.cpp:165] Memory required for data: 2100400
I0408 02:17:04.221861 30437 layer_factory.hpp:77] Creating layer relu1
I0408 02:17:04.221871 30437 net.cpp:106] Creating Layer relu1
I0408 02:17:04.221876 30437 net.cpp:454] relu1 <- ip1-2
I0408 02:17:04.221882 30437 net.cpp:397] relu1 -> ip1-2 (in-place)
I0408 02:17:04.222641 30437 net.cpp:150] Setting up relu1
I0408 02:17:04.222666 30437 net.cpp:157] Top shape: 100 128 (12800)
I0408 02:17:04.222669 30437 net.cpp:165] Memory required for data: 2151600
I0408 02:17:04.222674 30437 layer_factory.hpp:77] Creating layer ip2
I0408 02:17:04.222705 30437 net.cpp:106] Creating Layer ip2
I0408 02:17:04.222709 30437 net.cpp:454] ip2 <- ip1-2
I0408 02:17:04.222718 30437 net.cpp:411] ip2 -> ip2
I0408 02:17:04.223608 30437 net.cpp:150] Setting up ip2
I0408 02:17:04.223629 30437 net.cpp:157] Top shape: 100 1024 (102400)
I0408 02:17:04.223633 30437 net.cpp:165] Memory required for data: 2561200
I0408 02:17:04.223645 30437 layer_factory.hpp:77] Creating layer tanh2
I0408 02:17:04.223656 30437 net.cpp:106] Creating Layer tanh2
I0408 02:17:04.223660 30437 net.cpp:454] tanh2 <- ip2
I0408 02:17:04.223666 30437 net.cpp:397] tanh2 -> ip2 (in-place)
I0408 02:17:04.224570 30437 net.cpp:150] Setting up tanh2
I0408 02:17:04.224608 30437 net.cpp:157] Top shape: 100 1024 (102400)
I0408 02:17:04.224616 30437 net.cpp:165] Memory required for data: 2970800
I0408 02:17:04.224622 30437 layer_factory.hpp:77] Creating layer ip2-3
I0408 02:17:04.224644 30437 net.cpp:106] Creating Layer ip2-3
I0408 02:17:04.224652 30437 net.cpp:454] ip2-3 <- ip2
I0408 02:17:04.224661 30437 net.cpp:411] ip2-3 -> ip2-3
I0408 02:17:04.226013 30437 net.cpp:150] Setting up ip2-3
I0408 02:17:04.226049 30437 net.cpp:157] Top shape: 100 128 (12800)
I0408 02:17:04.226053 30437 net.cpp:165] Memory required for data: 3022000
I0408 02:17:04.226061 30437 layer_factory.hpp:77] Creating layer relu2
I0408 02:17:04.226074 30437 net.cpp:106] Creating Layer relu2
I0408 02:17:04.226079 30437 net.cpp:454] relu2 <- ip2-3
I0408 02:17:04.226085 30437 net.cpp:397] relu2 -> ip2-3 (in-place)
I0408 02:17:04.226861 30437 net.cpp:150] Setting up relu2
I0408 02:17:04.226886 30437 net.cpp:157] Top shape: 100 128 (12800)
I0408 02:17:04.226889 30437 net.cpp:165] Memory required for data: 3073200
I0408 02:17:04.226894 30437 layer_factory.hpp:77] Creating layer ip3
I0408 02:17:04.226904 30437 net.cpp:106] Creating Layer ip3
I0408 02:17:04.226908 30437 net.cpp:454] ip3 <- ip2-3
I0408 02:17:04.226917 30437 net.cpp:411] ip3 -> ip3
I0408 02:17:04.227819 30437 net.cpp:150] Setting up ip3
I0408 02:17:04.227843 30437 net.cpp:157] Top shape: 100 1024 (102400)
I0408 02:17:04.227846 30437 net.cpp:165] Memory required for data: 3482800
I0408 02:17:04.227859 30437 layer_factory.hpp:77] Creating layer tanh3
I0408 02:17:04.227867 30437 net.cpp:106] Creating Layer tanh3
I0408 02:17:04.227871 30437 net.cpp:454] tanh3 <- ip3
I0408 02:17:04.227876 30437 net.cpp:397] tanh3 -> ip3 (in-place)
I0408 02:17:04.228657 30437 net.cpp:150] Setting up tanh3
I0408 02:17:04.228682 30437 net.cpp:157] Top shape: 100 1024 (102400)
I0408 02:17:04.228685 30437 net.cpp:165] Memory required for data: 3892400
I0408 02:17:04.228690 30437 layer_factory.hpp:77] Creating layer ip4
I0408 02:17:04.228701 30437 net.cpp:106] Creating Layer ip4
I0408 02:17:04.228705 30437 net.cpp:454] ip4 <- ip3
I0408 02:17:04.228713 30437 net.cpp:411] ip4 -> ip4
I0408 02:17:04.228926 30437 net.cpp:150] Setting up ip4
I0408 02:17:04.228937 30437 net.cpp:157] Top shape: 100 10 (1000)
I0408 02:17:04.228940 30437 net.cpp:165] Memory required for data: 3896400
I0408 02:17:04.228946 30437 layer_factory.hpp:77] Creating layer ip4_ip4_0_split
I0408 02:17:04.228952 30437 net.cpp:106] Creating Layer ip4_ip4_0_split
I0408 02:17:04.228956 30437 net.cpp:454] ip4_ip4_0_split <- ip4
I0408 02:17:04.228962 30437 net.cpp:411] ip4_ip4_0_split -> ip4_ip4_0_split_0
I0408 02:17:04.228968 30437 net.cpp:411] ip4_ip4_0_split -> ip4_ip4_0_split_1
I0408 02:17:04.229001 30437 net.cpp:150] Setting up ip4_ip4_0_split
I0408 02:17:04.229007 30437 net.cpp:157] Top shape: 100 10 (1000)
I0408 02:17:04.229010 30437 net.cpp:157] Top shape: 100 10 (1000)
I0408 02:17:04.229013 30437 net.cpp:165] Memory required for data: 3904400
I0408 02:17:04.229017 30437 layer_factory.hpp:77] Creating layer accuracy
I0408 02:17:04.229024 30437 net.cpp:106] Creating Layer accuracy
I0408 02:17:04.229027 30437 net.cpp:454] accuracy <- ip4_ip4_0_split_0
I0408 02:17:04.229030 30437 net.cpp:454] accuracy <- label_cifar_1_split_0
I0408 02:17:04.229035 30437 net.cpp:411] accuracy -> accuracy
…
