…
I0424 17:41:52.254278 11566 net.cpp:322] The NetState phase (0) differed from the phase (1) specified by a rule in layer mnist
I0424 17:41:52.254302 11566 net.cpp:322] The NetState phase (0) differed from the phase (1) specified by a rule in layer accuracy
I0424 17:41:52.254398 11566 net.cpp:49] Initializing net from parameters: 
name: "LeNet"
state {
  phase: TRAIN
}
layer {
  name: "mnist"
  type: "Data"
  top: "data"
  top: "label"
  include {
    phase: TRAIN
  }
  transform_param {
    scale: 0.00390625
  }
  data_param {
    source: "examples/mnist/mnist_train_lmdb"
    batch_size: 64
    backend: LMDB
  }
}
layer {
  name: "conv1"
  type: "Convolution"
  bottom: "data"
  top: "conv1"
  param {
    lr_mult: 1
  }
  param {
    lr_mult: 2
  }
  convolution_param {
    num_output: 20
    kernel_size: 5
    stride: 1
    weight_filler {
      type: "xavier"
    }
    bias_filler {
      type: "constant"
    }
  }
}
layer {
  name: "pool1"
  type: "Pooling"
  bottom: "conv1"
  top: "pool1"
  pooling_param {
    pool: MAX
    kernel_size: 2
    stride: 2
  }
}
layer {
  name: "conv2"
  type: "Convolution"
  bottom: "pool1"
  top: "conv2"
  param {
    lr_mult: 1
  }
  param {
    lr_mult: 2
  }
  convolution_param {
    num_output: 50
    kernel_size: 5
    stride: 1
    weight_filler {
      type: "xavier"
    }
    bias_filler {
      type: "constant"
    }
  }
}
layer {
  name: "pool2"
  type: "Pooling"
  bottom: "conv2"
  top: "pool2"
  pooling_param {
    pool: MAX
    kernel_size: 2
    stride: 2
  }
}
layer {
  name: "ip1"
  type: "InnerProduct"
  bottom: "pool2"
  top: "ip1"
  param {
    lr_mult: 1
  }
  param {
    lr_mult: 2
  }
  inner_product_param {
    num_output: 10
    weight_filler {
      type: "xavier"
    }
    bias_filler {
      type: "constant"
    }
  }
}
layer {
  name: "loss"
  type: "SoftmaxWithLoss"
  bottom: "ip1"
  bottom: "label"
  top: "loss"
}
I0424 17:41:52.254503 11566 layer_factory.hpp:77] Creating layer mnist
I0424 17:41:52.255239 11566 net.cpp:106] Creating Layer mnist
I0424 17:41:52.255257 11566 net.cpp:411] mnist -> data
I0424 17:41:52.255298 11566 net.cpp:411] mnist -> label
I0424 17:41:52.256319 11571 db_lmdb.cpp:38] Opened lmdb examples/mnist/mnist_train_lmdb
I0424 17:41:52.262663 11566 data_layer.cpp:41] output data size: 64,1,28,28
I0424 17:41:52.263509 11566 net.cpp:150] Setting up mnist
I0424 17:41:52.263598 11566 net.cpp:157] Top shape: 64 1 28 28 (50176)
I0424 17:41:52.263661 11566 net.cpp:157] Top shape: 64 (64)
I0424 17:41:52.263706 11566 net.cpp:165] Memory required for data: 200960
I0424 17:41:52.263758 11566 layer_factory.hpp:77] Creating layer conv1
I0424 17:41:52.263828 11566 net.cpp:106] Creating Layer conv1
I0424 17:41:52.263880 11566 net.cpp:454] conv1 <- data
I0424 17:41:52.263937 11566 net.cpp:411] conv1 -> conv1
I0424 17:41:52.380702 11566 net.cpp:150] Setting up conv1
I0424 17:41:52.380731 11566 net.cpp:157] Top shape: 64 20 24 24 (737280)
I0424 17:41:52.380738 11566 net.cpp:165] Memory required for data: 3150080
I0424 17:41:52.380822 11566 layer_factory.hpp:77] Creating layer pool1
I0424 17:41:52.380862 11566 net.cpp:106] Creating Layer pool1
I0424 17:41:52.380873 11566 net.cpp:454] pool1 <- conv1
I0424 17:41:52.380923 11566 net.cpp:411] pool1 -> pool1
I0424 17:41:52.381532 11566 net.cpp:150] Setting up pool1
I0424 17:41:52.381547 11566 net.cpp:157] Top shape: 64 20 12 12 (184320)
I0424 17:41:52.381594 11566 net.cpp:165] Memory required for data: 3887360
I0424 17:41:52.381604 11566 layer_factory.hpp:77] Creating layer conv2
I0424 17:41:52.381646 11566 net.cpp:106] Creating Layer conv2
I0424 17:41:52.381667 11566 net.cpp:454] conv2 <- pool1
I0424 17:41:52.381706 11566 net.cpp:411] conv2 -> conv2
I0424 17:41:52.383791 11566 net.cpp:150] Setting up conv2
I0424 17:41:52.383807 11566 net.cpp:157] Top shape: 64 50 8 8 (204800)
I0424 17:41:52.383857 11566 net.cpp:165] Memory required for data: 4706560
I0424 17:41:52.383893 11566 layer_factory.hpp:77] Creating layer pool2
I0424 17:41:52.383922 11566 net.cpp:106] Creating Layer pool2
I0424 17:41:52.383931 11566 net.cpp:454] pool2 <- conv2
I0424 17:41:52.383970 11566 net.cpp:411] pool2 -> pool2
I0424 17:41:52.384613 11566 net.cpp:150] Setting up pool2
I0424 17:41:52.384629 11566 net.cpp:157] Top shape: 64 50 4 4 (51200)
I0424 17:41:52.384665 11566 net.cpp:165] Memory required for data: 4911360
I0424 17:41:52.384675 11566 layer_factory.hpp:77] Creating layer ip1
I0424 17:41:52.384706 11566 net.cpp:106] Creating Layer ip1
I0424 17:41:52.384718 11566 net.cpp:454] ip1 <- pool2
I0424 17:41:52.384747 11566 net.cpp:411] ip1 -> ip1
I0424 17:41:52.385270 11566 net.cpp:150] Setting up ip1
I0424 17:41:52.385285 11566 net.cpp:157] Top shape: 64 10 (640)
I0424 17:41:52.385321 11566 net.cpp:165] Memory required for data: 4913920
I0424 17:41:52.385352 11566 layer_factory.hpp:77] Creating layer loss
I0424 17:41:52.385395 11566 net.cpp:106] Creating Layer loss
I0424 17:41:52.385403 11566 net.cpp:454] loss <- ip1
I0424 17:41:52.385411 11566 net.cpp:454] loss <- label
I0424 17:41:52.385429 11566 net.cpp:411] loss -> loss
I0424 17:41:52.385457 11566 layer_factory.hpp:77] Creating layer loss
…
I0424 17:41:52.386605 11566 solver.cpp:181] Creating test net (#0) specified by net file: examples/mnist/test/lenet_train_test.prototxt
I0424 17:41:52.386641 11566 net.cpp:322] The NetState phase (1) differed from the phase (0) specified by a rule in layer mnist
I0424 17:41:52.386734 11566 net.cpp:49] Initializing net from parameters: 
name: "LeNet"
state {
  phase: TEST
}
layer {
  name: "mnist"
  type: "Data"
  top: "data"
  top: "label"
  include {
    phase: TEST
  }
  transform_param {
    scale: 0.00390625
  }
  data_param {
    source: "examples/mnist/mnist_test_lmdb"
    batch_size: 100
    backend: LMDB
  }
}
layer {
  name: "conv1"
  type: "Convolution"
  bottom: "data"
  top: "conv1"
  param {
    lr_mult: 1
  }
  param {
    lr_mult: 2
  }
  convolution_param {
    num_output: 20
    kernel_size: 5
    stride: 1
    weight_filler {
      type: "xavier"
    }
    bias_filler {
      type: "constant"
    }
  }
}
layer {
  name: "pool1"
  type: "Pooling"
  bottom: "conv1"
  top: "pool1"
  pooling_param {
    pool: MAX
    kernel_size: 2
    stride: 2
  }
}
layer {
  name: "conv2"
  type: "Convolution"
  bottom: "pool1"
  top: "conv2"
  param {
    lr_mult: 1
  }
  param {
    lr_mult: 2
  }
  convolution_param {
    num_output: 50
    kernel_size: 5
    stride: 1
    weight_filler {
      type: "xavier"
    }
    bias_filler {
      type: "constant"
    }
  }
}
layer {
  name: "pool2"
  type: "Pooling"
  bottom: "conv2"
  top: "pool2"
  pooling_param {
    pool: MAX
    kernel_size: 2
    stride: 2
  }
}
layer {
  name: "ip1"
  type: "InnerProduct"
  bottom: "pool2"
  top: "ip1"
  param {
    lr_mult: 1
  }
  param {
    lr_mult: 2
  }
  inner_product_param {
    num_output: 10
    weight_filler {
      type: "xavier"
    }
    bias_filler {
      type: "constant"
    }
  }
}
layer {
  name: "accuracy"
  type: "Accuracy"
  bottom: "ip1"
  bottom: "label"
  top: "accuracy"
  include {
    phase: TEST
  }
}
layer {
  name: "loss"
  type: "SoftmaxWithLoss"
  bottom: "ip1"
  bottom: "label"
  top: "loss"
}
I0424 17:41:52.386852 11566 layer_factory.hpp:77] Creating layer mnist
I0424 17:41:52.387006 11566 net.cpp:106] Creating Layer mnist
I0424 17:41:52.387019 11566 net.cpp:411] mnist -> data
I0424 17:41:52.387035 11566 net.cpp:411] mnist -> label
I0424 17:41:52.388175 11573 db_lmdb.cpp:38] Opened lmdb examples/mnist/mnist_test_lmdb
I0424 17:41:52.388334 11566 data_layer.cpp:41] output data size: 100,1,28,28
I0424 17:41:52.389300 11566 net.cpp:150] Setting up mnist
I0424 17:41:52.389379 11566 net.cpp:157] Top shape: 100 1 28 28 (78400)
I0424 17:41:52.389437 11566 net.cpp:157] Top shape: 100 (100)
I0424 17:41:52.389487 11566 net.cpp:165] Memory required for data: 314000
I0424 17:41:52.389533 11566 layer_factory.hpp:77] Creating layer label_mnist_1_split
I0424 17:41:52.389582 11566 net.cpp:106] Creating Layer label_mnist_1_split
I0424 17:41:52.389631 11566 net.cpp:454] label_mnist_1_split <- label
I0424 17:41:52.389680 11566 net.cpp:411] label_mnist_1_split -> label_mnist_1_split_0
I0424 17:41:52.389730 11566 net.cpp:411] label_mnist_1_split -> label_mnist_1_split_1
I0424 17:41:52.389829 11566 net.cpp:150] Setting up label_mnist_1_split
I0424 17:41:52.389889 11566 net.cpp:157] Top shape: 100 (100)
I0424 17:41:52.389928 11566 net.cpp:157] Top shape: 100 (100)
I0424 17:41:52.389969 11566 net.cpp:165] Memory required for data: 314800
I0424 17:41:52.390010 11566 layer_factory.hpp:77] Creating layer conv1
I0424 17:41:52.390060 11566 net.cpp:106] Creating Layer conv1
I0424 17:41:52.390103 11566 net.cpp:454] conv1 <- data
I0424 17:41:52.390151 11566 net.cpp:411] conv1 -> conv1
I0424 17:41:52.393021 11566 net.cpp:150] Setting up conv1
I0424 17:41:52.393107 11566 net.cpp:157] Top shape: 100 20 24 24 (1152000)
I0424 17:41:52.393164 11566 net.cpp:165] Memory required for data: 4922800
I0424 17:41:52.393231 11566 layer_factory.hpp:77] Creating layer pool1
I0424 17:41:52.393286 11566 net.cpp:106] Creating Layer pool1
I0424 17:41:52.393337 11566 net.cpp:454] pool1 <- conv1
I0424 17:41:52.393390 11566 net.cpp:411] pool1 -> pool1
I0424 17:41:52.394398 11566 net.cpp:150] Setting up pool1
I0424 17:41:52.394471 11566 net.cpp:157] Top shape: 100 20 12 12 (288000)
I0424 17:41:52.394527 11566 net.cpp:165] Memory required for data: 6074800
I0424 17:41:52.394577 11566 layer_factory.hpp:77] Creating layer conv2
I0424 17:41:52.394644 11566 net.cpp:106] Creating Layer conv2
I0424 17:41:52.394702 11566 net.cpp:454] conv2 <- pool1
I0424 17:41:52.394760 11566 net.cpp:411] conv2 -> conv2
I0424 17:41:52.397234 11566 net.cpp:150] Setting up conv2
I0424 17:41:52.397250 11566 net.cpp:157] Top shape: 100 50 8 8 (320000)
I0424 17:41:52.397291 11566 net.cpp:165] Memory required for data: 7354800
I0424 17:41:52.397325 11566 layer_factory.hpp:77] Creating layer pool2
I0424 17:41:52.397356 11566 net.cpp:106] Creating Layer pool2
I0424 17:41:52.397364 11566 net.cpp:454] pool2 <- conv2
I0424 17:41:52.397395 11566 net.cpp:411] pool2 -> pool2
I0424 17:41:52.398018 11566 net.cpp:150] Setting up pool2
I0424 17:41:52.398035 11566 net.cpp:157] Top shape: 100 50 4 4 (80000)
I0424 17:41:52.398041 11566 net.cpp:165] Memory required for data: 7674800
I0424 17:41:52.398078 11566 layer_factory.hpp:77] Creating layer ip1
I0424 17:41:52.398108 11566 net.cpp:106] Creating Layer ip1
I0424 17:41:52.398115 11566 net.cpp:454] ip1 <- pool2
I0424 17:41:52.398149 11566 net.cpp:411] ip1 -> ip1
I0424 17:41:52.398320 11566 net.cpp:150] Setting up ip1
I0424 17:41:52.398334 11566 net.cpp:157] Top shape: 100 10 (1000)
I0424 17:41:52.398376 11566 net.cpp:165] Memory required for data: 7678800
I0424 17:41:52.398411 11566 layer_factory.hpp:77] Creating layer ip1_ip1_0_split
I0424 17:41:52.398432 11566 net.cpp:106] Creating Layer ip1_ip1_0_split
I0424 17:41:52.398473 11566 net.cpp:454] ip1_ip1_0_split <- ip1
I0424 17:41:52.398499 11566 net.cpp:411] ip1_ip1_0_split -> ip1_ip1_0_split_0
I0424 17:41:52.398527 11566 net.cpp:411] ip1_ip1_0_split -> ip1_ip1_0_split_1
I0424 17:41:52.398587 11566 net.cpp:150] Setting up ip1_ip1_0_split
I0424 17:41:52.398600 11566 net.cpp:157] Top shape: 100 10 (1000)
I0424 17:41:52.398641 11566 net.cpp:157] Top shape: 100 10 (1000)
I0424 17:41:52.398649 11566 net.cpp:165] Memory required for data: 7686800
I0424 17:41:52.398677 11566 layer_factory.hpp:77] Creating layer accuracy
I0424 17:41:52.398720 11566 net.cpp:106] Creating Layer accuracy
I0424 17:41:52.398727 11566 net.cpp:454] accuracy <- ip1_ip1_0_split_0
I0424 17:41:52.398757 11566 net.cpp:454] accuracy <- label_mnist_1_split_0
I0424 17:41:52.398768 11566 net.cpp:411] accuracy -> accuracy
…
