…
I0429 11:59:06.908852  3441 net.cpp:322] The NetState phase (0) differed from the phase (1) specified by a rule in layer mnist
I0429 11:59:06.908876  3441 net.cpp:322] The NetState phase (0) differed from the phase (1) specified by a rule in layer accuracy
I0429 11:59:06.908984  3441 net.cpp:49] Initializing net from parameters: 
name: "LeNet"
state {
  phase: TRAIN
}
layer {
  name: "mnist"
  type: "Data"
  top: "data"
  top: "label"
  include {
    phase: TRAIN
  }
  transform_param {
    scale: 0.00390625
  }
  data_param {
    source: "examples/mnist/mnist_train_lmdb"
    batch_size: 64
    backend: LMDB
  }
}
layer {
  name: "conv1"
  type: "Convolution"
  bottom: "data"
  top: "conv1"
  param {
    lr_mult: 1
  }
  param {
    lr_mult: 2
  }
  convolution_param {
    num_output: 20
    kernel_size: 5
    stride: 1
    weight_filler {
      type: "xavier"
    }
    bias_filler {
      type: "constant"
    }
  }
}
layer {
  name: "pool1"
  type: "Pooling"
  bottom: "conv1"
  top: "pool1"
  pooling_param {
    pool: MAX
    kernel_size: 2
    stride: 2
  }
}
layer {
  name: "conv2"
  type: "Convolution"
  bottom: "pool1"
  top: "conv2"
  param {
    lr_mult: 1
  }
  param {
    lr_mult: 2
  }
  convolution_param {
    num_output: 50
    kernel_size: 5
    stride: 1
    weight_filler {
      type: "xavier"
    }
    bias_filler {
      type: "constant"
    }
  }
}
layer {
  name: "pool2"
  type: "Pooling"
  bottom: "conv2"
  top: "pool2"
  pooling_param {
    pool: MAX
    kernel_size: 2
    stride: 2
  }
}
layer {
  name: "ip1"
  type: "InnerProduct"
  bottom: "pool2"
  top: "ip1"
  param {
    lr_mult: 1
  }
  param {
    lr_mult: 2
  }
  inner_product_param {
    num_output: 10
    weight_filler {
      type: "xavier"
    }
    bias_filler {
      type: "constant"
    }
  }
}
layer {
  name: "relu1"
  type: "ReLU"
  bottom: "ip1"
  top: "ip1"
}
layer {
  name: "ip2"
  type: "InnerProduct"
  bottom: "ip1"
  top: "ip2"
  param {
    lr_mult: 1
  }
  param {
    lr_mult: 2
  }
  inner_product_param {
    num_output: 10
    weight_filler {
      type: "xavier"
    }
    bias_filler {
      type: "constant"
    }
  }
}
layer {
  name: "loss"
  type: "SoftmaxWithLoss"
  bottom: "ip2"
  bottom: "label"
  top: "loss"
}
I0429 11:59:06.909083  3441 layer_factory.hpp:77] Creating layer mnist
I0429 11:59:06.909772  3441 net.cpp:106] Creating Layer mnist
I0429 11:59:06.909819  3441 net.cpp:411] mnist -> data
I0429 11:59:06.909864  3441 net.cpp:411] mnist -> label
I0429 11:59:06.911183  3447 db_lmdb.cpp:38] Opened lmdb examples/mnist/mnist_train_lmdb
I0429 11:59:06.919975  3441 data_layer.cpp:41] output data size: 64,1,28,28
I0429 11:59:06.920984  3441 net.cpp:150] Setting up mnist
I0429 11:59:06.921018  3441 net.cpp:157] Top shape: 64 1 28 28 (50176)
I0429 11:59:06.921030  3441 net.cpp:157] Top shape: 64 (64)
I0429 11:59:06.921037  3441 net.cpp:165] Memory required for data: 200960
I0429 11:59:06.921051  3441 layer_factory.hpp:77] Creating layer conv1
I0429 11:59:06.921069  3441 net.cpp:106] Creating Layer conv1
I0429 11:59:06.921077  3441 net.cpp:454] conv1 <- data
I0429 11:59:06.921093  3441 net.cpp:411] conv1 -> conv1
I0429 11:59:07.054491  3441 net.cpp:150] Setting up conv1
I0429 11:59:07.054522  3441 net.cpp:157] Top shape: 64 20 24 24 (737280)
I0429 11:59:07.054527  3441 net.cpp:165] Memory required for data: 3150080
I0429 11:59:07.054545  3441 layer_factory.hpp:77] Creating layer pool1
I0429 11:59:07.054559  3441 net.cpp:106] Creating Layer pool1
I0429 11:59:07.054563  3441 net.cpp:454] pool1 <- conv1
I0429 11:59:07.054569  3441 net.cpp:411] pool1 -> pool1
I0429 11:59:07.055150  3441 net.cpp:150] Setting up pool1
I0429 11:59:07.055181  3441 net.cpp:157] Top shape: 64 20 12 12 (184320)
I0429 11:59:07.055186  3441 net.cpp:165] Memory required for data: 3887360
I0429 11:59:07.055188  3441 layer_factory.hpp:77] Creating layer conv2
I0429 11:59:07.055198  3441 net.cpp:106] Creating Layer conv2
I0429 11:59:07.055202  3441 net.cpp:454] conv2 <- pool1
I0429 11:59:07.055209  3441 net.cpp:411] conv2 -> conv2
I0429 11:59:07.057266  3441 net.cpp:150] Setting up conv2
I0429 11:59:07.057282  3441 net.cpp:157] Top shape: 64 50 8 8 (204800)
I0429 11:59:07.057286  3441 net.cpp:165] Memory required for data: 4706560
I0429 11:59:07.057294  3441 layer_factory.hpp:77] Creating layer pool2
I0429 11:59:07.057302  3441 net.cpp:106] Creating Layer pool2
I0429 11:59:07.057306  3441 net.cpp:454] pool2 <- conv2
I0429 11:59:07.057310  3441 net.cpp:411] pool2 -> pool2
I0429 11:59:07.057884  3441 net.cpp:150] Setting up pool2
I0429 11:59:07.057898  3441 net.cpp:157] Top shape: 64 50 4 4 (51200)
I0429 11:59:07.057901  3441 net.cpp:165] Memory required for data: 4911360
I0429 11:59:07.057905  3441 layer_factory.hpp:77] Creating layer ip1
I0429 11:59:07.057914  3441 net.cpp:106] Creating Layer ip1
I0429 11:59:07.057916  3441 net.cpp:454] ip1 <- pool2
I0429 11:59:07.057921  3441 net.cpp:411] ip1 -> ip1
I0429 11:59:07.058459  3441 net.cpp:150] Setting up ip1
I0429 11:59:07.058473  3441 net.cpp:157] Top shape: 64 10 (640)
I0429 11:59:07.058476  3441 net.cpp:165] Memory required for data: 4913920
I0429 11:59:07.058485  3441 layer_factory.hpp:77] Creating layer relu1
I0429 11:59:07.058492  3441 net.cpp:106] Creating Layer relu1
I0429 11:59:07.058495  3441 net.cpp:454] relu1 <- ip1
I0429 11:59:07.058501  3441 net.cpp:397] relu1 -> ip1 (in-place)
I0429 11:59:07.059074  3441 net.cpp:150] Setting up relu1
I0429 11:59:07.059088  3441 net.cpp:157] Top shape: 64 10 (640)
I0429 11:59:07.059092  3441 net.cpp:165] Memory required for data: 4916480
I0429 11:59:07.059094  3441 layer_factory.hpp:77] Creating layer ip2
I0429 11:59:07.059101  3441 net.cpp:106] Creating Layer ip2
I0429 11:59:07.059104  3441 net.cpp:454] ip2 <- ip1
I0429 11:59:07.059111  3441 net.cpp:411] ip2 -> ip2
I0429 11:59:07.059201  3441 net.cpp:150] Setting up ip2
I0429 11:59:07.059208  3441 net.cpp:157] Top shape: 64 10 (640)
I0429 11:59:07.059211  3441 net.cpp:165] Memory required for data: 4919040
I0429 11:59:07.059217  3441 layer_factory.hpp:77] Creating layer loss
I0429 11:59:07.059224  3441 net.cpp:106] Creating Layer loss
I0429 11:59:07.059228  3441 net.cpp:454] loss <- ip2
I0429 11:59:07.059232  3441 net.cpp:454] loss <- label
I0429 11:59:07.059240  3441 net.cpp:411] loss -> loss
I0429 11:59:07.059258  3441 layer_factory.hpp:77] Creating layer loss
…
I0429 11:59:07.060309  3441 solver.cpp:181] Creating test net (#0) specified by net file: examples/mnist/test/lenet_train_test.prototxt
I0429 11:59:07.060338  3441 net.cpp:322] The NetState phase (1) differed from the phase (0) specified by a rule in layer mnist
I0429 11:59:07.060420  3441 net.cpp:49] Initializing net from parameters: 
name: "LeNet"
state {
  phase: TEST
}
layer {
  name: "mnist"
  type: "Data"
  top: "data"
  top: "label"
  include {
    phase: TEST
  }
  transform_param {
    scale: 0.00390625
  }
  data_param {
    source: "examples/mnist/mnist_test_lmdb"
    batch_size: 100
    backend: LMDB
  }
}
layer {
  name: "conv1"
  type: "Convolution"
  bottom: "data"
  top: "conv1"
  param {
    lr_mult: 1
  }
  param {
    lr_mult: 2
  }
  convolution_param {
    num_output: 20
    kernel_size: 5
    stride: 1
    weight_filler {
      type: "xavier"
    }
    bias_filler {
      type: "constant"
    }
  }
}
layer {
  name: "pool1"
  type: "Pooling"
  bottom: "conv1"
  top: "pool1"
  pooling_param {
    pool: MAX
    kernel_size: 2
    stride: 2
  }
}
layer {
  name: "conv2"
  type: "Convolution"
  bottom: "pool1"
  top: "conv2"
  param {
    lr_mult: 1
  }
  param {
    lr_mult: 2
  }
  convolution_param {
    num_output: 50
    kernel_size: 5
    stride: 1
    weight_filler {
      type: "xavier"
    }
    bias_filler {
      type: "constant"
    }
  }
}
layer {
  name: "pool2"
  type: "Pooling"
  bottom: "conv2"
  top: "pool2"
  pooling_param {
    pool: MAX
    kernel_size: 2
    stride: 2
  }
}
layer {
  name: "ip1"
  type: "InnerProduct"
  bottom: "pool2"
  top: "ip1"
  param {
    lr_mult: 1
  }
  param {
    lr_mult: 2
  }
  inner_product_param {
    num_output: 10
    weight_filler {
      type: "xavier"
    }
    bias_filler {
      type: "constant"
    }
  }
}
layer {
  name: "relu1"
  type: "ReLU"
  bottom: "ip1"
  top: "ip1"
}
layer {
  name: "ip2"
  type: "InnerProduct"
  bottom: "ip1"
  top: "ip2"
  param {
    lr_mult: 1
  }
  param {
    lr_mult: 2
  }
  inner_product_param {
    num_output: 10
    weight_filler {
      type: "xavier"
    }
    bias_filler {
      type: "constant"
    }
  }
}
layer {
  name: "accuracy"
  type: "Accuracy"
  bottom: "ip2"
  bottom: "label"
  top: "accuracy"
  include {
    phase: TEST
  }
}
layer {
  name: "loss"
  type: "SoftmaxWithLoss"
  bottom: "ip2"
  bottom: "label"
  top: "loss"
}
I0429 11:59:07.060500  3441 layer_factory.hpp:77] Creating layer mnist
I0429 11:59:07.060598  3441 net.cpp:106] Creating Layer mnist
I0429 11:59:07.060606  3441 net.cpp:411] mnist -> data
I0429 11:59:07.060616  3441 net.cpp:411] mnist -> label
I0429 11:59:07.062263  3449 db_lmdb.cpp:38] Opened lmdb examples/mnist/mnist_test_lmdb
I0429 11:59:07.062394  3441 data_layer.cpp:41] output data size: 100,1,28,28
I0429 11:59:07.063263  3441 net.cpp:150] Setting up mnist
I0429 11:59:07.063277  3441 net.cpp:157] Top shape: 100 1 28 28 (78400)
I0429 11:59:07.063282  3441 net.cpp:157] Top shape: 100 (100)
I0429 11:59:07.063284  3441 net.cpp:165] Memory required for data: 314000
I0429 11:59:07.063288  3441 layer_factory.hpp:77] Creating layer label_mnist_1_split
I0429 11:59:07.063294  3441 net.cpp:106] Creating Layer label_mnist_1_split
I0429 11:59:07.063298  3441 net.cpp:454] label_mnist_1_split <- label
I0429 11:59:07.063302  3441 net.cpp:411] label_mnist_1_split -> label_mnist_1_split_0
I0429 11:59:07.063309  3441 net.cpp:411] label_mnist_1_split -> label_mnist_1_split_1
I0429 11:59:07.063374  3441 net.cpp:150] Setting up label_mnist_1_split
I0429 11:59:07.063382  3441 net.cpp:157] Top shape: 100 (100)
I0429 11:59:07.063385  3441 net.cpp:157] Top shape: 100 (100)
I0429 11:59:07.063388  3441 net.cpp:165] Memory required for data: 314800
I0429 11:59:07.063391  3441 layer_factory.hpp:77] Creating layer conv1
I0429 11:59:07.063434  3441 net.cpp:106] Creating Layer conv1
I0429 11:59:07.063441  3441 net.cpp:454] conv1 <- data
I0429 11:59:07.063448  3441 net.cpp:411] conv1 -> conv1
I0429 11:59:07.066023  3441 net.cpp:150] Setting up conv1
I0429 11:59:07.066048  3441 net.cpp:157] Top shape: 100 20 24 24 (1152000)
I0429 11:59:07.066056  3441 net.cpp:165] Memory required for data: 4922800
I0429 11:59:07.066068  3441 layer_factory.hpp:77] Creating layer pool1
I0429 11:59:07.066076  3441 net.cpp:106] Creating Layer pool1
I0429 11:59:07.066079  3441 net.cpp:454] pool1 <- conv1
I0429 11:59:07.066095  3441 net.cpp:411] pool1 -> pool1
I0429 11:59:07.066735  3441 net.cpp:150] Setting up pool1
I0429 11:59:07.066750  3441 net.cpp:157] Top shape: 100 20 12 12 (288000)
I0429 11:59:07.066753  3441 net.cpp:165] Memory required for data: 6074800
I0429 11:59:07.066757  3441 layer_factory.hpp:77] Creating layer conv2
I0429 11:59:07.066771  3441 net.cpp:106] Creating Layer conv2
I0429 11:59:07.066774  3441 net.cpp:454] conv2 <- pool1
I0429 11:59:07.066781  3441 net.cpp:411] conv2 -> conv2
I0429 11:59:07.069110  3441 net.cpp:150] Setting up conv2
I0429 11:59:07.069126  3441 net.cpp:157] Top shape: 100 50 8 8 (320000)
I0429 11:59:07.069129  3441 net.cpp:165] Memory required for data: 7354800
I0429 11:59:07.069139  3441 layer_factory.hpp:77] Creating layer pool2
I0429 11:59:07.069145  3441 net.cpp:106] Creating Layer pool2
I0429 11:59:07.069154  3441 net.cpp:454] pool2 <- conv2
I0429 11:59:07.069159  3441 net.cpp:411] pool2 -> pool2
I0429 11:59:07.069938  3441 net.cpp:150] Setting up pool2
I0429 11:59:07.069959  3441 net.cpp:157] Top shape: 100 50 4 4 (80000)
I0429 11:59:07.069963  3441 net.cpp:165] Memory required for data: 7674800
I0429 11:59:07.069967  3441 layer_factory.hpp:77] Creating layer ip1
I0429 11:59:07.069972  3441 net.cpp:106] Creating Layer ip1
I0429 11:59:07.069977  3441 net.cpp:454] ip1 <- pool2
I0429 11:59:07.069983  3441 net.cpp:411] ip1 -> ip1
I0429 11:59:07.070137  3441 net.cpp:150] Setting up ip1
I0429 11:59:07.070150  3441 net.cpp:157] Top shape: 100 10 (1000)
I0429 11:59:07.070153  3441 net.cpp:165] Memory required for data: 7678800
I0429 11:59:07.070161  3441 layer_factory.hpp:77] Creating layer relu1
I0429 11:59:07.070168  3441 net.cpp:106] Creating Layer relu1
I0429 11:59:07.070181  3441 net.cpp:454] relu1 <- ip1
I0429 11:59:07.070188  3441 net.cpp:397] relu1 -> ip1 (in-place)
I0429 11:59:07.070801  3441 net.cpp:150] Setting up relu1
I0429 11:59:07.070814  3441 net.cpp:157] Top shape: 100 10 (1000)
I0429 11:59:07.070818  3441 net.cpp:165] Memory required for data: 7682800
I0429 11:59:07.070828  3441 layer_factory.hpp:77] Creating layer ip2
I0429 11:59:07.070843  3441 net.cpp:106] Creating Layer ip2
I0429 11:59:07.070852  3441 net.cpp:454] ip2 <- ip1
I0429 11:59:07.070864  3441 net.cpp:411] ip2 -> ip2
I0429 11:59:07.070971  3441 net.cpp:150] Setting up ip2
I0429 11:59:07.070979  3441 net.cpp:157] Top shape: 100 10 (1000)
I0429 11:59:07.070986  3441 net.cpp:165] Memory required for data: 7686800
I0429 11:59:07.070992  3441 layer_factory.hpp:77] Creating layer ip2_ip2_0_split
I0429 11:59:07.071004  3441 net.cpp:106] Creating Layer ip2_ip2_0_split
I0429 11:59:07.071007  3441 net.cpp:454] ip2_ip2_0_split <- ip2
I0429 11:59:07.071012  3441 net.cpp:411] ip2_ip2_0_split -> ip2_ip2_0_split_0
I0429 11:59:07.071017  3441 net.cpp:411] ip2_ip2_0_split -> ip2_ip2_0_split_1
I0429 11:59:07.071053  3441 net.cpp:150] Setting up ip2_ip2_0_split
I0429 11:59:07.071063  3441 net.cpp:157] Top shape: 100 10 (1000)
I0429 11:59:07.071065  3441 net.cpp:157] Top shape: 100 10 (1000)
I0429 11:59:07.071069  3441 net.cpp:165] Memory required for data: 7694800
I0429 11:59:07.071071  3441 layer_factory.hpp:77] Creating layer accuracy
I0429 11:59:07.071079  3441 net.cpp:106] Creating Layer accuracy
I0429 11:59:07.071081  3441 net.cpp:454] accuracy <- ip2_ip2_0_split_0
I0429 11:59:07.071085  3441 net.cpp:454] accuracy <- label_mnist_1_split_0
I0429 11:59:07.071090  3441 net.cpp:411] accuracy -> accuracy
…
