…
I0429 12:03:22.278072  3523 net.cpp:322] The NetState phase (0) differed from the phase (1) specified by a rule in layer mnist
I0429 12:03:22.278092  3523 net.cpp:322] The NetState phase (0) differed from the phase (1) specified by a rule in layer accuracy
I0429 12:03:22.278173  3523 net.cpp:49] Initializing net from parameters: 
name: "LeNet"
state {
  phase: TRAIN
}
layer {
  name: "mnist"
  type: "Data"
  top: "data"
  top: "label"
  include {
    phase: TRAIN
  }
  transform_param {
    scale: 0.00390625
  }
  data_param {
    source: "examples/mnist/mnist_train_lmdb"
    batch_size: 64
    backend: LMDB
  }
}
layer {
  name: "conv1"
  type: "Convolution"
  bottom: "data"
  top: "conv1"
  param {
    lr_mult: 1
  }
  param {
    lr_mult: 2
  }
  convolution_param {
    num_output: 20
    kernel_size: 5
    stride: 1
    weight_filler {
      type: "xavier"
    }
    bias_filler {
      type: "constant"
    }
  }
}
layer {
  name: "pool1"
  type: "Pooling"
  bottom: "conv1"
  top: "pool1"
  pooling_param {
    pool: MAX
    kernel_size: 2
    stride: 2
  }
}
layer {
  name: "conv2"
  type: "Convolution"
  bottom: "pool1"
  top: "conv2"
  param {
    lr_mult: 1
  }
  param {
    lr_mult: 2
  }
  convolution_param {
    num_output: 50
    kernel_size: 5
    stride: 1
    weight_filler {
      type: "xavier"
    }
    bias_filler {
      type: "constant"
    }
  }
}
layer {
  name: "pool2"
  type: "Pooling"
  bottom: "conv2"
  top: "pool2"
  pooling_param {
    pool: MAX
    kernel_size: 2
    stride: 2
  }
}
layer {
  name: "ip1"
  type: "InnerProduct"
  bottom: "pool2"
  top: "ip1"
  param {
    lr_mult: 1
  }
  param {
    lr_mult: 2
  }
  inner_product_param {
    num_output: 10
    weight_filler {
      type: "xavier"
    }
    bias_filler {
      type: "constant"
    }
  }
}
layer {
  name: "relu1"
  type: "ReLU"
  bottom: "ip1"
  top: "ip1"
}
layer {
  name: "ip2"
  type: "InnerProduct"
  bottom: "ip1"
  top: "ip2"
  param {
    lr_mult: 1
  }
  param {
    lr_mult: 2
  }
  inner_product_param {
    num_output: 500
    weight_filler {
      type: "xavier"
    }
    bias_filler {
      type: "constant"
    }
  }
}
layer {
  name: "relu2"
  type: "ReLU"
  bottom: "ip2"
  top: "ip2"
}
layer {
  name: "ip3"
  type: "InnerProduct"
  bottom: "ip2"
  top: "ip3"
  param {
    lr_mult: 1
  }
  param {
    lr_mult: 2
  }
  inner_product_param {
    num_output: 10
    weight_filler {
      type: "xavier"
    }
    bias_filler {
      type: "constant"
    }
  }
}
layer {
  name: "loss"
  type: "SoftmaxWithLoss"
  bottom: "ip3"
  bottom: "label"
  top: "loss"
}
I0429 12:03:22.278256  3523 layer_factory.hpp:77] Creating layer mnist
I0429 12:03:22.278776  3523 net.cpp:106] Creating Layer mnist
I0429 12:03:22.278798  3523 net.cpp:411] mnist -> data
I0429 12:03:22.278828  3523 net.cpp:411] mnist -> label
I0429 12:03:22.280385  3528 db_lmdb.cpp:38] Opened lmdb examples/mnist/mnist_train_lmdb
I0429 12:03:22.286779  3523 data_layer.cpp:41] output data size: 64,1,28,28
I0429 12:03:22.287739  3523 net.cpp:150] Setting up mnist
I0429 12:03:22.287763  3523 net.cpp:157] Top shape: 64 1 28 28 (50176)
I0429 12:03:22.287768  3523 net.cpp:157] Top shape: 64 (64)
I0429 12:03:22.287771  3523 net.cpp:165] Memory required for data: 200960
I0429 12:03:22.287781  3523 layer_factory.hpp:77] Creating layer conv1
I0429 12:03:22.287799  3523 net.cpp:106] Creating Layer conv1
I0429 12:03:22.287806  3523 net.cpp:454] conv1 <- data
I0429 12:03:22.287818  3523 net.cpp:411] conv1 -> conv1
I0429 12:03:22.405658  3523 net.cpp:150] Setting up conv1
I0429 12:03:22.405686  3523 net.cpp:157] Top shape: 64 20 24 24 (737280)
I0429 12:03:22.405691  3523 net.cpp:165] Memory required for data: 3150080
I0429 12:03:22.405732  3523 layer_factory.hpp:77] Creating layer pool1
I0429 12:03:22.405747  3523 net.cpp:106] Creating Layer pool1
I0429 12:03:22.405752  3523 net.cpp:454] pool1 <- conv1
I0429 12:03:22.405758  3523 net.cpp:411] pool1 -> pool1
I0429 12:03:22.407060  3523 net.cpp:150] Setting up pool1
I0429 12:03:22.407099  3523 net.cpp:157] Top shape: 64 20 12 12 (184320)
I0429 12:03:22.407114  3523 net.cpp:165] Memory required for data: 3887360
I0429 12:03:22.407124  3523 layer_factory.hpp:77] Creating layer conv2
I0429 12:03:22.407147  3523 net.cpp:106] Creating Layer conv2
I0429 12:03:22.407157  3523 net.cpp:454] conv2 <- pool1
I0429 12:03:22.407172  3523 net.cpp:411] conv2 -> conv2
I0429 12:03:22.412677  3523 net.cpp:150] Setting up conv2
I0429 12:03:22.412714  3523 net.cpp:157] Top shape: 64 50 8 8 (204800)
I0429 12:03:22.412724  3523 net.cpp:165] Memory required for data: 4706560
I0429 12:03:22.412750  3523 layer_factory.hpp:77] Creating layer pool2
I0429 12:03:22.412770  3523 net.cpp:106] Creating Layer pool2
I0429 12:03:22.412782  3523 net.cpp:454] pool2 <- conv2
I0429 12:03:22.412796  3523 net.cpp:411] pool2 -> pool2
I0429 12:03:22.414381  3523 net.cpp:150] Setting up pool2
I0429 12:03:22.414413  3523 net.cpp:157] Top shape: 64 50 4 4 (51200)
I0429 12:03:22.414423  3523 net.cpp:165] Memory required for data: 4911360
I0429 12:03:22.414433  3523 layer_factory.hpp:77] Creating layer ip1
I0429 12:03:22.414448  3523 net.cpp:106] Creating Layer ip1
I0429 12:03:22.414458  3523 net.cpp:454] ip1 <- pool2
I0429 12:03:22.414474  3523 net.cpp:411] ip1 -> ip1
I0429 12:03:22.415644  3523 net.cpp:150] Setting up ip1
I0429 12:03:22.415674  3523 net.cpp:157] Top shape: 64 10 (640)
I0429 12:03:22.415683  3523 net.cpp:165] Memory required for data: 4913920
I0429 12:03:22.415704  3523 layer_factory.hpp:77] Creating layer relu1
I0429 12:03:22.415721  3523 net.cpp:106] Creating Layer relu1
I0429 12:03:22.415751  3523 net.cpp:454] relu1 <- ip1
I0429 12:03:22.415772  3523 net.cpp:397] relu1 -> ip1 (in-place)
I0429 12:03:22.417240  3523 net.cpp:150] Setting up relu1
I0429 12:03:22.417273  3523 net.cpp:157] Top shape: 64 10 (640)
I0429 12:03:22.417281  3523 net.cpp:165] Memory required for data: 4916480
I0429 12:03:22.417290  3523 layer_factory.hpp:77] Creating layer ip2
I0429 12:03:22.417314  3523 net.cpp:106] Creating Layer ip2
I0429 12:03:22.417323  3523 net.cpp:454] ip2 <- ip1
I0429 12:03:22.417337  3523 net.cpp:411] ip2 -> ip2
I0429 12:03:22.417670  3523 net.cpp:150] Setting up ip2
I0429 12:03:22.417690  3523 net.cpp:157] Top shape: 64 500 (32000)
I0429 12:03:22.417697  3523 net.cpp:165] Memory required for data: 5044480
I0429 12:03:22.417711  3523 layer_factory.hpp:77] Creating layer relu2
I0429 12:03:22.417732  3523 net.cpp:106] Creating Layer relu2
I0429 12:03:22.417740  3523 net.cpp:454] relu2 <- ip2
I0429 12:03:22.417757  3523 net.cpp:397] relu2 -> ip2 (in-place)
I0429 12:03:22.419185  3523 net.cpp:150] Setting up relu2
I0429 12:03:22.419220  3523 net.cpp:157] Top shape: 64 500 (32000)
I0429 12:03:22.419230  3523 net.cpp:165] Memory required for data: 5172480
I0429 12:03:22.419239  3523 layer_factory.hpp:77] Creating layer ip3
I0429 12:03:22.419257  3523 net.cpp:106] Creating Layer ip3
I0429 12:03:22.419266  3523 net.cpp:454] ip3 <- ip2
I0429 12:03:22.419286  3523 net.cpp:411] ip3 -> ip3
I0429 12:03:22.419608  3523 net.cpp:150] Setting up ip3
I0429 12:03:22.419627  3523 net.cpp:157] Top shape: 64 10 (640)
I0429 12:03:22.419636  3523 net.cpp:165] Memory required for data: 5175040
I0429 12:03:22.419654  3523 layer_factory.hpp:77] Creating layer loss
I0429 12:03:22.419680  3523 net.cpp:106] Creating Layer loss
I0429 12:03:22.419692  3523 net.cpp:454] loss <- ip3
I0429 12:03:22.419706  3523 net.cpp:454] loss <- label
I0429 12:03:22.419723  3523 net.cpp:411] loss -> loss
I0429 12:03:22.419749  3523 layer_factory.hpp:77] Creating layer loss
…
I0429 12:03:22.422473  3523 solver.cpp:181] Creating test net (#0) specified by net file: examples/mnist/test/lenet_train_test.prototxt
I0429 12:03:22.422536  3523 net.cpp:322] The NetState phase (1) differed from the phase (0) specified by a rule in layer mnist
I0429 12:03:22.422751  3523 net.cpp:49] Initializing net from parameters: 
name: "LeNet"
state {
  phase: TEST
}
layer {
  name: "mnist"
  type: "Data"
  top: "data"
  top: "label"
  include {
    phase: TEST
  }
  transform_param {
    scale: 0.00390625
  }
  data_param {
    source: "examples/mnist/mnist_test_lmdb"
    batch_size: 100
    backend: LMDB
  }
}
layer {
  name: "conv1"
  type: "Convolution"
  bottom: "data"
  top: "conv1"
  param {
    lr_mult: 1
  }
  param {
    lr_mult: 2
  }
  convolution_param {
    num_output: 20
    kernel_size: 5
    stride: 1
    weight_filler {
      type: "xavier"
    }
    bias_filler {
      type: "constant"
    }
  }
}
layer {
  name: "pool1"
  type: "Pooling"
  bottom: "conv1"
  top: "pool1"
  pooling_param {
    pool: MAX
    kernel_size: 2
    stride: 2
  }
}
layer {
  name: "conv2"
  type: "Convolution"
  bottom: "pool1"
  top: "conv2"
  param {
    lr_mult: 1
  }
  param {
    lr_mult: 2
  }
  convolution_param {
    num_output: 50
    kernel_size: 5
    stride: 1
    weight_filler {
      type: "xavier"
    }
    bias_filler {
      type: "constant"
    }
  }
}
layer {
  name: "pool2"
  type: "Pooling"
  bottom: "conv2"
  top: "pool2"
  pooling_param {
    pool: MAX
    kernel_size: 2
    stride: 2
  }
}
layer {
  name: "ip1"
  type: "InnerProduct"
  bottom: "pool2"
  top: "ip1"
  param {
    lr_mult: 1
  }
  param {
    lr_mult: 2
  }
  inner_product_param {
    num_output: 10
    weight_filler {
      type: "xavier"
    }
    bias_filler {
      type: "constant"
    }
  }
}
layer {
  name: "relu1"
  type: "ReLU"
  bottom: "ip1"
  top: "ip1"
}
layer {
  name: "ip2"
  type: "InnerProduct"
  bottom: "ip1"
  top: "ip2"
  param {
    lr_mult: 1
  }
  param {
    lr_mult: 2
  }
  inner_product_param {
    num_output: 500
    weight_filler {
      type: "xavier"
    }
    bias_filler {
      type: "constant"
    }
  }
}
layer {
  name: "relu2"
  type: "ReLU"
  bottom: "ip2"
  top: "ip2"
}
layer {
  name: "ip3"
  type: "InnerProduct"
  bottom: "ip2"
  top: "ip3"
  param {
    lr_mult: 1
  }
  param {
    lr_mult: 2
  }
  inner_product_param {
    num_output: 10
    weight_filler {
      type: "xavier"
    }
    bias_filler {
      type: "constant"
    }
  }
}
layer {
  name: "accuracy"
  type: "Accuracy"
  bottom: "ip3"
  bottom: "label"
  top: "accuracy"
  include {
    phase: TEST
  }
}
layer {
  name: "loss"
  type: "SoftmaxWithLoss"
  bottom: "ip3"
  bottom: "label"
  top: "loss"
}
I0429 12:03:22.422919  3523 layer_factory.hpp:77] Creating layer mnist
I0429 12:03:22.423153  3523 net.cpp:106] Creating Layer mnist
I0429 12:03:22.423174  3523 net.cpp:411] mnist -> data
I0429 12:03:22.423195  3523 net.cpp:411] mnist -> label
I0429 12:03:22.423954  3530 db_lmdb.cpp:38] Opened lmdb examples/mnist/mnist_test_lmdb
I0429 12:03:22.424209  3523 data_layer.cpp:41] output data size: 100,1,28,28
I0429 12:03:22.425904  3523 net.cpp:150] Setting up mnist
I0429 12:03:22.425935  3523 net.cpp:157] Top shape: 100 1 28 28 (78400)
I0429 12:03:22.425950  3523 net.cpp:157] Top shape: 100 (100)
I0429 12:03:22.425958  3523 net.cpp:165] Memory required for data: 314000
I0429 12:03:22.425971  3523 layer_factory.hpp:77] Creating layer label_mnist_1_split
I0429 12:03:22.425986  3523 net.cpp:106] Creating Layer label_mnist_1_split
I0429 12:03:22.425993  3523 net.cpp:454] label_mnist_1_split <- label
I0429 12:03:22.426005  3523 net.cpp:411] label_mnist_1_split -> label_mnist_1_split_0
I0429 12:03:22.426022  3523 net.cpp:411] label_mnist_1_split -> label_mnist_1_split_1
I0429 12:03:22.426115  3523 net.cpp:150] Setting up label_mnist_1_split
I0429 12:03:22.426131  3523 net.cpp:157] Top shape: 100 (100)
I0429 12:03:22.426141  3523 net.cpp:157] Top shape: 100 (100)
I0429 12:03:22.426146  3523 net.cpp:165] Memory required for data: 314800
I0429 12:03:22.426158  3523 layer_factory.hpp:77] Creating layer conv1
I0429 12:03:22.426177  3523 net.cpp:106] Creating Layer conv1
I0429 12:03:22.426188  3523 net.cpp:454] conv1 <- data
I0429 12:03:22.426204  3523 net.cpp:411] conv1 -> conv1
I0429 12:03:22.431421  3523 net.cpp:150] Setting up conv1
I0429 12:03:22.431457  3523 net.cpp:157] Top shape: 100 20 24 24 (1152000)
I0429 12:03:22.431469  3523 net.cpp:165] Memory required for data: 4922800
I0429 12:03:22.431499  3523 layer_factory.hpp:77] Creating layer pool1
I0429 12:03:22.431521  3523 net.cpp:106] Creating Layer pool1
I0429 12:03:22.431531  3523 net.cpp:454] pool1 <- conv1
I0429 12:03:22.431553  3523 net.cpp:411] pool1 -> pool1
I0429 12:03:22.433099  3523 net.cpp:150] Setting up pool1
I0429 12:03:22.433130  3523 net.cpp:157] Top shape: 100 20 12 12 (288000)
I0429 12:03:22.433137  3523 net.cpp:165] Memory required for data: 6074800
I0429 12:03:22.433145  3523 layer_factory.hpp:77] Creating layer conv2
I0429 12:03:22.433167  3523 net.cpp:106] Creating Layer conv2
I0429 12:03:22.433178  3523 net.cpp:454] conv2 <- pool1
I0429 12:03:22.433194  3523 net.cpp:411] conv2 -> conv2
I0429 12:03:22.438012  3523 net.cpp:150] Setting up conv2
I0429 12:03:22.438042  3523 net.cpp:157] Top shape: 100 50 8 8 (320000)
I0429 12:03:22.438053  3523 net.cpp:165] Memory required for data: 7354800
I0429 12:03:22.438073  3523 layer_factory.hpp:77] Creating layer pool2
I0429 12:03:22.438087  3523 net.cpp:106] Creating Layer pool2
I0429 12:03:22.438096  3523 net.cpp:454] pool2 <- conv2
I0429 12:03:22.438107  3523 net.cpp:411] pool2 -> pool2
I0429 12:03:22.439496  3523 net.cpp:150] Setting up pool2
I0429 12:03:22.439525  3523 net.cpp:157] Top shape: 100 50 4 4 (80000)
I0429 12:03:22.439532  3523 net.cpp:165] Memory required for data: 7674800
I0429 12:03:22.439540  3523 layer_factory.hpp:77] Creating layer ip1
I0429 12:03:22.439555  3523 net.cpp:106] Creating Layer ip1
I0429 12:03:22.439563  3523 net.cpp:454] ip1 <- pool2
I0429 12:03:22.439579  3523 net.cpp:411] ip1 -> ip1
I0429 12:03:22.439908  3523 net.cpp:150] Setting up ip1
I0429 12:03:22.439924  3523 net.cpp:157] Top shape: 100 10 (1000)
I0429 12:03:22.439931  3523 net.cpp:165] Memory required for data: 7678800
I0429 12:03:22.439949  3523 layer_factory.hpp:77] Creating layer relu1
I0429 12:03:22.439963  3523 net.cpp:106] Creating Layer relu1
I0429 12:03:22.439971  3523 net.cpp:454] relu1 <- ip1
I0429 12:03:22.439981  3523 net.cpp:397] relu1 -> ip1 (in-place)
I0429 12:03:22.441301  3523 net.cpp:150] Setting up relu1
I0429 12:03:22.441332  3523 net.cpp:157] Top shape: 100 10 (1000)
I0429 12:03:22.441340  3523 net.cpp:165] Memory required for data: 7682800
I0429 12:03:22.441349  3523 layer_factory.hpp:77] Creating layer ip2
I0429 12:03:22.441365  3523 net.cpp:106] Creating Layer ip2
I0429 12:03:22.441372  3523 net.cpp:454] ip2 <- ip1
I0429 12:03:22.441391  3523 net.cpp:411] ip2 -> ip2
I0429 12:03:22.441690  3523 net.cpp:150] Setting up ip2
I0429 12:03:22.441707  3523 net.cpp:157] Top shape: 100 500 (50000)
I0429 12:03:22.441736  3523 net.cpp:165] Memory required for data: 7882800
I0429 12:03:22.441752  3523 layer_factory.hpp:77] Creating layer relu2
I0429 12:03:22.441764  3523 net.cpp:106] Creating Layer relu2
I0429 12:03:22.441771  3523 net.cpp:454] relu2 <- ip2
I0429 12:03:22.441782  3523 net.cpp:397] relu2 -> ip2 (in-place)
I0429 12:03:22.443100  3523 net.cpp:150] Setting up relu2
I0429 12:03:22.443128  3523 net.cpp:157] Top shape: 100 500 (50000)
I0429 12:03:22.443136  3523 net.cpp:165] Memory required for data: 8082800
I0429 12:03:22.443145  3523 layer_factory.hpp:77] Creating layer ip3
I0429 12:03:22.443161  3523 net.cpp:106] Creating Layer ip3
I0429 12:03:22.443168  3523 net.cpp:454] ip3 <- ip2
I0429 12:03:22.443181  3523 net.cpp:411] ip3 -> ip3
I0429 12:03:22.443476  3523 net.cpp:150] Setting up ip3
I0429 12:03:22.443493  3523 net.cpp:157] Top shape: 100 10 (1000)
I0429 12:03:22.443500  3523 net.cpp:165] Memory required for data: 8086800
I0429 12:03:22.443518  3523 layer_factory.hpp:77] Creating layer ip3_ip3_0_split
I0429 12:03:22.443534  3523 net.cpp:106] Creating Layer ip3_ip3_0_split
I0429 12:03:22.443542  3523 net.cpp:454] ip3_ip3_0_split <- ip3
I0429 12:03:22.443552  3523 net.cpp:411] ip3_ip3_0_split -> ip3_ip3_0_split_0
I0429 12:03:22.443564  3523 net.cpp:411] ip3_ip3_0_split -> ip3_ip3_0_split_1
I0429 12:03:22.443640  3523 net.cpp:150] Setting up ip3_ip3_0_split
I0429 12:03:22.443655  3523 net.cpp:157] Top shape: 100 10 (1000)
I0429 12:03:22.443663  3523 net.cpp:157] Top shape: 100 10 (1000)
I0429 12:03:22.443670  3523 net.cpp:165] Memory required for data: 8094800
I0429 12:03:22.443677  3523 layer_factory.hpp:77] Creating layer accuracy
I0429 12:03:22.443687  3523 net.cpp:106] Creating Layer accuracy
I0429 12:03:22.443694  3523 net.cpp:454] accuracy <- ip3_ip3_0_split_0
I0429 12:03:22.443703  3523 net.cpp:454] accuracy <- label_mnist_1_split_0
I0429 12:03:22.443717  3523 net.cpp:411] accuracy -> accuracy
…
