…
I0509 19:46:32.790395 24319 net.cpp:322] The NetState phase (0) differed from the phase (1) specified by a rule in layer mnist
I0509 19:46:32.790419 24319 net.cpp:322] The NetState phase (0) differed from the phase (1) specified by a rule in layer accuracy
I0509 19:46:32.790532 24319 net.cpp:49] Initializing net from parameters: 
name: "LeNet"
state {
  phase: TRAIN
}
layer {
  name: "mnist"
  type: "Data"
  top: "data"
  top: "label"
  include {
    phase: TRAIN
  }
  transform_param {
    scale: 0.00390625
  }
  data_param {
    source: "examples/mnist/mnist_train_lmdb"
    batch_size: 64
    backend: LMDB
  }
}
layer {
  name: "conv1"
  type: "Convolution"
  bottom: "data"
  top: "conv1"
  param {
    lr_mult: 1
  }
  param {
    lr_mult: 2
  }
  convolution_param {
    num_output: 20
    kernel_size: 5
    stride: 1
    weight_filler {
      type: "xavier"
    }
    bias_filler {
      type: "constant"
    }
  }
}
layer {
  name: "pool1"
  type: "Pooling"
  bottom: "conv1"
  top: "pool1"
  pooling_param {
    pool: MAX
    kernel_size: 2
    stride: 2
  }
}
layer {
  name: "conv2"
  type: "Convolution"
  bottom: "pool1"
  top: "conv2"
  param {
    lr_mult: 1
  }
  param {
    lr_mult: 2
  }
  convolution_param {
    num_output: 50
    kernel_size: 5
    stride: 1
    weight_filler {
      type: "xavier"
    }
    bias_filler {
      type: "constant"
    }
  }
}
layer {
  name: "pool2"
  type: "Pooling"
  bottom: "conv2"
  top: "pool2"
  pooling_param {
    pool: MAX
    kernel_size: 2
    stride: 2
  }
}
layer {
  name: "ip1"
  type: "InnerProduct"
  bottom: "pool2"
  top: "ip1"
  param {
    lr_mult: 1
  }
  param {
    lr_mult: 2
  }
  inner_product_param {
    num_output: 10
    weight_filler {
      type: "xavier"
    }
    bias_filler {
      type: "constant"
    }
  }
}
layer {
  name: "relu1"
  type: "ReLU"
  bottom: "ip1"
  top: "ip1"
}
layer {
  name: "ip2"
  type: "InnerProduct"
  bottom: "ip1"
  top: "ip2"
  param {
    lr_mult: 1
  }
  param {
    lr_mult: 2
  }
  inner_product_param {
    num_output: 500
    weight_filler {
      type: "xavier"
    }
    bias_filler {
      type: "constant"
    }
  }
}
layer {
  name: "relu2"
  type: "ReLU"
  bottom: "ip2"
  top: "ip2"
}
layer {
  name: "ip3"
  type: "InnerProduct"
  bottom: "ip2"
  top: "ip3"
  param {
    lr_mult: 1
  }
  param {
    lr_mult: 2
  }
  inner_product_param {
    num_output: 10
    weight_filler {
      type: "xavier"
    }
    bias_filler {
      type: "constant"
    }
  }
}
layer {
  name: "loss"
  type: "SoftmaxWithLoss"
  bottom: "ip3"
  bottom: "label"
  top: "loss"
}
I0509 19:46:32.790642 24319 layer_factory.hpp:77] Creating layer mnist
I0509 19:46:32.791270 24319 net.cpp:106] Creating Layer mnist
I0509 19:46:32.791288 24319 net.cpp:411] mnist -> data
I0509 19:46:32.791328 24319 net.cpp:411] mnist -> label
I0509 19:46:32.792215 24324 db_lmdb.cpp:38] Opened lmdb examples/mnist/mnist_train_lmdb
I0509 19:46:32.801038 24319 data_layer.cpp:41] output data size: 64,1,28,28
I0509 19:46:32.801991 24319 net.cpp:150] Setting up mnist
I0509 19:46:32.802047 24319 net.cpp:157] Top shape: 64 1 28 28 (50176)
I0509 19:46:32.802076 24319 net.cpp:157] Top shape: 64 (64)
I0509 19:46:32.802098 24319 net.cpp:165] Memory required for data: 200960
I0509 19:46:32.802129 24319 layer_factory.hpp:77] Creating layer conv1
I0509 19:46:32.802173 24319 net.cpp:106] Creating Layer conv1
I0509 19:46:32.802201 24319 net.cpp:454] conv1 <- data
I0509 19:46:32.802234 24319 net.cpp:411] conv1 -> conv1
I0509 19:46:32.954066 24319 net.cpp:150] Setting up conv1
I0509 19:46:32.954147 24319 net.cpp:157] Top shape: 64 20 24 24 (737280)
I0509 19:46:32.954187 24319 net.cpp:165] Memory required for data: 3150080
I0509 19:46:32.954244 24319 layer_factory.hpp:77] Creating layer pool1
I0509 19:46:32.954298 24319 net.cpp:106] Creating Layer pool1
I0509 19:46:32.954315 24319 net.cpp:454] pool1 <- conv1
I0509 19:46:32.954325 24319 net.cpp:411] pool1 -> pool1
I0509 19:46:32.955199 24319 net.cpp:150] Setting up pool1
I0509 19:46:32.955235 24319 net.cpp:157] Top shape: 64 20 12 12 (184320)
I0509 19:46:32.955258 24319 net.cpp:165] Memory required for data: 3887360
I0509 19:46:32.955281 24319 layer_factory.hpp:77] Creating layer conv2
I0509 19:46:32.955309 24319 net.cpp:106] Creating Layer conv2
I0509 19:46:32.955332 24319 net.cpp:454] conv2 <- pool1
I0509 19:46:32.955358 24319 net.cpp:411] conv2 -> conv2
I0509 19:46:32.958248 24319 net.cpp:150] Setting up conv2
I0509 19:46:32.958287 24319 net.cpp:157] Top shape: 64 50 8 8 (204800)
I0509 19:46:32.958309 24319 net.cpp:165] Memory required for data: 4706560
I0509 19:46:32.958338 24319 layer_factory.hpp:77] Creating layer pool2
I0509 19:46:32.958366 24319 net.cpp:106] Creating Layer pool2
I0509 19:46:32.958387 24319 net.cpp:454] pool2 <- conv2
I0509 19:46:32.958412 24319 net.cpp:411] pool2 -> pool2
I0509 19:46:32.959226 24319 net.cpp:150] Setting up pool2
I0509 19:46:32.959260 24319 net.cpp:157] Top shape: 64 50 4 4 (51200)
I0509 19:46:32.959283 24319 net.cpp:165] Memory required for data: 4911360
I0509 19:46:32.959305 24319 layer_factory.hpp:77] Creating layer ip1
I0509 19:46:32.959331 24319 net.cpp:106] Creating Layer ip1
I0509 19:46:32.959352 24319 net.cpp:454] ip1 <- pool2
I0509 19:46:32.959377 24319 net.cpp:411] ip1 -> ip1
I0509 19:46:32.960039 24319 net.cpp:150] Setting up ip1
I0509 19:46:32.960073 24319 net.cpp:157] Top shape: 64 10 (640)
I0509 19:46:32.960095 24319 net.cpp:165] Memory required for data: 4913920
I0509 19:46:32.960124 24319 layer_factory.hpp:77] Creating layer relu1
I0509 19:46:32.960150 24319 net.cpp:106] Creating Layer relu1
I0509 19:46:32.960170 24319 net.cpp:454] relu1 <- ip1
I0509 19:46:32.960193 24319 net.cpp:397] relu1 -> ip1 (in-place)
I0509 19:46:32.960959 24319 net.cpp:150] Setting up relu1
I0509 19:46:32.960994 24319 net.cpp:157] Top shape: 64 10 (640)
I0509 19:46:32.961017 24319 net.cpp:165] Memory required for data: 4916480
I0509 19:46:32.961038 24319 layer_factory.hpp:77] Creating layer ip2
I0509 19:46:32.961062 24319 net.cpp:106] Creating Layer ip2
I0509 19:46:32.961084 24319 net.cpp:454] ip2 <- ip1
I0509 19:46:32.961108 24319 net.cpp:411] ip2 -> ip2
I0509 19:46:32.961294 24319 net.cpp:150] Setting up ip2
I0509 19:46:32.961321 24319 net.cpp:157] Top shape: 64 500 (32000)
I0509 19:46:32.961343 24319 net.cpp:165] Memory required for data: 5044480
I0509 19:46:32.961366 24319 layer_factory.hpp:77] Creating layer relu2
I0509 19:46:32.961391 24319 net.cpp:106] Creating Layer relu2
I0509 19:46:32.961412 24319 net.cpp:454] relu2 <- ip2
I0509 19:46:32.961436 24319 net.cpp:397] relu2 -> ip2 (in-place)
I0509 19:46:32.962189 24319 net.cpp:150] Setting up relu2
I0509 19:46:32.962223 24319 net.cpp:157] Top shape: 64 500 (32000)
I0509 19:46:32.962244 24319 net.cpp:165] Memory required for data: 5172480
I0509 19:46:32.962265 24319 layer_factory.hpp:77] Creating layer ip3
I0509 19:46:32.962290 24319 net.cpp:106] Creating Layer ip3
I0509 19:46:32.962311 24319 net.cpp:454] ip3 <- ip2
I0509 19:46:32.962334 24319 net.cpp:411] ip3 -> ip3
I0509 19:46:32.962517 24319 net.cpp:150] Setting up ip3
I0509 19:46:32.962544 24319 net.cpp:157] Top shape: 64 10 (640)
I0509 19:46:32.962564 24319 net.cpp:165] Memory required for data: 5175040
I0509 19:46:32.962592 24319 layer_factory.hpp:77] Creating layer loss
I0509 19:46:32.962623 24319 net.cpp:106] Creating Layer loss
I0509 19:46:32.962644 24319 net.cpp:454] loss <- ip3
I0509 19:46:32.962666 24319 net.cpp:454] loss <- label
I0509 19:46:32.962692 24319 net.cpp:411] loss -> loss
I0509 19:46:32.962723 24319 layer_factory.hpp:77] Creating layer loss
…
I0509 19:46:32.964539 24319 solver.cpp:181] Creating test net (#0) specified by net file: examples/mnist/test/lenet_train_test.prototxt
I0509 19:46:32.964594 24319 net.cpp:322] The NetState phase (1) differed from the phase (0) specified by a rule in layer mnist
I0509 19:46:32.964745 24319 net.cpp:49] Initializing net from parameters: 
name: "LeNet"
state {
  phase: TEST
}
layer {
  name: "mnist"
  type: "Data"
  top: "data"
  top: "label"
  include {
    phase: TEST
  }
  transform_param {
    scale: 0.00390625
  }
  data_param {
    source: "examples/mnist/mnist_test_lmdb"
    batch_size: 100
    backend: LMDB
  }
}
layer {
  name: "conv1"
  type: "Convolution"
  bottom: "data"
  top: "conv1"
  param {
    lr_mult: 1
  }
  param {
    lr_mult: 2
  }
  convolution_param {
    num_output: 20
    kernel_size: 5
    stride: 1
    weight_filler {
      type: "xavier"
    }
    bias_filler {
      type: "constant"
    }
  }
}
layer {
  name: "pool1"
  type: "Pooling"
  bottom: "conv1"
  top: "pool1"
  pooling_param {
    pool: MAX
    kernel_size: 2
    stride: 2
  }
}
layer {
  name: "conv2"
  type: "Convolution"
  bottom: "pool1"
  top: "conv2"
  param {
    lr_mult: 1
  }
  param {
    lr_mult: 2
  }
  convolution_param {
    num_output: 50
    kernel_size: 5
    stride: 1
    weight_filler {
      type: "xavier"
    }
    bias_filler {
      type: "constant"
    }
  }
}
layer {
  name: "pool2"
  type: "Pooling"
  bottom: "conv2"
  top: "pool2"
  pooling_param {
    pool: MAX
    kernel_size: 2
    stride: 2
  }
}
layer {
  name: "ip1"
  type: "InnerProduct"
  bottom: "pool2"
  top: "ip1"
  param {
    lr_mult: 1
  }
  param {
    lr_mult: 2
  }
  inner_product_param {
    num_output: 10
    weight_filler {
      type: "xavier"
    }
    bias_filler {
      type: "constant"
    }
  }
}
layer {
  name: "relu1"
  type: "ReLU"
  bottom: "ip1"
  top: "ip1"
}
layer {
  name: "ip2"
  type: "InnerProduct"
  bottom: "ip1"
  top: "ip2"
  param {
    lr_mult: 1
  }
  param {
    lr_mult: 2
  }
  inner_product_param {
    num_output: 500
    weight_filler {
      type: "xavier"
    }
    bias_filler {
      type: "constant"
    }
  }
}
layer {
  name: "relu2"
  type: "ReLU"
  bottom: "ip2"
  top: "ip2"
}
layer {
  name: "ip3"
  type: "InnerProduct"
  bottom: "ip2"
  top: "ip3"
  param {
    lr_mult: 1
  }
  param {
    lr_mult: 2
  }
  inner_product_param {
    num_output: 10
    weight_filler {
      type: "xavier"
    }
    bias_filler {
      type: "constant"
    }
  }
}
layer {
  name: "accuracy"
  type: "Accuracy"
  bottom: "ip3"
  bottom: "label"
  top: "accuracy"
  include {
    phase: TEST
  }
}
layer {
  name: "loss"
  type: "SoftmaxWithLoss"
  bottom: "ip3"
  bottom: "label"
  top: "loss"
}
I0509 19:46:32.965404 24319 layer_factory.hpp:77] Creating layer mnist
I0509 19:46:32.965723 24319 net.cpp:106] Creating Layer mnist
I0509 19:46:32.965755 24319 net.cpp:411] mnist -> data
I0509 19:46:32.965786 24319 net.cpp:411] mnist -> label
I0509 19:46:32.966698 24326 db_lmdb.cpp:38] Opened lmdb examples/mnist/mnist_test_lmdb
I0509 19:46:32.966837 24319 data_layer.cpp:41] output data size: 100,1,28,28
I0509 19:46:32.967876 24319 net.cpp:150] Setting up mnist
I0509 19:46:32.967913 24319 net.cpp:157] Top shape: 100 1 28 28 (78400)
I0509 19:46:32.967938 24319 net.cpp:157] Top shape: 100 (100)
I0509 19:46:32.967958 24319 net.cpp:165] Memory required for data: 314000
I0509 19:46:32.967979 24319 layer_factory.hpp:77] Creating layer label_mnist_1_split
I0509 19:46:32.968004 24319 net.cpp:106] Creating Layer label_mnist_1_split
I0509 19:46:32.968026 24319 net.cpp:454] label_mnist_1_split <- label
I0509 19:46:32.968050 24319 net.cpp:411] label_mnist_1_split -> label_mnist_1_split_0
I0509 19:46:32.968077 24319 net.cpp:411] label_mnist_1_split -> label_mnist_1_split_1
I0509 19:46:32.968144 24319 net.cpp:150] Setting up label_mnist_1_split
I0509 19:46:32.968171 24319 net.cpp:157] Top shape: 100 (100)
I0509 19:46:32.968194 24319 net.cpp:157] Top shape: 100 (100)
I0509 19:46:32.968214 24319 net.cpp:165] Memory required for data: 314800
I0509 19:46:32.968233 24319 layer_factory.hpp:77] Creating layer conv1
I0509 19:46:32.968260 24319 net.cpp:106] Creating Layer conv1
I0509 19:46:32.968281 24319 net.cpp:454] conv1 <- data
I0509 19:46:32.968305 24319 net.cpp:411] conv1 -> conv1
I0509 19:46:32.971287 24319 net.cpp:150] Setting up conv1
I0509 19:46:32.971325 24319 net.cpp:157] Top shape: 100 20 24 24 (1152000)
I0509 19:46:32.971349 24319 net.cpp:165] Memory required for data: 4922800
I0509 19:46:32.971379 24319 layer_factory.hpp:77] Creating layer pool1
I0509 19:46:32.971408 24319 net.cpp:106] Creating Layer pool1
I0509 19:46:32.971432 24319 net.cpp:454] pool1 <- conv1
I0509 19:46:32.971457 24319 net.cpp:411] pool1 -> pool1
I0509 19:46:32.972283 24319 net.cpp:150] Setting up pool1
I0509 19:46:32.972318 24319 net.cpp:157] Top shape: 100 20 12 12 (288000)
I0509 19:46:32.972342 24319 net.cpp:165] Memory required for data: 6074800
I0509 19:46:32.972364 24319 layer_factory.hpp:77] Creating layer conv2
I0509 19:46:32.972391 24319 net.cpp:106] Creating Layer conv2
I0509 19:46:32.972415 24319 net.cpp:454] conv2 <- pool1
I0509 19:46:32.972441 24319 net.cpp:411] conv2 -> conv2
I0509 19:46:32.975560 24319 net.cpp:150] Setting up conv2
I0509 19:46:32.975597 24319 net.cpp:157] Top shape: 100 50 8 8 (320000)
I0509 19:46:32.975620 24319 net.cpp:165] Memory required for data: 7354800
I0509 19:46:32.975648 24319 layer_factory.hpp:77] Creating layer pool2
I0509 19:46:32.975677 24319 net.cpp:106] Creating Layer pool2
I0509 19:46:32.975698 24319 net.cpp:454] pool2 <- conv2
I0509 19:46:32.975723 24319 net.cpp:411] pool2 -> pool2
I0509 19:46:32.976611 24319 net.cpp:150] Setting up pool2
I0509 19:46:32.976645 24319 net.cpp:157] Top shape: 100 50 4 4 (80000)
I0509 19:46:32.976666 24319 net.cpp:165] Memory required for data: 7674800
I0509 19:46:32.976688 24319 layer_factory.hpp:77] Creating layer ip1
I0509 19:46:32.976716 24319 net.cpp:106] Creating Layer ip1
I0509 19:46:32.976737 24319 net.cpp:454] ip1 <- pool2
I0509 19:46:32.976763 24319 net.cpp:411] ip1 -> ip1
I0509 19:46:32.976995 24319 net.cpp:150] Setting up ip1
I0509 19:46:32.977026 24319 net.cpp:157] Top shape: 100 10 (1000)
I0509 19:46:32.977047 24319 net.cpp:165] Memory required for data: 7678800
I0509 19:46:32.977074 24319 layer_factory.hpp:77] Creating layer relu1
I0509 19:46:32.977104 24319 net.cpp:106] Creating Layer relu1
I0509 19:46:32.977126 24319 net.cpp:454] relu1 <- ip1
I0509 19:46:32.977149 24319 net.cpp:397] relu1 -> ip1 (in-place)
I0509 19:46:32.977979 24319 net.cpp:150] Setting up relu1
I0509 19:46:32.978014 24319 net.cpp:157] Top shape: 100 10 (1000)
I0509 19:46:32.978036 24319 net.cpp:165] Memory required for data: 7682800
I0509 19:46:32.978056 24319 layer_factory.hpp:77] Creating layer ip2
I0509 19:46:32.978107 24319 net.cpp:106] Creating Layer ip2
I0509 19:46:32.978132 24319 net.cpp:454] ip2 <- ip1
I0509 19:46:32.978159 24319 net.cpp:411] ip2 -> ip2
I0509 19:46:32.978374 24319 net.cpp:150] Setting up ip2
I0509 19:46:32.978410 24319 net.cpp:157] Top shape: 100 500 (50000)
I0509 19:46:32.978440 24319 net.cpp:165] Memory required for data: 7882800
I0509 19:46:32.978463 24319 layer_factory.hpp:77] Creating layer relu2
I0509 19:46:32.978487 24319 net.cpp:106] Creating Layer relu2
I0509 19:46:32.978508 24319 net.cpp:454] relu2 <- ip2
I0509 19:46:32.978531 24319 net.cpp:397] relu2 -> ip2 (in-place)
I0509 19:46:32.979367 24319 net.cpp:150] Setting up relu2
I0509 19:46:32.979400 24319 net.cpp:157] Top shape: 100 500 (50000)
I0509 19:46:32.979423 24319 net.cpp:165] Memory required for data: 8082800
I0509 19:46:32.979442 24319 layer_factory.hpp:77] Creating layer ip3
I0509 19:46:32.979470 24319 net.cpp:106] Creating Layer ip3
I0509 19:46:32.979491 24319 net.cpp:454] ip3 <- ip2
I0509 19:46:32.979516 24319 net.cpp:411] ip3 -> ip3
I0509 19:46:32.979729 24319 net.cpp:150] Setting up ip3
I0509 19:46:32.979756 24319 net.cpp:157] Top shape: 100 10 (1000)
I0509 19:46:32.979776 24319 net.cpp:165] Memory required for data: 8086800
I0509 19:46:32.979805 24319 layer_factory.hpp:77] Creating layer ip3_ip3_0_split
I0509 19:46:32.979830 24319 net.cpp:106] Creating Layer ip3_ip3_0_split
I0509 19:46:32.979851 24319 net.cpp:454] ip3_ip3_0_split <- ip3
I0509 19:46:32.979873 24319 net.cpp:411] ip3_ip3_0_split -> ip3_ip3_0_split_0
I0509 19:46:32.979898 24319 net.cpp:411] ip3_ip3_0_split -> ip3_ip3_0_split_1
I0509 19:46:32.979969 24319 net.cpp:150] Setting up ip3_ip3_0_split
I0509 19:46:32.979995 24319 net.cpp:157] Top shape: 100 10 (1000)
I0509 19:46:32.980015 24319 net.cpp:157] Top shape: 100 10 (1000)
I0509 19:46:32.980036 24319 net.cpp:165] Memory required for data: 8094800
I0509 19:46:32.980054 24319 layer_factory.hpp:77] Creating layer accuracy
I0509 19:46:32.980077 24319 net.cpp:106] Creating Layer accuracy
I0509 19:46:32.980098 24319 net.cpp:454] accuracy <- ip3_ip3_0_split_0
I0509 19:46:32.980119 24319 net.cpp:454] accuracy <- label_mnist_1_split_0
I0509 19:46:32.980145 24319 net.cpp:411] accuracy -> accuracy
…
