…
I0509 19:43:48.215544 24290 net.cpp:322] The NetState phase (0) differed from the phase (1) specified by a rule in layer mnist
I0509 19:43:48.215585 24290 net.cpp:322] The NetState phase (0) differed from the phase (1) specified by a rule in layer accuracy
I0509 19:43:48.215680 24290 net.cpp:49] Initializing net from parameters: 
name: "LeNet"
state {
  phase: TRAIN
}
layer {
  name: "mnist"
  type: "Data"
  top: "data"
  top: "label"
  include {
    phase: TRAIN
  }
  transform_param {
    scale: 0.00390625
  }
  data_param {
    source: "examples/mnist/mnist_train_lmdb"
    batch_size: 64
    backend: LMDB
  }
}
layer {
  name: "conv1"
  type: "Convolution"
  bottom: "data"
  top: "conv1"
  param {
    lr_mult: 1
  }
  param {
    lr_mult: 2
  }
  convolution_param {
    num_output: 20
    kernel_size: 5
    stride: 1
    weight_filler {
      type: "xavier"
    }
    bias_filler {
      type: "constant"
    }
  }
}
layer {
  name: "pool1"
  type: "Pooling"
  bottom: "conv1"
  top: "pool1"
  pooling_param {
    pool: MAX
    kernel_size: 2
    stride: 2
  }
}
layer {
  name: "conv2"
  type: "Convolution"
  bottom: "pool1"
  top: "conv2"
  param {
    lr_mult: 1
  }
  param {
    lr_mult: 2
  }
  convolution_param {
    num_output: 50
    kernel_size: 5
    stride: 1
    weight_filler {
      type: "xavier"
    }
    bias_filler {
      type: "constant"
    }
  }
}
layer {
  name: "pool2"
  type: "Pooling"
  bottom: "conv2"
  top: "pool2"
  pooling_param {
    pool: MAX
    kernel_size: 2
    stride: 2
  }
}
layer {
  name: "ip1"
  type: "InnerProduct"
  bottom: "pool2"
  top: "ip1"
  param {
    lr_mult: 1
  }
  param {
    lr_mult: 2
  }
  inner_product_param {
    num_output: 10
    weight_filler {
      type: "xavier"
    }
    bias_filler {
      type: "constant"
    }
  }
}
layer {
  name: "ip2"
  type: "InnerProduct"
  bottom: "ip1"
  top: "ip2"
  param {
    lr_mult: 1
  }
  param {
    lr_mult: 2
  }
  inner_product_param {
    num_output: 500
    weight_filler {
      type: "xavier"
    }
    bias_filler {
      type: "constant"
    }
  }
}
layer {
  name: "relu2"
  type: "ReLU"
  bottom: "ip2"
  top: "ip2"
}
layer {
  name: "ip3"
  type: "InnerProduct"
  bottom: "ip2"
  top: "ip3"
  param {
    lr_mult: 1
  }
  param {
    lr_mult: 2
  }
  inner_product_param {
    num_output: 10
    weight_filler {
      type: "xavier"
    }
    bias_filler {
      type: "constant"
    }
  }
}
layer {
  name: "loss"
  type: "SoftmaxWithLoss"
  bottom: "ip3"
  bottom: "label"
  top: "loss"
}
I0509 19:43:48.216292 24290 layer_factory.hpp:77] Creating layer mnist
I0509 19:43:48.216787 24290 net.cpp:106] Creating Layer mnist
I0509 19:43:48.216859 24290 net.cpp:411] mnist -> data
I0509 19:43:48.216948 24290 net.cpp:411] mnist -> label
I0509 19:43:48.217566 24296 db_lmdb.cpp:38] Opened lmdb examples/mnist/mnist_train_lmdb
I0509 19:43:48.223637 24290 data_layer.cpp:41] output data size: 64,1,28,28
I0509 19:43:48.224580 24290 net.cpp:150] Setting up mnist
I0509 19:43:48.224663 24290 net.cpp:157] Top shape: 64 1 28 28 (50176)
I0509 19:43:48.224714 24290 net.cpp:157] Top shape: 64 (64)
I0509 19:43:48.224758 24290 net.cpp:165] Memory required for data: 200960
I0509 19:43:48.224805 24290 layer_factory.hpp:77] Creating layer conv1
I0509 19:43:48.224865 24290 net.cpp:106] Creating Layer conv1
I0509 19:43:48.224921 24290 net.cpp:454] conv1 <- data
I0509 19:43:48.224972 24290 net.cpp:411] conv1 -> conv1
I0509 19:43:48.336653 24290 net.cpp:150] Setting up conv1
I0509 19:43:48.336683 24290 net.cpp:157] Top shape: 64 20 24 24 (737280)
I0509 19:43:48.336689 24290 net.cpp:165] Memory required for data: 3150080
I0509 19:43:48.336807 24290 layer_factory.hpp:77] Creating layer pool1
I0509 19:43:48.336839 24290 net.cpp:106] Creating Layer pool1
I0509 19:43:48.336849 24290 net.cpp:454] pool1 <- conv1
I0509 19:43:48.336887 24290 net.cpp:411] pool1 -> pool1
I0509 19:43:48.337532 24290 net.cpp:150] Setting up pool1
I0509 19:43:48.337548 24290 net.cpp:157] Top shape: 64 20 12 12 (184320)
I0509 19:43:48.337575 24290 net.cpp:165] Memory required for data: 3887360
I0509 19:43:48.337596 24290 layer_factory.hpp:77] Creating layer conv2
I0509 19:43:48.337636 24290 net.cpp:106] Creating Layer conv2
I0509 19:43:48.337646 24290 net.cpp:454] conv2 <- pool1
I0509 19:43:48.337680 24290 net.cpp:411] conv2 -> conv2
I0509 19:43:48.339860 24290 net.cpp:150] Setting up conv2
I0509 19:43:48.339876 24290 net.cpp:157] Top shape: 64 50 8 8 (204800)
I0509 19:43:48.339907 24290 net.cpp:165] Memory required for data: 4706560
I0509 19:43:48.339937 24290 layer_factory.hpp:77] Creating layer pool2
I0509 19:43:48.339965 24290 net.cpp:106] Creating Layer pool2
I0509 19:43:48.339974 24290 net.cpp:454] pool2 <- conv2
I0509 19:43:48.340009 24290 net.cpp:411] pool2 -> pool2
I0509 19:43:48.340626 24290 net.cpp:150] Setting up pool2
I0509 19:43:48.340639 24290 net.cpp:157] Top shape: 64 50 4 4 (51200)
I0509 19:43:48.340678 24290 net.cpp:165] Memory required for data: 4911360
I0509 19:43:48.340687 24290 layer_factory.hpp:77] Creating layer ip1
I0509 19:43:48.340719 24290 net.cpp:106] Creating Layer ip1
I0509 19:43:48.340728 24290 net.cpp:454] ip1 <- pool2
I0509 19:43:48.340759 24290 net.cpp:411] ip1 -> ip1
I0509 19:43:48.341267 24290 net.cpp:150] Setting up ip1
I0509 19:43:48.341282 24290 net.cpp:157] Top shape: 64 10 (640)
I0509 19:43:48.341310 24290 net.cpp:165] Memory required for data: 4913920
I0509 19:43:48.341341 24290 layer_factory.hpp:77] Creating layer ip2
I0509 19:43:48.341368 24290 net.cpp:106] Creating Layer ip2
I0509 19:43:48.341377 24290 net.cpp:454] ip2 <- ip1
I0509 19:43:48.341413 24290 net.cpp:411] ip2 -> ip2
I0509 19:43:48.341547 24290 net.cpp:150] Setting up ip2
I0509 19:43:48.341558 24290 net.cpp:157] Top shape: 64 500 (32000)
I0509 19:43:48.341563 24290 net.cpp:165] Memory required for data: 5041920
I0509 19:43:48.341619 24290 layer_factory.hpp:77] Creating layer relu2
I0509 19:43:48.341642 24290 net.cpp:106] Creating Layer relu2
I0509 19:43:48.341651 24290 net.cpp:454] relu2 <- ip2
I0509 19:43:48.341683 24290 net.cpp:397] relu2 -> ip2 (in-place)
I0509 19:43:48.342275 24290 net.cpp:150] Setting up relu2
I0509 19:43:48.342289 24290 net.cpp:157] Top shape: 64 500 (32000)
I0509 19:43:48.342319 24290 net.cpp:165] Memory required for data: 5169920
I0509 19:43:48.342327 24290 layer_factory.hpp:77] Creating layer ip3
I0509 19:43:48.342365 24290 net.cpp:106] Creating Layer ip3
I0509 19:43:48.342373 24290 net.cpp:454] ip3 <- ip2
I0509 19:43:48.342401 24290 net.cpp:411] ip3 -> ip3
I0509 19:43:48.342543 24290 net.cpp:150] Setting up ip3
I0509 19:43:48.342557 24290 net.cpp:157] Top shape: 64 10 (640)
I0509 19:43:48.342581 24290 net.cpp:165] Memory required for data: 5172480
I0509 19:43:48.342619 24290 layer_factory.hpp:77] Creating layer loss
I0509 19:43:48.342648 24290 net.cpp:106] Creating Layer loss
I0509 19:43:48.342656 24290 net.cpp:454] loss <- ip3
I0509 19:43:48.342686 24290 net.cpp:454] loss <- label
I0509 19:43:48.342710 24290 net.cpp:411] loss -> loss
I0509 19:43:48.342739 24290 layer_factory.hpp:77] Creating layer loss
…
I0509 19:43:48.344036 24290 solver.cpp:181] Creating test net (#0) specified by net file: examples/mnist/test/lenet_train_test.prototxt
I0509 19:43:48.344074 24290 net.cpp:322] The NetState phase (1) differed from the phase (0) specified by a rule in layer mnist
I0509 19:43:48.344178 24290 net.cpp:49] Initializing net from parameters: 
name: "LeNet"
state {
  phase: TEST
}
layer {
  name: "mnist"
  type: "Data"
  top: "data"
  top: "label"
  include {
    phase: TEST
  }
  transform_param {
    scale: 0.00390625
  }
  data_param {
    source: "examples/mnist/mnist_test_lmdb"
    batch_size: 100
    backend: LMDB
  }
}
layer {
  name: "conv1"
  type: "Convolution"
  bottom: "data"
  top: "conv1"
  param {
    lr_mult: 1
  }
  param {
    lr_mult: 2
  }
  convolution_param {
    num_output: 20
    kernel_size: 5
    stride: 1
    weight_filler {
      type: "xavier"
    }
    bias_filler {
      type: "constant"
    }
  }
}
layer {
  name: "pool1"
  type: "Pooling"
  bottom: "conv1"
  top: "pool1"
  pooling_param {
    pool: MAX
    kernel_size: 2
    stride: 2
  }
}
layer {
  name: "conv2"
  type: "Convolution"
  bottom: "pool1"
  top: "conv2"
  param {
    lr_mult: 1
  }
  param {
    lr_mult: 2
  }
  convolution_param {
    num_output: 50
    kernel_size: 5
    stride: 1
    weight_filler {
      type: "xavier"
    }
    bias_filler {
      type: "constant"
    }
  }
}
layer {
  name: "pool2"
  type: "Pooling"
  bottom: "conv2"
  top: "pool2"
  pooling_param {
    pool: MAX
    kernel_size: 2
    stride: 2
  }
}
layer {
  name: "ip1"
  type: "InnerProduct"
  bottom: "pool2"
  top: "ip1"
  param {
    lr_mult: 1
  }
  param {
    lr_mult: 2
  }
  inner_product_param {
    num_output: 10
    weight_filler {
      type: "xavier"
    }
    bias_filler {
      type: "constant"
    }
  }
}
layer {
  name: "ip2"
  type: "InnerProduct"
  bottom: "ip1"
  top: "ip2"
  param {
    lr_mult: 1
  }
  param {
    lr_mult: 2
  }
  inner_product_param {
    num_output: 500
    weight_filler {
      type: "xavier"
    }
    bias_filler {
      type: "constant"
    }
  }
}
layer {
  name: "relu2"
  type: "ReLU"
  bottom: "ip2"
  top: "ip2"
}
layer {
  name: "ip3"
  type: "InnerProduct"
  bottom: "ip2"
  top: "ip3"
  param {
    lr_mult: 1
  }
  param {
    lr_mult: 2
  }
  inner_product_param {
    num_output: 10
    weight_filler {
      type: "xavier"
    }
    bias_filler {
      type: "constant"
    }
  }
}
layer {
  name: "accuracy"
  type: "Accuracy"
  bottom: "ip3"
  bottom: "label"
  top: "accuracy"
  include {
    phase: TEST
  }
}
layer {
  name: "loss"
  type: "SoftmaxWithLoss"
  bottom: "ip3"
  bottom: "label"
  top: "loss"
}
I0509 19:43:48.344286 24290 layer_factory.hpp:77] Creating layer mnist
I0509 19:43:48.344424 24290 net.cpp:106] Creating Layer mnist
I0509 19:43:48.344437 24290 net.cpp:411] mnist -> data
I0509 19:43:48.344450 24290 net.cpp:411] mnist -> label
I0509 19:43:48.345746 24298 db_lmdb.cpp:38] Opened lmdb examples/mnist/mnist_test_lmdb
I0509 19:43:48.345854 24290 data_layer.cpp:41] output data size: 100,1,28,28
I0509 19:43:48.346655 24290 net.cpp:150] Setting up mnist
I0509 19:43:48.346674 24290 net.cpp:157] Top shape: 100 1 28 28 (78400)
I0509 19:43:48.346683 24290 net.cpp:157] Top shape: 100 (100)
I0509 19:43:48.346688 24290 net.cpp:165] Memory required for data: 314000
I0509 19:43:48.346694 24290 layer_factory.hpp:77] Creating layer label_mnist_1_split
I0509 19:43:48.346745 24290 net.cpp:106] Creating Layer label_mnist_1_split
I0509 19:43:48.346760 24290 net.cpp:454] label_mnist_1_split <- label
I0509 19:43:48.346768 24290 net.cpp:411] label_mnist_1_split -> label_mnist_1_split_0
I0509 19:43:48.346793 24290 net.cpp:411] label_mnist_1_split -> label_mnist_1_split_1
I0509 19:43:48.346861 24290 net.cpp:150] Setting up label_mnist_1_split
I0509 19:43:48.346876 24290 net.cpp:157] Top shape: 100 (100)
I0509 19:43:48.346884 24290 net.cpp:157] Top shape: 100 (100)
I0509 19:43:48.346889 24290 net.cpp:165] Memory required for data: 314800
I0509 19:43:48.346895 24290 layer_factory.hpp:77] Creating layer conv1
I0509 19:43:48.346910 24290 net.cpp:106] Creating Layer conv1
I0509 19:43:48.346917 24290 net.cpp:454] conv1 <- data
I0509 19:43:48.346930 24290 net.cpp:411] conv1 -> conv1
I0509 19:43:48.349396 24290 net.cpp:150] Setting up conv1
I0509 19:43:48.349413 24290 net.cpp:157] Top shape: 100 20 24 24 (1152000)
I0509 19:43:48.349419 24290 net.cpp:165] Memory required for data: 4922800
I0509 19:43:48.349432 24290 layer_factory.hpp:77] Creating layer pool1
I0509 19:43:48.349442 24290 net.cpp:106] Creating Layer pool1
I0509 19:43:48.349447 24290 net.cpp:454] pool1 <- conv1
I0509 19:43:48.349457 24290 net.cpp:411] pool1 -> pool1
I0509 19:43:48.350428 24290 net.cpp:150] Setting up pool1
I0509 19:43:48.350484 24290 net.cpp:157] Top shape: 100 20 12 12 (288000)
I0509 19:43:48.350531 24290 net.cpp:165] Memory required for data: 6074800
I0509 19:43:48.350543 24290 layer_factory.hpp:77] Creating layer conv2
I0509 19:43:48.350576 24290 net.cpp:106] Creating Layer conv2
I0509 19:43:48.350584 24290 net.cpp:454] conv2 <- pool1
I0509 19:43:48.350616 24290 net.cpp:411] conv2 -> conv2
I0509 19:43:48.352671 24290 net.cpp:150] Setting up conv2
I0509 19:43:48.352686 24290 net.cpp:157] Top shape: 100 50 8 8 (320000)
I0509 19:43:48.352717 24290 net.cpp:165] Memory required for data: 7354800
I0509 19:43:48.352747 24290 layer_factory.hpp:77] Creating layer pool2
I0509 19:43:48.352758 24290 net.cpp:106] Creating Layer pool2
I0509 19:43:48.352780 24290 net.cpp:454] pool2 <- conv2
I0509 19:43:48.352818 24290 net.cpp:411] pool2 -> pool2
I0509 19:43:48.353540 24290 net.cpp:150] Setting up pool2
I0509 19:43:48.353555 24290 net.cpp:157] Top shape: 100 50 4 4 (80000)
I0509 19:43:48.353588 24290 net.cpp:165] Memory required for data: 7674800
I0509 19:43:48.353596 24290 layer_factory.hpp:77] Creating layer ip1
I0509 19:43:48.353626 24290 net.cpp:106] Creating Layer ip1
I0509 19:43:48.353636 24290 net.cpp:454] ip1 <- pool2
I0509 19:43:48.353662 24290 net.cpp:411] ip1 -> ip1
I0509 19:43:48.353824 24290 net.cpp:150] Setting up ip1
I0509 19:43:48.353837 24290 net.cpp:157] Top shape: 100 10 (1000)
I0509 19:43:48.353860 24290 net.cpp:165] Memory required for data: 7678800
I0509 19:43:48.353899 24290 layer_factory.hpp:77] Creating layer ip2
I0509 19:43:48.353925 24290 net.cpp:106] Creating Layer ip2
I0509 19:43:48.353935 24290 net.cpp:454] ip2 <- ip1
I0509 19:43:48.353970 24290 net.cpp:411] ip2 -> ip2
I0509 19:43:48.354107 24290 net.cpp:150] Setting up ip2
I0509 19:43:48.354120 24290 net.cpp:157] Top shape: 100 500 (50000)
I0509 19:43:48.354141 24290 net.cpp:165] Memory required for data: 7878800
I0509 19:43:48.354177 24290 layer_factory.hpp:77] Creating layer relu2
I0509 19:43:48.354202 24290 net.cpp:106] Creating Layer relu2
I0509 19:43:48.354209 24290 net.cpp:454] relu2 <- ip2
I0509 19:43:48.354240 24290 net.cpp:397] relu2 -> ip2 (in-place)
I0509 19:43:48.354837 24290 net.cpp:150] Setting up relu2
I0509 19:43:48.354851 24290 net.cpp:157] Top shape: 100 500 (50000)
I0509 19:43:48.354882 24290 net.cpp:165] Memory required for data: 8078800
I0509 19:43:48.354889 24290 layer_factory.hpp:77] Creating layer ip3
I0509 19:43:48.354918 24290 net.cpp:106] Creating Layer ip3
I0509 19:43:48.354925 24290 net.cpp:454] ip3 <- ip2
I0509 19:43:48.354956 24290 net.cpp:411] ip3 -> ip3
I0509 19:43:48.355103 24290 net.cpp:150] Setting up ip3
I0509 19:43:48.355113 24290 net.cpp:157] Top shape: 100 10 (1000)
I0509 19:43:48.355136 24290 net.cpp:165] Memory required for data: 8082800
I0509 19:43:48.355175 24290 layer_factory.hpp:77] Creating layer ip3_ip3_0_split
I0509 19:43:48.355201 24290 net.cpp:106] Creating Layer ip3_ip3_0_split
I0509 19:43:48.355218 24290 net.cpp:454] ip3_ip3_0_split <- ip3
I0509 19:43:48.355255 24290 net.cpp:411] ip3_ip3_0_split -> ip3_ip3_0_split_0
I0509 19:43:48.355280 24290 net.cpp:411] ip3_ip3_0_split -> ip3_ip3_0_split_1
I0509 19:43:48.355336 24290 net.cpp:150] Setting up ip3_ip3_0_split
I0509 19:43:48.355347 24290 net.cpp:157] Top shape: 100 10 (1000)
I0509 19:43:48.355381 24290 net.cpp:157] Top shape: 100 10 (1000)
I0509 19:43:48.355389 24290 net.cpp:165] Memory required for data: 8090800
I0509 19:43:48.355417 24290 layer_factory.hpp:77] Creating layer accuracy
I0509 19:43:48.355440 24290 net.cpp:106] Creating Layer accuracy
I0509 19:43:48.355514 24290 net.cpp:454] accuracy <- ip3_ip3_0_split_0
I0509 19:43:48.355522 24290 net.cpp:454] accuracy <- label_mnist_1_split_0
I0509 19:43:48.355536 24290 net.cpp:411] accuracy -> accuracy
…
