…
I0424 17:32:53.197034 11440 net.cpp:322] The NetState phase (0) differed from the phase (1) specified by a rule in layer mnist
I0424 17:32:53.197060 11440 net.cpp:322] The NetState phase (0) differed from the phase (1) specified by a rule in layer accuracy
I0424 17:32:53.197165 11440 net.cpp:49] Initializing net from parameters: 
name: "LeNet"
state {
  phase: TRAIN
}
layer {
  name: "mnist"
  type: "Data"
  top: "data"
  top: "label"
  include {
    phase: TRAIN
  }
  transform_param {
    scale: 0.00390625
  }
  data_param {
    source: "examples/mnist/mnist_train_lmdb"
    batch_size: 64
    backend: LMDB
  }
}
layer {
  name: "conv1"
  type: "Convolution"
  bottom: "data"
  top: "conv1"
  param {
    lr_mult: 1
  }
  param {
    lr_mult: 2
  }
  convolution_param {
    num_output: 20
    kernel_size: 5
    stride: 1
    weight_filler {
      type: "xavier"
    }
    bias_filler {
      type: "constant"
    }
  }
}
layer {
  name: "pool1"
  type: "Pooling"
  bottom: "conv1"
  top: "pool1"
  pooling_param {
    pool: MAX
    kernel_size: 2
    stride: 2
  }
}
layer {
  name: "conv2"
  type: "Convolution"
  bottom: "pool1"
  top: "conv2"
  param {
    lr_mult: 1
  }
  param {
    lr_mult: 2
  }
  convolution_param {
    num_output: 50
    kernel_size: 5
    stride: 1
    weight_filler {
      type: "xavier"
    }
    bias_filler {
      type: "constant"
    }
  }
}
layer {
  name: "pool2"
  type: "Pooling"
  bottom: "conv2"
  top: "pool2"
  pooling_param {
    pool: MAX
    kernel_size: 2
    stride: 2
  }
}
layer {
  name: "ip1"
  type: "InnerProduct"
  bottom: "pool2"
  top: "ip1"
  param {
    lr_mult: 1
  }
  param {
    lr_mult: 2
  }
  inner_product_param {
    num_output: 16
    weight_filler {
      type: "xavier"
    }
    bias_filler {
      type: "constant"
    }
  }
}
layer {
  name: "relu1"
  type: "ReLU"
  bottom: "ip1"
  top: "ip1"
}
layer {
  name: "ip2"
  type: "InnerProduct"
  bottom: "ip1"
  top: "ip2"
  param {
    lr_mult: 1
  }
  param {
    lr_mult: 2
  }
  inner_product_param {
    num_output: 100
    weight_filler {
      type: "xavier"
    }
    bias_filler {
      type: "constant"
    }
  }
}
layer {
  name: "loss"
  type: "SoftmaxWithLoss"
  bottom: "ip2"
  bottom: "label"
  top: "loss"
}
I0424 17:32:53.197264 11440 layer_factory.hpp:77] Creating layer mnist
I0424 17:32:53.197902 11440 net.cpp:106] Creating Layer mnist
I0424 17:32:53.197929 11440 net.cpp:411] mnist -> data
I0424 17:32:53.197967 11440 net.cpp:411] mnist -> label
I0424 17:32:53.198881 11446 db_lmdb.cpp:38] Opened lmdb examples/mnist/mnist_train_lmdb
I0424 17:32:53.207806 11440 data_layer.cpp:41] output data size: 64,1,28,28
I0424 17:32:53.208971 11440 net.cpp:150] Setting up mnist
I0424 17:32:53.209033 11440 net.cpp:157] Top shape: 64 1 28 28 (50176)
I0424 17:32:53.209060 11440 net.cpp:157] Top shape: 64 (64)
I0424 17:32:53.209081 11440 net.cpp:165] Memory required for data: 200960
I0424 17:32:53.209110 11440 layer_factory.hpp:77] Creating layer conv1
I0424 17:32:53.209147 11440 net.cpp:106] Creating Layer conv1
I0424 17:32:53.209173 11440 net.cpp:454] conv1 <- data
I0424 17:32:53.209208 11440 net.cpp:411] conv1 -> conv1
I0424 17:32:53.367671 11440 net.cpp:150] Setting up conv1
I0424 17:32:53.367738 11440 net.cpp:157] Top shape: 64 20 24 24 (737280)
I0424 17:32:53.367763 11440 net.cpp:165] Memory required for data: 3150080
I0424 17:32:53.367820 11440 layer_factory.hpp:77] Creating layer pool1
I0424 17:32:53.367863 11440 net.cpp:106] Creating Layer pool1
I0424 17:32:53.367887 11440 net.cpp:454] pool1 <- conv1
I0424 17:32:53.367924 11440 net.cpp:411] pool1 -> pool1
I0424 17:32:53.368787 11440 net.cpp:150] Setting up pool1
I0424 17:32:53.368824 11440 net.cpp:157] Top shape: 64 20 12 12 (184320)
I0424 17:32:53.368846 11440 net.cpp:165] Memory required for data: 3887360
I0424 17:32:53.368868 11440 layer_factory.hpp:77] Creating layer conv2
I0424 17:32:53.368906 11440 net.cpp:106] Creating Layer conv2
I0424 17:32:53.368932 11440 net.cpp:454] conv2 <- pool1
I0424 17:32:53.368958 11440 net.cpp:411] conv2 -> conv2
I0424 17:32:53.371763 11440 net.cpp:150] Setting up conv2
I0424 17:32:53.371800 11440 net.cpp:157] Top shape: 64 50 8 8 (204800)
I0424 17:32:53.371824 11440 net.cpp:165] Memory required for data: 4706560
I0424 17:32:53.371853 11440 layer_factory.hpp:77] Creating layer pool2
I0424 17:32:53.371879 11440 net.cpp:106] Creating Layer pool2
I0424 17:32:53.371901 11440 net.cpp:454] pool2 <- conv2
I0424 17:32:53.371924 11440 net.cpp:411] pool2 -> pool2
I0424 17:32:53.372728 11440 net.cpp:150] Setting up pool2
I0424 17:32:53.372763 11440 net.cpp:157] Top shape: 64 50 4 4 (51200)
I0424 17:32:53.372786 11440 net.cpp:165] Memory required for data: 4911360
I0424 17:32:53.372807 11440 layer_factory.hpp:77] Creating layer ip1
I0424 17:32:53.372833 11440 net.cpp:106] Creating Layer ip1
I0424 17:32:53.372856 11440 net.cpp:454] ip1 <- pool2
I0424 17:32:53.372880 11440 net.cpp:411] ip1 -> ip1
I0424 17:32:53.373622 11440 net.cpp:150] Setting up ip1
I0424 17:32:53.373641 11440 net.cpp:157] Top shape: 64 16 (1024)
I0424 17:32:53.373647 11440 net.cpp:165] Memory required for data: 4915456
I0424 17:32:53.373661 11440 layer_factory.hpp:77] Creating layer relu1
I0424 17:32:53.373672 11440 net.cpp:106] Creating Layer relu1
I0424 17:32:53.373682 11440 net.cpp:454] relu1 <- ip1
I0424 17:32:53.373688 11440 net.cpp:397] relu1 -> ip1 (in-place)
I0424 17:32:53.374421 11440 net.cpp:150] Setting up relu1
I0424 17:32:53.374438 11440 net.cpp:157] Top shape: 64 16 (1024)
I0424 17:32:53.374442 11440 net.cpp:165] Memory required for data: 4919552
I0424 17:32:53.374447 11440 layer_factory.hpp:77] Creating layer ip2
I0424 17:32:53.374457 11440 net.cpp:106] Creating Layer ip2
I0424 17:32:53.374467 11440 net.cpp:454] ip2 <- ip1
I0424 17:32:53.374476 11440 net.cpp:411] ip2 -> ip2
I0424 17:32:53.375068 11440 net.cpp:150] Setting up ip2
I0424 17:32:53.375084 11440 net.cpp:157] Top shape: 64 100 (6400)
I0424 17:32:53.375090 11440 net.cpp:165] Memory required for data: 4945152
I0424 17:32:53.375099 11440 layer_factory.hpp:77] Creating layer loss
I0424 17:32:53.375110 11440 net.cpp:106] Creating Layer loss
I0424 17:32:53.375118 11440 net.cpp:454] loss <- ip2
I0424 17:32:53.375123 11440 net.cpp:454] loss <- label
I0424 17:32:53.375133 11440 net.cpp:411] loss -> loss
I0424 17:32:53.375160 11440 layer_factory.hpp:77] Creating layer loss
…
I0424 17:32:53.376579 11440 solver.cpp:181] Creating test net (#0) specified by net file: examples/mnist/test/lenet_train_test.prototxt
I0424 17:32:53.376616 11440 net.cpp:322] The NetState phase (1) differed from the phase (0) specified by a rule in layer mnist
I0424 17:32:53.376754 11440 net.cpp:49] Initializing net from parameters: 
name: "LeNet"
state {
  phase: TEST
}
layer {
  name: "mnist"
  type: "Data"
  top: "data"
  top: "label"
  include {
    phase: TEST
  }
  transform_param {
    scale: 0.00390625
  }
  data_param {
    source: "examples/mnist/mnist_test_lmdb"
    batch_size: 100
    backend: LMDB
  }
}
layer {
  name: "conv1"
  type: "Convolution"
  bottom: "data"
  top: "conv1"
  param {
    lr_mult: 1
  }
  param {
    lr_mult: 2
  }
  convolution_param {
    num_output: 20
    kernel_size: 5
    stride: 1
    weight_filler {
      type: "xavier"
    }
    bias_filler {
      type: "constant"
    }
  }
}
layer {
  name: "pool1"
  type: "Pooling"
  bottom: "conv1"
  top: "pool1"
  pooling_param {
    pool: MAX
    kernel_size: 2
    stride: 2
  }
}
layer {
  name: "conv2"
  type: "Convolution"
  bottom: "pool1"
  top: "conv2"
  param {
    lr_mult: 1
  }
  param {
    lr_mult: 2
  }
  convolution_param {
    num_output: 50
    kernel_size: 5
    stride: 1
    weight_filler {
      type: "xavier"
    }
    bias_filler {
      type: "constant"
    }
  }
}
layer {
  name: "pool2"
  type: "Pooling"
  bottom: "conv2"
  top: "pool2"
  pooling_param {
    pool: MAX
    kernel_size: 2
    stride: 2
  }
}
layer {
  name: "ip1"
  type: "InnerProduct"
  bottom: "pool2"
  top: "ip1"
  param {
    lr_mult: 1
  }
  param {
    lr_mult: 2
  }
  inner_product_param {
    num_output: 16
    weight_filler {
      type: "xavier"
    }
    bias_filler {
      type: "constant"
    }
  }
}
layer {
  name: "relu1"
  type: "ReLU"
  bottom: "ip1"
  top: "ip1"
}
layer {
  name: "ip2"
  type: "InnerProduct"
  bottom: "ip1"
  top: "ip2"
  param {
    lr_mult: 1
  }
  param {
    lr_mult: 2
  }
  inner_product_param {
    num_output: 100
    weight_filler {
      type: "xavier"
    }
    bias_filler {
      type: "constant"
    }
  }
}
layer {
  name: "accuracy"
  type: "Accuracy"
  bottom: "ip2"
  bottom: "label"
  top: "accuracy"
  include {
    phase: TEST
  }
}
layer {
  name: "loss"
  type: "SoftmaxWithLoss"
  bottom: "ip2"
  bottom: "label"
  top: "loss"
}
I0424 17:32:53.376847 11440 layer_factory.hpp:77] Creating layer mnist
I0424 17:32:53.376981 11440 net.cpp:106] Creating Layer mnist
I0424 17:32:53.376992 11440 net.cpp:411] mnist -> data
I0424 17:32:53.377003 11440 net.cpp:411] mnist -> label
I0424 17:32:53.377918 11448 db_lmdb.cpp:38] Opened lmdb examples/mnist/mnist_test_lmdb
I0424 17:32:53.378043 11440 data_layer.cpp:41] output data size: 100,1,28,28
I0424 17:32:53.379058 11440 net.cpp:150] Setting up mnist
I0424 17:32:53.379076 11440 net.cpp:157] Top shape: 100 1 28 28 (78400)
I0424 17:32:53.379084 11440 net.cpp:157] Top shape: 100 (100)
I0424 17:32:53.379088 11440 net.cpp:165] Memory required for data: 314000
I0424 17:32:53.379094 11440 layer_factory.hpp:77] Creating layer label_mnist_1_split
I0424 17:32:53.379103 11440 net.cpp:106] Creating Layer label_mnist_1_split
I0424 17:32:53.379112 11440 net.cpp:454] label_mnist_1_split <- label
I0424 17:32:53.379120 11440 net.cpp:411] label_mnist_1_split -> label_mnist_1_split_0
I0424 17:32:53.379132 11440 net.cpp:411] label_mnist_1_split -> label_mnist_1_split_1
I0424 17:32:53.379200 11440 net.cpp:150] Setting up label_mnist_1_split
I0424 17:32:53.379214 11440 net.cpp:157] Top shape: 100 (100)
I0424 17:32:53.379220 11440 net.cpp:157] Top shape: 100 (100)
I0424 17:32:53.379225 11440 net.cpp:165] Memory required for data: 314800
I0424 17:32:53.379230 11440 layer_factory.hpp:77] Creating layer conv1
I0424 17:32:53.379240 11440 net.cpp:106] Creating Layer conv1
I0424 17:32:53.379247 11440 net.cpp:454] conv1 <- data
I0424 17:32:53.379254 11440 net.cpp:411] conv1 -> conv1
I0424 17:32:53.382277 11440 net.cpp:150] Setting up conv1
I0424 17:32:53.382294 11440 net.cpp:157] Top shape: 100 20 24 24 (1152000)
I0424 17:32:53.382302 11440 net.cpp:165] Memory required for data: 4922800
I0424 17:32:53.382314 11440 layer_factory.hpp:77] Creating layer pool1
I0424 17:32:53.382328 11440 net.cpp:106] Creating Layer pool1
I0424 17:32:53.382350 11440 net.cpp:454] pool1 <- conv1
I0424 17:32:53.382359 11440 net.cpp:411] pool1 -> pool1
I0424 17:32:53.383203 11440 net.cpp:150] Setting up pool1
I0424 17:32:53.383221 11440 net.cpp:157] Top shape: 100 20 12 12 (288000)
I0424 17:32:53.383227 11440 net.cpp:165] Memory required for data: 6074800
I0424 17:32:53.383232 11440 layer_factory.hpp:77] Creating layer conv2
I0424 17:32:53.383246 11440 net.cpp:106] Creating Layer conv2
I0424 17:32:53.383255 11440 net.cpp:454] conv2 <- pool1
I0424 17:32:53.383266 11440 net.cpp:411] conv2 -> conv2
I0424 17:32:53.386132 11440 net.cpp:150] Setting up conv2
I0424 17:32:53.386148 11440 net.cpp:157] Top shape: 100 50 8 8 (320000)
I0424 17:32:53.386155 11440 net.cpp:165] Memory required for data: 7354800
I0424 17:32:53.386167 11440 layer_factory.hpp:77] Creating layer pool2
I0424 17:32:53.386180 11440 net.cpp:106] Creating Layer pool2
I0424 17:32:53.386188 11440 net.cpp:454] pool2 <- conv2
I0424 17:32:53.386194 11440 net.cpp:411] pool2 -> pool2
I0424 17:32:53.387115 11440 net.cpp:150] Setting up pool2
I0424 17:32:53.387133 11440 net.cpp:157] Top shape: 100 50 4 4 (80000)
I0424 17:32:53.387140 11440 net.cpp:165] Memory required for data: 7674800
I0424 17:32:53.387145 11440 layer_factory.hpp:77] Creating layer ip1
I0424 17:32:53.387153 11440 net.cpp:106] Creating Layer ip1
I0424 17:32:53.387159 11440 net.cpp:454] ip1 <- pool2
I0424 17:32:53.387168 11440 net.cpp:411] ip1 -> ip1
I0424 17:32:53.387399 11440 net.cpp:150] Setting up ip1
I0424 17:32:53.387411 11440 net.cpp:157] Top shape: 100 16 (1600)
I0424 17:32:53.387418 11440 net.cpp:165] Memory required for data: 7681200
I0424 17:32:53.387428 11440 layer_factory.hpp:77] Creating layer relu1
I0424 17:32:53.387439 11440 net.cpp:106] Creating Layer relu1
I0424 17:32:53.387447 11440 net.cpp:454] relu1 <- ip1
I0424 17:32:53.387454 11440 net.cpp:397] relu1 -> ip1 (in-place)
I0424 17:32:53.388232 11440 net.cpp:150] Setting up relu1
I0424 17:32:53.388247 11440 net.cpp:157] Top shape: 100 16 (1600)
I0424 17:32:53.388253 11440 net.cpp:165] Memory required for data: 7687600
I0424 17:32:53.388258 11440 layer_factory.hpp:77] Creating layer ip2
I0424 17:32:53.388273 11440 net.cpp:106] Creating Layer ip2
I0424 17:32:53.388280 11440 net.cpp:454] ip2 <- ip1
I0424 17:32:53.388289 11440 net.cpp:411] ip2 -> ip2
I0424 17:32:53.388442 11440 net.cpp:150] Setting up ip2
I0424 17:32:53.388453 11440 net.cpp:157] Top shape: 100 100 (10000)
I0424 17:32:53.388458 11440 net.cpp:165] Memory required for data: 7727600
I0424 17:32:53.388468 11440 layer_factory.hpp:77] Creating layer ip2_ip2_0_split
I0424 17:32:53.388474 11440 net.cpp:106] Creating Layer ip2_ip2_0_split
I0424 17:32:53.388479 11440 net.cpp:454] ip2_ip2_0_split <- ip2
I0424 17:32:53.388487 11440 net.cpp:411] ip2_ip2_0_split -> ip2_ip2_0_split_0
I0424 17:32:53.388499 11440 net.cpp:411] ip2_ip2_0_split -> ip2_ip2_0_split_1
I0424 17:32:53.388543 11440 net.cpp:150] Setting up ip2_ip2_0_split
I0424 17:32:53.388553 11440 net.cpp:157] Top shape: 100 100 (10000)
I0424 17:32:53.388559 11440 net.cpp:157] Top shape: 100 100 (10000)
I0424 17:32:53.388563 11440 net.cpp:165] Memory required for data: 7807600
I0424 17:32:53.388568 11440 layer_factory.hpp:77] Creating layer accuracy
I0424 17:32:53.388578 11440 net.cpp:106] Creating Layer accuracy
I0424 17:32:53.388583 11440 net.cpp:454] accuracy <- ip2_ip2_0_split_0
I0424 17:32:53.388588 11440 net.cpp:454] accuracy <- label_mnist_1_split_0
I0424 17:32:53.388597 11440 net.cpp:411] accuracy -> accuracy
…
