…
I0428 22:32:53.734935  2397 net.cpp:322] The NetState phase (0) differed from the phase (1) specified by a rule in layer mnist
I0428 22:32:53.734979  2397 net.cpp:322] The NetState phase (0) differed from the phase (1) specified by a rule in layer accuracy
I0428 22:32:53.735121  2397 net.cpp:49] Initializing net from parameters: 
name: "LeNet"
state {
  phase: TRAIN
}
layer {
  name: "mnist"
  type: "Data"
  top: "data"
  top: "label"
  include {
    phase: TRAIN
  }
  transform_param {
    scale: 0.00390625
  }
  data_param {
    source: "examples/mnist/mnist_train_lmdb"
    batch_size: 64
    backend: LMDB
  }
}
layer {
  name: "conv1"
  type: "Convolution"
  bottom: "data"
  top: "conv1"
  param {
    lr_mult: 1
  }
  param {
    lr_mult: 2
  }
  convolution_param {
    num_output: 20
    kernel_size: 5
    stride: 1
    weight_filler {
      type: "xavier"
    }
    bias_filler {
      type: "constant"
    }
  }
}
layer {
  name: "pool1"
  type: "Pooling"
  bottom: "conv1"
  top: "pool1"
  pooling_param {
    pool: MAX
    kernel_size: 2
    stride: 2
  }
}
layer {
  name: "drop1"
  type: "Dropout"
  bottom: "pool1"
  top: "pool1"
  dropout_param {
    dropout_ratio: 0.5
  }
}
layer {
  name: "conv2"
  type: "Convolution"
  bottom: "pool1"
  top: "conv2"
  param {
    lr_mult: 1
  }
  param {
    lr_mult: 2
  }
  convolution_param {
    num_output: 50
    kernel_size: 5
    stride: 1
    weight_filler {
      type: "xavier"
    }
    bias_filler {
      type: "constant"
    }
  }
}
layer {
  name: "pool2"
  type: "Pooling"
  bottom: "conv2"
  top: "pool2"
  pooling_param {
    pool: MAX
    kernel_size: 2
    stride: 2
  }
}
layer {
  name: "drop2"
  type: "Dropout"
  bottom: "pool2"
  top: "pool2"
  dropout_param {
    dropout_ratio: 0.5
  }
}
layer {
  name: "ip1"
  type: "InnerProduct"
  bottom: "pool2"
  top: "ip1"
  param {
    lr_mult: 1
  }
  param {
    lr_mult: 2
  }
  inner_product_param {
    num_output: 500
    weight_filler {
      type: "xavier"
    }
    bias_filler {
      type: "constant"
    }
  }
}
layer {
  name: "relu1"
  type: "ReLU"
  bottom: "ip1"
  top: "ip1"
}
layer {
  name: "ip2"
  type: "InnerProduct"
  bottom: "ip1"
  top: "ip2"
  param {
    lr_mult: 1
  }
  param {
    lr_mult: 2
  }
  inner_product_param {
    num_output: 10
    weight_filler {
      type: "xavier"
    }
    bias_filler {
      type: "constant"
    }
  }
}
layer {
  name: "loss"
  type: "SoftmaxWithLoss"
  bottom: "ip2"
  bottom: "label"
  top: "loss"
}
I0428 22:32:53.735769  2397 layer_factory.hpp:77] Creating layer mnist
I0428 22:32:53.740918  2397 net.cpp:106] Creating Layer mnist
I0428 22:32:53.740985  2397 net.cpp:411] mnist -> data
I0428 22:32:53.741045  2397 net.cpp:411] mnist -> label
I0428 22:32:53.741979  2404 db_lmdb.cpp:38] Opened lmdb examples/mnist/mnist_train_lmdb
I0428 22:32:53.750767  2397 data_layer.cpp:41] output data size: 64,1,28,28
I0428 22:32:53.752918  2397 net.cpp:150] Setting up mnist
I0428 22:32:53.753001  2397 net.cpp:157] Top shape: 64 1 28 28 (50176)
I0428 22:32:53.753028  2397 net.cpp:157] Top shape: 64 (64)
I0428 22:32:53.753048  2397 net.cpp:165] Memory required for data: 200960
I0428 22:32:53.753075  2397 layer_factory.hpp:77] Creating layer conv1
I0428 22:32:53.753119  2397 net.cpp:106] Creating Layer conv1
I0428 22:32:53.753144  2397 net.cpp:454] conv1 <- data
I0428 22:32:53.753170  2397 net.cpp:411] conv1 -> conv1
I0428 22:32:53.912925  2397 net.cpp:150] Setting up conv1
I0428 22:32:53.913008  2397 net.cpp:157] Top shape: 64 20 24 24 (737280)
I0428 22:32:53.913033  2397 net.cpp:165] Memory required for data: 3150080
I0428 22:32:53.913089  2397 layer_factory.hpp:77] Creating layer pool1
I0428 22:32:53.913142  2397 net.cpp:106] Creating Layer pool1
I0428 22:32:53.913168  2397 net.cpp:454] pool1 <- conv1
I0428 22:32:53.913197  2397 net.cpp:411] pool1 -> pool1
I0428 22:32:53.914075  2397 net.cpp:150] Setting up pool1
I0428 22:32:53.914116  2397 net.cpp:157] Top shape: 64 20 12 12 (184320)
I0428 22:32:53.914139  2397 net.cpp:165] Memory required for data: 3887360
I0428 22:32:53.914162  2397 layer_factory.hpp:77] Creating layer drop1
I0428 22:32:53.914201  2397 net.cpp:106] Creating Layer drop1
I0428 22:32:53.914227  2397 net.cpp:454] drop1 <- pool1
I0428 22:32:53.914253  2397 net.cpp:397] drop1 -> pool1 (in-place)
I0428 22:32:53.914320  2397 net.cpp:150] Setting up drop1
I0428 22:32:53.914351  2397 net.cpp:157] Top shape: 64 20 12 12 (184320)
I0428 22:32:53.914374  2397 net.cpp:165] Memory required for data: 4624640
I0428 22:32:53.914397  2397 layer_factory.hpp:77] Creating layer conv2
I0428 22:32:53.914430  2397 net.cpp:106] Creating Layer conv2
I0428 22:32:53.914455  2397 net.cpp:454] conv2 <- pool1
I0428 22:32:53.914484  2397 net.cpp:411] conv2 -> conv2
I0428 22:32:53.917593  2397 net.cpp:150] Setting up conv2
I0428 22:32:53.917655  2397 net.cpp:157] Top shape: 64 50 8 8 (204800)
I0428 22:32:53.917681  2397 net.cpp:165] Memory required for data: 5443840
I0428 22:32:53.917714  2397 layer_factory.hpp:77] Creating layer pool2
I0428 22:32:53.917747  2397 net.cpp:106] Creating Layer pool2
I0428 22:32:53.917773  2397 net.cpp:454] pool2 <- conv2
I0428 22:32:53.917804  2397 net.cpp:411] pool2 -> pool2
I0428 22:32:53.918694  2397 net.cpp:150] Setting up pool2
I0428 22:32:53.918732  2397 net.cpp:157] Top shape: 64 50 4 4 (51200)
I0428 22:32:53.918758  2397 net.cpp:165] Memory required for data: 5648640
I0428 22:32:53.918782  2397 layer_factory.hpp:77] Creating layer drop2
I0428 22:32:53.918807  2397 net.cpp:106] Creating Layer drop2
I0428 22:32:53.918826  2397 net.cpp:454] drop2 <- pool2
I0428 22:32:53.918851  2397 net.cpp:397] drop2 -> pool2 (in-place)
I0428 22:32:53.918905  2397 net.cpp:150] Setting up drop2
I0428 22:32:53.918936  2397 net.cpp:157] Top shape: 64 50 4 4 (51200)
I0428 22:32:53.918961  2397 net.cpp:165] Memory required for data: 5853440
I0428 22:32:53.918984  2397 layer_factory.hpp:77] Creating layer ip1
I0428 22:32:53.919016  2397 net.cpp:106] Creating Layer ip1
I0428 22:32:53.919042  2397 net.cpp:454] ip1 <- pool2
I0428 22:32:53.919071  2397 net.cpp:411] ip1 -> ip1
I0428 22:32:53.922792  2397 net.cpp:150] Setting up ip1
I0428 22:32:53.922869  2397 net.cpp:157] Top shape: 64 500 (32000)
I0428 22:32:53.922896  2397 net.cpp:165] Memory required for data: 5981440
I0428 22:32:53.922935  2397 layer_factory.hpp:77] Creating layer relu1
I0428 22:32:53.922971  2397 net.cpp:106] Creating Layer relu1
I0428 22:32:53.922996  2397 net.cpp:454] relu1 <- ip1
I0428 22:32:53.923024  2397 net.cpp:397] relu1 -> ip1 (in-place)
I0428 22:32:53.923964  2397 net.cpp:150] Setting up relu1
I0428 22:32:53.924005  2397 net.cpp:157] Top shape: 64 500 (32000)
I0428 22:32:53.924026  2397 net.cpp:165] Memory required for data: 6109440
I0428 22:32:53.924047  2397 layer_factory.hpp:77] Creating layer ip2
I0428 22:32:53.924075  2397 net.cpp:106] Creating Layer ip2
I0428 22:32:53.924098  2397 net.cpp:454] ip2 <- ip1
I0428 22:32:53.924129  2397 net.cpp:411] ip2 -> ip2
I0428 22:32:53.924824  2397 net.cpp:150] Setting up ip2
I0428 22:32:53.924862  2397 net.cpp:157] Top shape: 64 10 (640)
I0428 22:32:53.924887  2397 net.cpp:165] Memory required for data: 6112000
I0428 22:32:53.924926  2397 layer_factory.hpp:77] Creating layer loss
I0428 22:32:53.924965  2397 net.cpp:106] Creating Layer loss
I0428 22:32:53.924991  2397 net.cpp:454] loss <- ip2
I0428 22:32:53.925016  2397 net.cpp:454] loss <- label
I0428 22:32:53.925047  2397 net.cpp:411] loss -> loss
I0428 22:32:53.925089  2397 layer_factory.hpp:77] Creating layer loss
…
I0428 22:32:53.927109  2397 solver.cpp:181] Creating test net (#0) specified by net file: examples/mnist/test/lenet_train_test.prototxt
I0428 22:32:53.927168  2397 net.cpp:322] The NetState phase (1) differed from the phase (0) specified by a rule in layer mnist
I0428 22:32:53.927320  2397 net.cpp:49] Initializing net from parameters: 
name: "LeNet"
state {
  phase: TEST
}
layer {
  name: "mnist"
  type: "Data"
  top: "data"
  top: "label"
  include {
    phase: TEST
  }
  transform_param {
    scale: 0.00390625
  }
  data_param {
    source: "examples/mnist/mnist_test_lmdb"
    batch_size: 100
    backend: LMDB
  }
}
layer {
  name: "conv1"
  type: "Convolution"
  bottom: "data"
  top: "conv1"
  param {
    lr_mult: 1
  }
  param {
    lr_mult: 2
  }
  convolution_param {
    num_output: 20
    kernel_size: 5
    stride: 1
    weight_filler {
      type: "xavier"
    }
    bias_filler {
      type: "constant"
    }
  }
}
layer {
  name: "pool1"
  type: "Pooling"
  bottom: "conv1"
  top: "pool1"
  pooling_param {
    pool: MAX
    kernel_size: 2
    stride: 2
  }
}
layer {
  name: "drop1"
  type: "Dropout"
  bottom: "pool1"
  top: "pool1"
  dropout_param {
    dropout_ratio: 0.5
  }
}
layer {
  name: "conv2"
  type: "Convolution"
  bottom: "pool1"
  top: "conv2"
  param {
    lr_mult: 1
  }
  param {
    lr_mult: 2
  }
  convolution_param {
    num_output: 50
    kernel_size: 5
    stride: 1
    weight_filler {
      type: "xavier"
    }
    bias_filler {
      type: "constant"
    }
  }
}
layer {
  name: "pool2"
  type: "Pooling"
  bottom: "conv2"
  top: "pool2"
  pooling_param {
    pool: MAX
    kernel_size: 2
    stride: 2
  }
}
layer {
  name: "drop2"
  type: "Dropout"
  bottom: "pool2"
  top: "pool2"
  dropout_param {
    dropout_ratio: 0.5
  }
}
layer {
  name: "ip1"
  type: "InnerProduct"
  bottom: "pool2"
  top: "ip1"
  param {
    lr_mult: 1
  }
  param {
    lr_mult: 2
  }
  inner_product_param {
    num_output: 500
    weight_filler {
      type: "xavier"
    }
    bias_filler {
      type: "constant"
    }
  }
}
layer {
  name: "relu1"
  type: "ReLU"
  bottom: "ip1"
  top: "ip1"
}
layer {
  name: "ip2"
  type: "InnerProduct"
  bottom: "ip1"
  top: "ip2"
  param {
    lr_mult: 1
  }
  param {
    lr_mult: 2
  }
  inner_product_param {
    num_output: 10
    weight_filler {
      type: "xavier"
    }
    bias_filler {
      type: "constant"
    }
  }
}
layer {
  name: "accuracy"
  type: "Accuracy"
  bottom: "ip2"
  bottom: "label"
  top: "accuracy"
  include {
    phase: TEST
  }
}
layer {
  name: "loss"
  type: "SoftmaxWithLoss"
  bottom: "ip2"
  bottom: "label"
  top: "loss"
}
I0428 22:32:53.927978  2397 layer_factory.hpp:77] Creating layer mnist
I0428 22:32:53.932927  2397 net.cpp:106] Creating Layer mnist
I0428 22:32:53.933007  2397 net.cpp:411] mnist -> data
I0428 22:32:53.933050  2397 net.cpp:411] mnist -> label
I0428 22:32:53.934000  2406 db_lmdb.cpp:38] Opened lmdb examples/mnist/mnist_test_lmdb
I0428 22:32:53.934177  2397 data_layer.cpp:41] output data size: 100,1,28,28
I0428 22:32:53.935365  2397 net.cpp:150] Setting up mnist
I0428 22:32:53.935417  2397 net.cpp:157] Top shape: 100 1 28 28 (78400)
I0428 22:32:53.935441  2397 net.cpp:157] Top shape: 100 (100)
I0428 22:32:53.935456  2397 net.cpp:165] Memory required for data: 314000
I0428 22:32:53.935473  2397 layer_factory.hpp:77] Creating layer label_mnist_1_split
I0428 22:32:53.935500  2397 net.cpp:106] Creating Layer label_mnist_1_split
I0428 22:32:53.935520  2397 net.cpp:454] label_mnist_1_split <- label
I0428 22:32:53.935539  2397 net.cpp:411] label_mnist_1_split -> label_mnist_1_split_0
I0428 22:32:53.935561  2397 net.cpp:411] label_mnist_1_split -> label_mnist_1_split_1
I0428 22:32:53.935626  2397 net.cpp:150] Setting up label_mnist_1_split
I0428 22:32:53.935652  2397 net.cpp:157] Top shape: 100 (100)
I0428 22:32:53.935669  2397 net.cpp:157] Top shape: 100 (100)
I0428 22:32:53.935684  2397 net.cpp:165] Memory required for data: 314800
I0428 22:32:53.935700  2397 layer_factory.hpp:77] Creating layer conv1
I0428 22:32:53.935730  2397 net.cpp:106] Creating Layer conv1
I0428 22:32:53.935748  2397 net.cpp:454] conv1 <- data
I0428 22:32:53.935770  2397 net.cpp:411] conv1 -> conv1
I0428 22:32:53.942952  2397 net.cpp:150] Setting up conv1
I0428 22:32:53.943024  2397 net.cpp:157] Top shape: 100 20 24 24 (1152000)
I0428 22:32:53.943050  2397 net.cpp:165] Memory required for data: 4922800
I0428 22:32:53.943084  2397 layer_factory.hpp:77] Creating layer pool1
I0428 22:32:53.943116  2397 net.cpp:106] Creating Layer pool1
I0428 22:32:53.943141  2397 net.cpp:454] pool1 <- conv1
I0428 22:32:53.943169  2397 net.cpp:411] pool1 -> pool1
I0428 22:32:53.944061  2397 net.cpp:150] Setting up pool1
I0428 22:32:53.944099  2397 net.cpp:157] Top shape: 100 20 12 12 (288000)
I0428 22:32:53.944125  2397 net.cpp:165] Memory required for data: 6074800
I0428 22:32:53.944145  2397 layer_factory.hpp:77] Creating layer drop1
I0428 22:32:53.944172  2397 net.cpp:106] Creating Layer drop1
I0428 22:32:53.944195  2397 net.cpp:454] drop1 <- pool1
I0428 22:32:53.944219  2397 net.cpp:397] drop1 -> pool1 (in-place)
I0428 22:32:53.944272  2397 net.cpp:150] Setting up drop1
I0428 22:32:53.944303  2397 net.cpp:157] Top shape: 100 20 12 12 (288000)
I0428 22:32:53.944321  2397 net.cpp:165] Memory required for data: 7226800
I0428 22:32:53.944341  2397 layer_factory.hpp:77] Creating layer conv2
I0428 22:32:53.944370  2397 net.cpp:106] Creating Layer conv2
I0428 22:32:53.944391  2397 net.cpp:454] conv2 <- pool1
I0428 22:32:53.944419  2397 net.cpp:411] conv2 -> conv2
I0428 22:32:53.947402  2397 net.cpp:150] Setting up conv2
I0428 22:32:53.947455  2397 net.cpp:157] Top shape: 100 50 8 8 (320000)
I0428 22:32:53.947480  2397 net.cpp:165] Memory required for data: 8506800
I0428 22:32:53.947510  2397 layer_factory.hpp:77] Creating layer pool2
I0428 22:32:53.947538  2397 net.cpp:106] Creating Layer pool2
I0428 22:32:53.947563  2397 net.cpp:454] pool2 <- conv2
I0428 22:32:53.947593  2397 net.cpp:411] pool2 -> pool2
I0428 22:32:53.948567  2397 net.cpp:150] Setting up pool2
I0428 22:32:53.948603  2397 net.cpp:157] Top shape: 100 50 4 4 (80000)
I0428 22:32:53.948627  2397 net.cpp:165] Memory required for data: 8826800
I0428 22:32:53.948650  2397 layer_factory.hpp:77] Creating layer drop2
I0428 22:32:53.948678  2397 net.cpp:106] Creating Layer drop2
I0428 22:32:53.948698  2397 net.cpp:454] drop2 <- pool2
I0428 22:32:53.948726  2397 net.cpp:397] drop2 -> pool2 (in-place)
I0428 22:32:53.948782  2397 net.cpp:150] Setting up drop2
I0428 22:32:53.948812  2397 net.cpp:157] Top shape: 100 50 4 4 (80000)
I0428 22:32:53.948832  2397 net.cpp:165] Memory required for data: 9146800
I0428 22:32:53.948854  2397 layer_factory.hpp:77] Creating layer ip1
I0428 22:32:53.948887  2397 net.cpp:106] Creating Layer ip1
I0428 22:32:53.948920  2397 net.cpp:454] ip1 <- pool2
I0428 22:32:53.948950  2397 net.cpp:411] ip1 -> ip1
I0428 22:32:53.952669  2397 net.cpp:150] Setting up ip1
I0428 22:32:53.952738  2397 net.cpp:157] Top shape: 100 500 (50000)
I0428 22:32:53.952760  2397 net.cpp:165] Memory required for data: 9346800
I0428 22:32:53.952803  2397 layer_factory.hpp:77] Creating layer relu1
I0428 22:32:53.952848  2397 net.cpp:106] Creating Layer relu1
I0428 22:32:53.952872  2397 net.cpp:454] relu1 <- ip1
I0428 22:32:53.952905  2397 net.cpp:397] relu1 -> ip1 (in-place)
I0428 22:32:53.953871  2397 net.cpp:150] Setting up relu1
I0428 22:32:53.953910  2397 net.cpp:157] Top shape: 100 500 (50000)
I0428 22:32:53.953938  2397 net.cpp:165] Memory required for data: 9546800
I0428 22:32:53.953961  2397 layer_factory.hpp:77] Creating layer ip2
I0428 22:32:53.953991  2397 net.cpp:106] Creating Layer ip2
I0428 22:32:53.954017  2397 net.cpp:454] ip2 <- ip1
I0428 22:32:53.954042  2397 net.cpp:411] ip2 -> ip2
I0428 22:32:53.954267  2397 net.cpp:150] Setting up ip2
I0428 22:32:53.954299  2397 net.cpp:157] Top shape: 100 10 (1000)
I0428 22:32:53.954324  2397 net.cpp:165] Memory required for data: 9550800
I0428 22:32:53.954352  2397 layer_factory.hpp:77] Creating layer ip2_ip2_0_split
I0428 22:32:53.954378  2397 net.cpp:106] Creating Layer ip2_ip2_0_split
I0428 22:32:53.954402  2397 net.cpp:454] ip2_ip2_0_split <- ip2
I0428 22:32:53.954432  2397 net.cpp:411] ip2_ip2_0_split -> ip2_ip2_0_split_0
I0428 22:32:53.954463  2397 net.cpp:411] ip2_ip2_0_split -> ip2_ip2_0_split_1
I0428 22:32:53.954536  2397 net.cpp:150] Setting up ip2_ip2_0_split
I0428 22:32:53.954567  2397 net.cpp:157] Top shape: 100 10 (1000)
I0428 22:32:53.954588  2397 net.cpp:157] Top shape: 100 10 (1000)
I0428 22:32:53.954608  2397 net.cpp:165] Memory required for data: 9558800
I0428 22:32:53.954627  2397 layer_factory.hpp:77] Creating layer accuracy
I0428 22:32:53.954658  2397 net.cpp:106] Creating Layer accuracy
I0428 22:32:53.954680  2397 net.cpp:454] accuracy <- ip2_ip2_0_split_0
I0428 22:32:53.954697  2397 net.cpp:454] accuracy <- label_mnist_1_split_0
I0428 22:32:53.954722  2397 net.cpp:411] accuracy -> accuracy
…
