…
I0428 22:28:18.688202  2331 net.cpp:322] The NetState phase (0) differed from the phase (1) specified by a rule in layer mnist
I0428 22:28:18.688251  2331 net.cpp:322] The NetState phase (0) differed from the phase (1) specified by a rule in layer accuracy
I0428 22:28:18.688380  2331 net.cpp:49] Initializing net from parameters: 
name: "LeNet"
state {
  phase: TRAIN
}
layer {
  name: "mnist"
  type: "Data"
  top: "data"
  top: "label"
  include {
    phase: TRAIN
  }
  transform_param {
    scale: 0.00390625
  }
  data_param {
    source: "examples/mnist/mnist_train_lmdb"
    batch_size: 64
    backend: LMDB
  }
}
layer {
  name: "conv1"
  type: "Convolution"
  bottom: "data"
  top: "conv1"
  param {
    lr_mult: 1
  }
  param {
    lr_mult: 2
  }
  convolution_param {
    num_output: 20
    kernel_size: 5
    stride: 1
    weight_filler {
      type: "xavier"
    }
    bias_filler {
      type: "constant"
    }
  }
}
layer {
  name: "pool1"
  type: "Pooling"
  bottom: "conv1"
  top: "pool1"
  pooling_param {
    pool: MAX
    kernel_size: 2
    stride: 2
  }
}
layer {
  name: "conv2"
  type: "Convolution"
  bottom: "pool1"
  top: "conv2"
  param {
    lr_mult: 1
  }
  param {
    lr_mult: 2
  }
  convolution_param {
    num_output: 50
    kernel_size: 5
    stride: 1
    weight_filler {
      type: "xavier"
    }
    bias_filler {
      type: "constant"
    }
  }
}
layer {
  name: "pool2"
  type: "Pooling"
  bottom: "conv2"
  top: "pool2"
  pooling_param {
    pool: MAX
    kernel_size: 2
    stride: 2
  }
}
layer {
  name: "ip1"
  type: "InnerProduct"
  bottom: "pool2"
  top: "ip1"
  param {
    lr_mult: 1
  }
  param {
    lr_mult: 2
  }
  inner_product_param {
    num_output: 500
    weight_filler {
      type: "xavier"
    }
    bias_filler {
      type: "constant"
    }
  }
}
layer {
  name: "relu1"
  type: "ReLU"
  bottom: "ip1"
  top: "ip1"
}
layer {
  name: "ip2"
  type: "InnerProduct"
  bottom: "ip1"
  top: "ip2"
  param {
    lr_mult: 1
  }
  param {
    lr_mult: 2
  }
  inner_product_param {
    num_output: 10
    weight_filler {
      type: "xavier"
    }
    bias_filler {
      type: "constant"
    }
  }
}
layer {
  name: "loss"
  type: "SoftmaxWithLoss"
  bottom: "ip2"
  bottom: "label"
  top: "loss"
}
I0428 22:28:18.688941  2331 layer_factory.hpp:77] Creating layer mnist
I0428 22:28:18.692919  2331 net.cpp:106] Creating Layer mnist
I0428 22:28:18.692982  2331 net.cpp:411] mnist -> data
I0428 22:28:18.693055  2331 net.cpp:411] mnist -> label
I0428 22:28:18.693969  2336 db_lmdb.cpp:38] Opened lmdb examples/mnist/mnist_train_lmdb
I0428 22:28:18.703341  2331 data_layer.cpp:41] output data size: 64,1,28,28
I0428 22:28:18.708920  2331 net.cpp:150] Setting up mnist
I0428 22:28:18.709008  2331 net.cpp:157] Top shape: 64 1 28 28 (50176)
I0428 22:28:18.709038  2331 net.cpp:157] Top shape: 64 (64)
I0428 22:28:18.709061  2331 net.cpp:165] Memory required for data: 200960
I0428 22:28:18.709092  2331 layer_factory.hpp:77] Creating layer conv1
I0428 22:28:18.709141  2331 net.cpp:106] Creating Layer conv1
I0428 22:28:18.709172  2331 net.cpp:454] conv1 <- data
I0428 22:28:18.709209  2331 net.cpp:411] conv1 -> conv1
I0428 22:28:18.880313  2331 net.cpp:150] Setting up conv1
I0428 22:28:18.880399  2331 net.cpp:157] Top shape: 64 20 24 24 (737280)
I0428 22:28:18.880421  2331 net.cpp:165] Memory required for data: 3150080
I0428 22:28:18.880462  2331 layer_factory.hpp:77] Creating layer pool1
I0428 22:28:18.880498  2331 net.cpp:106] Creating Layer pool1
I0428 22:28:18.880522  2331 net.cpp:454] pool1 <- conv1
I0428 22:28:18.880549  2331 net.cpp:411] pool1 -> pool1
I0428 22:28:18.881415  2331 net.cpp:150] Setting up pool1
I0428 22:28:18.881467  2331 net.cpp:157] Top shape: 64 20 12 12 (184320)
I0428 22:28:18.881492  2331 net.cpp:165] Memory required for data: 3887360
I0428 22:28:18.881516  2331 layer_factory.hpp:77] Creating layer conv2
I0428 22:28:18.881546  2331 net.cpp:106] Creating Layer conv2
I0428 22:28:18.881569  2331 net.cpp:454] conv2 <- pool1
I0428 22:28:18.881594  2331 net.cpp:411] conv2 -> conv2
I0428 22:28:18.884397  2331 net.cpp:150] Setting up conv2
I0428 22:28:18.884446  2331 net.cpp:157] Top shape: 64 50 8 8 (204800)
I0428 22:28:18.884471  2331 net.cpp:165] Memory required for data: 4706560
I0428 22:28:18.884505  2331 layer_factory.hpp:77] Creating layer pool2
I0428 22:28:18.884534  2331 net.cpp:106] Creating Layer pool2
I0428 22:28:18.884557  2331 net.cpp:454] pool2 <- conv2
I0428 22:28:18.884582  2331 net.cpp:411] pool2 -> pool2
I0428 22:28:18.885409  2331 net.cpp:150] Setting up pool2
I0428 22:28:18.885447  2331 net.cpp:157] Top shape: 64 50 4 4 (51200)
I0428 22:28:18.885470  2331 net.cpp:165] Memory required for data: 4911360
I0428 22:28:18.885493  2331 layer_factory.hpp:77] Creating layer ip1
I0428 22:28:18.885524  2331 net.cpp:106] Creating Layer ip1
I0428 22:28:18.885546  2331 net.cpp:454] ip1 <- pool2
I0428 22:28:18.885573  2331 net.cpp:411] ip1 -> ip1
I0428 22:28:18.889295  2331 net.cpp:150] Setting up ip1
I0428 22:28:18.889369  2331 net.cpp:157] Top shape: 64 500 (32000)
I0428 22:28:18.889390  2331 net.cpp:165] Memory required for data: 5039360
I0428 22:28:18.889425  2331 layer_factory.hpp:77] Creating layer relu1
I0428 22:28:18.889458  2331 net.cpp:106] Creating Layer relu1
I0428 22:28:18.889482  2331 net.cpp:454] relu1 <- ip1
I0428 22:28:18.889508  2331 net.cpp:397] relu1 -> ip1 (in-place)
I0428 22:28:18.890427  2331 net.cpp:150] Setting up relu1
I0428 22:28:18.890465  2331 net.cpp:157] Top shape: 64 500 (32000)
I0428 22:28:18.890489  2331 net.cpp:165] Memory required for data: 5167360
I0428 22:28:18.890511  2331 layer_factory.hpp:77] Creating layer ip2
I0428 22:28:18.890539  2331 net.cpp:106] Creating Layer ip2
I0428 22:28:18.890560  2331 net.cpp:454] ip2 <- ip1
I0428 22:28:18.890586  2331 net.cpp:411] ip2 -> ip2
I0428 22:28:18.891243  2331 net.cpp:150] Setting up ip2
I0428 22:28:18.891278  2331 net.cpp:157] Top shape: 64 10 (640)
I0428 22:28:18.891301  2331 net.cpp:165] Memory required for data: 5169920
I0428 22:28:18.891329  2331 layer_factory.hpp:77] Creating layer loss
I0428 22:28:18.891361  2331 net.cpp:106] Creating Layer loss
I0428 22:28:18.891386  2331 net.cpp:454] loss <- ip2
I0428 22:28:18.891409  2331 net.cpp:454] loss <- label
I0428 22:28:18.891436  2331 net.cpp:411] loss -> loss
I0428 22:28:18.891480  2331 layer_factory.hpp:77] Creating layer loss
…
I0428 22:28:18.893282  2331 solver.cpp:181] Creating test net (#0) specified by net file: examples/mnist/test/lenet_train_test.prototxt
I0428 22:28:18.893344  2331 net.cpp:322] The NetState phase (1) differed from the phase (0) specified by a rule in layer mnist
I0428 22:28:18.893501  2331 net.cpp:49] Initializing net from parameters: 
name: "LeNet"
state {
  phase: TEST
}
layer {
  name: "mnist"
  type: "Data"
  top: "data"
  top: "label"
  include {
    phase: TEST
  }
  transform_param {
    scale: 0.00390625
  }
  data_param {
    source: "examples/mnist/mnist_test_lmdb"
    batch_size: 100
    backend: LMDB
  }
}
layer {
  name: "conv1"
  type: "Convolution"
  bottom: "data"
  top: "conv1"
  param {
    lr_mult: 1
  }
  param {
    lr_mult: 2
  }
  convolution_param {
    num_output: 20
    kernel_size: 5
    stride: 1
    weight_filler {
      type: "xavier"
    }
    bias_filler {
      type: "constant"
    }
  }
}
layer {
  name: "pool1"
  type: "Pooling"
  bottom: "conv1"
  top: "pool1"
  pooling_param {
    pool: MAX
    kernel_size: 2
    stride: 2
  }
}
layer {
  name: "conv2"
  type: "Convolution"
  bottom: "pool1"
  top: "conv2"
  param {
    lr_mult: 1
  }
  param {
    lr_mult: 2
  }
  convolution_param {
    num_output: 50
    kernel_size: 5
    stride: 1
    weight_filler {
      type: "xavier"
    }
    bias_filler {
      type: "constant"
    }
  }
}
layer {
  name: "pool2"
  type: "Pooling"
  bottom: "conv2"
  top: "pool2"
  pooling_param {
    pool: MAX
    kernel_size: 2
    stride: 2
  }
}
layer {
  name: "ip1"
  type: "InnerProduct"
  bottom: "pool2"
  top: "ip1"
  param {
    lr_mult: 1
  }
  param {
    lr_mult: 2
  }
  inner_product_param {
    num_output: 500
    weight_filler {
      type: "xavier"
    }
    bias_filler {
      type: "constant"
    }
  }
}
layer {
  name: "relu1"
  type: "ReLU"
  bottom: "ip1"
  top: "ip1"
}
layer {
  name: "ip2"
  type: "InnerProduct"
  bottom: "ip1"
  top: "ip2"
  param {
    lr_mult: 1
  }
  param {
    lr_mult: 2
  }
  inner_product_param {
    num_output: 10
    weight_filler {
      type: "xavier"
    }
    bias_filler {
      type: "constant"
    }
  }
}
layer {
  name: "accuracy"
  type: "Accuracy"
  bottom: "ip2"
  bottom: "label"
  top: "accuracy"
  include {
    phase: TEST
  }
}
layer {
  name: "loss"
  type: "SoftmaxWithLoss"
  bottom: "ip2"
  bottom: "label"
  top: "loss"
}
I0428 22:28:18.894100  2331 layer_factory.hpp:77] Creating layer mnist
I0428 22:28:18.894266  2331 net.cpp:106] Creating Layer mnist
I0428 22:28:18.894302  2331 net.cpp:411] mnist -> data
I0428 22:28:18.894337  2331 net.cpp:411] mnist -> label
I0428 22:28:18.895293  2338 db_lmdb.cpp:38] Opened lmdb examples/mnist/mnist_test_lmdb
I0428 22:28:18.897058  2331 data_layer.cpp:41] output data size: 100,1,28,28
I0428 22:28:18.898227  2331 net.cpp:150] Setting up mnist
I0428 22:28:18.898265  2331 net.cpp:157] Top shape: 100 1 28 28 (78400)
I0428 22:28:18.898284  2331 net.cpp:157] Top shape: 100 (100)
I0428 22:28:18.898298  2331 net.cpp:165] Memory required for data: 314000
I0428 22:28:18.898313  2331 layer_factory.hpp:77] Creating layer label_mnist_1_split
I0428 22:28:18.898339  2331 net.cpp:106] Creating Layer label_mnist_1_split
I0428 22:28:18.898353  2331 net.cpp:454] label_mnist_1_split <- label
I0428 22:28:18.898370  2331 net.cpp:411] label_mnist_1_split -> label_mnist_1_split_0
I0428 22:28:18.898391  2331 net.cpp:411] label_mnist_1_split -> label_mnist_1_split_1
I0428 22:28:18.898458  2331 net.cpp:150] Setting up label_mnist_1_split
I0428 22:28:18.898480  2331 net.cpp:157] Top shape: 100 (100)
I0428 22:28:18.898495  2331 net.cpp:157] Top shape: 100 (100)
I0428 22:28:18.898509  2331 net.cpp:165] Memory required for data: 314800
I0428 22:28:18.898520  2331 layer_factory.hpp:77] Creating layer conv1
I0428 22:28:18.898546  2331 net.cpp:106] Creating Layer conv1
I0428 22:28:18.898563  2331 net.cpp:454] conv1 <- data
I0428 22:28:18.898581  2331 net.cpp:411] conv1 -> conv1
I0428 22:28:18.904943  2331 net.cpp:150] Setting up conv1
I0428 22:28:18.905016  2331 net.cpp:157] Top shape: 100 20 24 24 (1152000)
I0428 22:28:18.905037  2331 net.cpp:165] Memory required for data: 4922800
I0428 22:28:18.905071  2331 layer_factory.hpp:77] Creating layer pool1
I0428 22:28:18.905107  2331 net.cpp:106] Creating Layer pool1
I0428 22:28:18.905143  2331 net.cpp:454] pool1 <- conv1
I0428 22:28:18.905182  2331 net.cpp:411] pool1 -> pool1
I0428 22:28:18.906110  2331 net.cpp:150] Setting up pool1
I0428 22:28:18.906147  2331 net.cpp:157] Top shape: 100 20 12 12 (288000)
I0428 22:28:18.906172  2331 net.cpp:165] Memory required for data: 6074800
I0428 22:28:18.906193  2331 layer_factory.hpp:77] Creating layer conv2
I0428 22:28:18.906226  2331 net.cpp:106] Creating Layer conv2
I0428 22:28:18.906249  2331 net.cpp:454] conv2 <- pool1
I0428 22:28:18.906275  2331 net.cpp:411] conv2 -> conv2
I0428 22:28:18.909103  2331 net.cpp:150] Setting up conv2
I0428 22:28:18.909176  2331 net.cpp:157] Top shape: 100 50 8 8 (320000)
I0428 22:28:18.909198  2331 net.cpp:165] Memory required for data: 7354800
I0428 22:28:18.909230  2331 layer_factory.hpp:77] Creating layer pool2
I0428 22:28:18.909263  2331 net.cpp:106] Creating Layer pool2
I0428 22:28:18.909286  2331 net.cpp:454] pool2 <- conv2
I0428 22:28:18.909312  2331 net.cpp:411] pool2 -> pool2
I0428 22:28:18.910266  2331 net.cpp:150] Setting up pool2
I0428 22:28:18.910305  2331 net.cpp:157] Top shape: 100 50 4 4 (80000)
I0428 22:28:18.910327  2331 net.cpp:165] Memory required for data: 7674800
I0428 22:28:18.910351  2331 layer_factory.hpp:77] Creating layer ip1
I0428 22:28:18.910382  2331 net.cpp:106] Creating Layer ip1
I0428 22:28:18.910408  2331 net.cpp:454] ip1 <- pool2
I0428 22:28:18.910435  2331 net.cpp:411] ip1 -> ip1
I0428 22:28:18.914191  2331 net.cpp:150] Setting up ip1
I0428 22:28:18.914255  2331 net.cpp:157] Top shape: 100 500 (50000)
I0428 22:28:18.914275  2331 net.cpp:165] Memory required for data: 7874800
I0428 22:28:18.914311  2331 layer_factory.hpp:77] Creating layer relu1
I0428 22:28:18.914341  2331 net.cpp:106] Creating Layer relu1
I0428 22:28:18.914363  2331 net.cpp:454] relu1 <- ip1
I0428 22:28:18.914391  2331 net.cpp:397] relu1 -> ip1 (in-place)
I0428 22:28:18.915283  2331 net.cpp:150] Setting up relu1
I0428 22:28:18.915320  2331 net.cpp:157] Top shape: 100 500 (50000)
I0428 22:28:18.915344  2331 net.cpp:165] Memory required for data: 8074800
I0428 22:28:18.915367  2331 layer_factory.hpp:77] Creating layer ip2
I0428 22:28:18.915400  2331 net.cpp:106] Creating Layer ip2
I0428 22:28:18.915423  2331 net.cpp:454] ip2 <- ip1
I0428 22:28:18.915449  2331 net.cpp:411] ip2 -> ip2
I0428 22:28:18.915654  2331 net.cpp:150] Setting up ip2
I0428 22:28:18.915688  2331 net.cpp:157] Top shape: 100 10 (1000)
I0428 22:28:18.915709  2331 net.cpp:165] Memory required for data: 8078800
I0428 22:28:18.915737  2331 layer_factory.hpp:77] Creating layer ip2_ip2_0_split
I0428 22:28:18.915763  2331 net.cpp:106] Creating Layer ip2_ip2_0_split
I0428 22:28:18.915786  2331 net.cpp:454] ip2_ip2_0_split <- ip2
I0428 22:28:18.915812  2331 net.cpp:411] ip2_ip2_0_split -> ip2_ip2_0_split_0
I0428 22:28:18.915841  2331 net.cpp:411] ip2_ip2_0_split -> ip2_ip2_0_split_1
I0428 22:28:18.915909  2331 net.cpp:150] Setting up ip2_ip2_0_split
I0428 22:28:18.915937  2331 net.cpp:157] Top shape: 100 10 (1000)
I0428 22:28:18.915961  2331 net.cpp:157] Top shape: 100 10 (1000)
I0428 22:28:18.915982  2331 net.cpp:165] Memory required for data: 8086800
I0428 22:28:18.916003  2331 layer_factory.hpp:77] Creating layer accuracy
I0428 22:28:18.916028  2331 net.cpp:106] Creating Layer accuracy
I0428 22:28:18.916049  2331 net.cpp:454] accuracy <- ip2_ip2_0_split_0
I0428 22:28:18.916072  2331 net.cpp:454] accuracy <- label_mnist_1_split_0
I0428 22:28:18.916100  2331 net.cpp:411] accuracy -> accuracy
…
