…
I0428 22:23:27.091197  2164 net.cpp:322] The NetState phase (0) differed from the phase (1) specified by a rule in layer mnist
I0428 22:23:27.091239  2164 net.cpp:322] The NetState phase (0) differed from the phase (1) specified by a rule in layer accuracy
I0428 22:23:27.091363  2164 net.cpp:49] Initializing net from parameters: 
name: "LeNet"
state {
  phase: TRAIN
}
layer {
  name: "mnist"
  type: "Data"
  top: "data"
  top: "label"
  include {
    phase: TRAIN
  }
  transform_param {
    scale: 0.00390625
  }
  data_param {
    source: "examples/mnist/mnist_train_lmdb"
    batch_size: 64
    backend: LMDB
  }
}
layer {
  name: "conv1"
  type: "Convolution"
  bottom: "data"
  top: "conv1"
  param {
    lr_mult: 1
  }
  param {
    lr_mult: 2
  }
  convolution_param {
    num_output: 20
    kernel_size: 5
    stride: 1
    weight_filler {
      type: "xavier"
    }
    bias_filler {
      type: "constant"
    }
  }
}
layer {
  name: "pool1"
  type: "Pooling"
  bottom: "conv1"
  top: "pool1"
  pooling_param {
    pool: MAX
    kernel_size: 2
    stride: 2
  }
}
layer {
  name: "conv2"
  type: "Convolution"
  bottom: "pool1"
  top: "conv2"
  param {
    lr_mult: 1
  }
  param {
    lr_mult: 2
  }
  convolution_param {
    num_output: 50
    kernel_size: 5
    stride: 1
    weight_filler {
      type: "xavier"
    }
    bias_filler {
      type: "constant"
    }
  }
}
layer {
  name: "pool2"
  type: "Pooling"
  bottom: "conv2"
  top: "pool2"
  pooling_param {
    pool: MAX
    kernel_size: 2
    stride: 2
  }
}
layer {
  name: "ip1"
  type: "InnerProduct"
  bottom: "pool2"
  top: "ip1"
  param {
    lr_mult: 1
  }
  param {
    lr_mult: 2
  }
  inner_product_param {
    num_output: 500
    weight_filler {
      type: "xavier"
    }
    bias_filler {
      type: "constant"
    }
  }
}
layer {
  name: "relu1"
  type: "ReLU"
  bottom: "ip1"
  top: "ip1"
}
layer {
  name: "ip2"
  type: "InnerProduct"
  bottom: "ip1"
  top: "ip2"
  param {
    lr_mult: 1
  }
  param {
    lr_mult: 2
  }
  inner_product_param {
    num_output: 10
    weight_filler {
      type: "xavier"
    }
    bias_filler {
      type: "constant"
    }
  }
}
layer {
  name: "relu2"
  type: "ReLU"
  bottom: "ip2"
  top: "relu2"
}
layer {
  name: "loss"
  type: "SoftmaxWithLoss"
  bottom: "relu2"
  bottom: "label"
  top: "loss"
}
I0428 22:23:27.091938  2164 layer_factory.hpp:77] Creating layer mnist
I0428 22:23:27.092650  2164 net.cpp:106] Creating Layer mnist
I0428 22:23:27.092695  2164 net.cpp:411] mnist -> data
I0428 22:23:27.092756  2164 net.cpp:411] mnist -> label
I0428 22:23:27.098004  2211 db_lmdb.cpp:38] Opened lmdb examples/mnist/mnist_train_lmdb
I0428 22:23:27.106983  2164 data_layer.cpp:41] output data size: 64,1,28,28
I0428 22:23:27.109946  2164 net.cpp:150] Setting up mnist
I0428 22:23:27.109990  2164 net.cpp:157] Top shape: 64 1 28 28 (50176)
I0428 22:23:27.110008  2164 net.cpp:157] Top shape: 64 (64)
I0428 22:23:27.110020  2164 net.cpp:165] Memory required for data: 200960
I0428 22:23:27.110040  2164 layer_factory.hpp:77] Creating layer conv1
I0428 22:23:27.110075  2164 net.cpp:106] Creating Layer conv1
I0428 22:23:27.110092  2164 net.cpp:454] conv1 <- data
I0428 22:23:27.110115  2164 net.cpp:411] conv1 -> conv1
I0428 22:23:27.270103  2164 net.cpp:150] Setting up conv1
I0428 22:23:27.270177  2164 net.cpp:157] Top shape: 64 20 24 24 (737280)
I0428 22:23:27.270198  2164 net.cpp:165] Memory required for data: 3150080
I0428 22:23:27.270239  2164 layer_factory.hpp:77] Creating layer pool1
I0428 22:23:27.270274  2164 net.cpp:106] Creating Layer pool1
I0428 22:23:27.270298  2164 net.cpp:454] pool1 <- conv1
I0428 22:23:27.270334  2164 net.cpp:411] pool1 -> pool1
I0428 22:23:27.271129  2164 net.cpp:150] Setting up pool1
I0428 22:23:27.271165  2164 net.cpp:157] Top shape: 64 20 12 12 (184320)
I0428 22:23:27.271189  2164 net.cpp:165] Memory required for data: 3887360
I0428 22:23:27.271212  2164 layer_factory.hpp:77] Creating layer conv2
I0428 22:23:27.271244  2164 net.cpp:106] Creating Layer conv2
I0428 22:23:27.271266  2164 net.cpp:454] conv2 <- pool1
I0428 22:23:27.271292  2164 net.cpp:411] conv2 -> conv2
I0428 22:23:27.274025  2164 net.cpp:150] Setting up conv2
I0428 22:23:27.274086  2164 net.cpp:157] Top shape: 64 50 8 8 (204800)
I0428 22:23:27.274109  2164 net.cpp:165] Memory required for data: 4706560
I0428 22:23:27.274143  2164 layer_factory.hpp:77] Creating layer pool2
I0428 22:23:27.274174  2164 net.cpp:106] Creating Layer pool2
I0428 22:23:27.274197  2164 net.cpp:454] pool2 <- conv2
I0428 22:23:27.274222  2164 net.cpp:411] pool2 -> pool2
I0428 22:23:27.275007  2164 net.cpp:150] Setting up pool2
I0428 22:23:27.275043  2164 net.cpp:157] Top shape: 64 50 4 4 (51200)
I0428 22:23:27.275068  2164 net.cpp:165] Memory required for data: 4911360
I0428 22:23:27.275090  2164 layer_factory.hpp:77] Creating layer ip1
I0428 22:23:27.275117  2164 net.cpp:106] Creating Layer ip1
I0428 22:23:27.275140  2164 net.cpp:454] ip1 <- pool2
I0428 22:23:27.275166  2164 net.cpp:411] ip1 -> ip1
I0428 22:23:27.279134  2164 net.cpp:150] Setting up ip1
I0428 22:23:27.279211  2164 net.cpp:157] Top shape: 64 500 (32000)
I0428 22:23:27.279232  2164 net.cpp:165] Memory required for data: 5039360
I0428 22:23:27.279264  2164 layer_factory.hpp:77] Creating layer relu1
I0428 22:23:27.279295  2164 net.cpp:106] Creating Layer relu1
I0428 22:23:27.279317  2164 net.cpp:454] relu1 <- ip1
I0428 22:23:27.279342  2164 net.cpp:397] relu1 -> ip1 (in-place)
I0428 22:23:27.280244  2164 net.cpp:150] Setting up relu1
I0428 22:23:27.280284  2164 net.cpp:157] Top shape: 64 500 (32000)
I0428 22:23:27.280308  2164 net.cpp:165] Memory required for data: 5167360
I0428 22:23:27.280331  2164 layer_factory.hpp:77] Creating layer ip2
I0428 22:23:27.280359  2164 net.cpp:106] Creating Layer ip2
I0428 22:23:27.280380  2164 net.cpp:454] ip2 <- ip1
I0428 22:23:27.280407  2164 net.cpp:411] ip2 -> ip2
I0428 22:23:27.281142  2164 net.cpp:150] Setting up ip2
I0428 22:23:27.281184  2164 net.cpp:157] Top shape: 64 10 (640)
I0428 22:23:27.281208  2164 net.cpp:165] Memory required for data: 5169920
I0428 22:23:27.281237  2164 layer_factory.hpp:77] Creating layer relu2
I0428 22:23:27.281266  2164 net.cpp:106] Creating Layer relu2
I0428 22:23:27.281288  2164 net.cpp:454] relu2 <- ip2
I0428 22:23:27.281311  2164 net.cpp:411] relu2 -> relu2
I0428 22:23:27.282162  2164 net.cpp:150] Setting up relu2
I0428 22:23:27.282198  2164 net.cpp:157] Top shape: 64 10 (640)
I0428 22:23:27.282222  2164 net.cpp:165] Memory required for data: 5172480
I0428 22:23:27.282244  2164 layer_factory.hpp:77] Creating layer loss
I0428 22:23:27.282277  2164 net.cpp:106] Creating Layer loss
I0428 22:23:27.282301  2164 net.cpp:454] loss <- relu2
I0428 22:23:27.282323  2164 net.cpp:454] loss <- label
I0428 22:23:27.282352  2164 net.cpp:411] loss -> loss
I0428 22:23:27.282385  2164 layer_factory.hpp:77] Creating layer loss
…
I0428 22:23:27.284209  2164 solver.cpp:181] Creating test net (#0) specified by net file: examples/mnist/test/lenet_train_test.prototxt
I0428 22:23:27.284268  2164 net.cpp:322] The NetState phase (1) differed from the phase (0) specified by a rule in layer mnist
I0428 22:23:27.284421  2164 net.cpp:49] Initializing net from parameters: 
name: "LeNet"
state {
  phase: TEST
}
layer {
  name: "mnist"
  type: "Data"
  top: "data"
  top: "label"
  include {
    phase: TEST
  }
  transform_param {
    scale: 0.00390625
  }
  data_param {
    source: "examples/mnist/mnist_test_lmdb"
    batch_size: 100
    backend: LMDB
  }
}
layer {
  name: "conv1"
  type: "Convolution"
  bottom: "data"
  top: "conv1"
  param {
    lr_mult: 1
  }
  param {
    lr_mult: 2
  }
  convolution_param {
    num_output: 20
    kernel_size: 5
    stride: 1
    weight_filler {
      type: "xavier"
    }
    bias_filler {
      type: "constant"
    }
  }
}
layer {
  name: "pool1"
  type: "Pooling"
  bottom: "conv1"
  top: "pool1"
  pooling_param {
    pool: MAX
    kernel_size: 2
    stride: 2
  }
}
layer {
  name: "conv2"
  type: "Convolution"
  bottom: "pool1"
  top: "conv2"
  param {
    lr_mult: 1
  }
  param {
    lr_mult: 2
  }
  convolution_param {
    num_output: 50
    kernel_size: 5
    stride: 1
    weight_filler {
      type: "xavier"
    }
    bias_filler {
      type: "constant"
    }
  }
}
layer {
  name: "pool2"
  type: "Pooling"
  bottom: "conv2"
  top: "pool2"
  pooling_param {
    pool: MAX
    kernel_size: 2
    stride: 2
  }
}
layer {
  name: "ip1"
  type: "InnerProduct"
  bottom: "pool2"
  top: "ip1"
  param {
    lr_mult: 1
  }
  param {
    lr_mult: 2
  }
  inner_product_param {
    num_output: 500
    weight_filler {
      type: "xavier"
    }
    bias_filler {
      type: "constant"
    }
  }
}
layer {
  name: "relu1"
  type: "ReLU"
  bottom: "ip1"
  top: "ip1"
}
layer {
  name: "ip2"
  type: "InnerProduct"
  bottom: "ip1"
  top: "ip2"
  param {
    lr_mult: 1
  }
  param {
    lr_mult: 2
  }
  inner_product_param {
    num_output: 10
    weight_filler {
      type: "xavier"
    }
    bias_filler {
      type: "constant"
    }
  }
}
layer {
  name: "relu2"
  type: "ReLU"
  bottom: "ip2"
  top: "relu2"
}
layer {
  name: "accuracy"
  type: "Accuracy"
  bottom: "relu2"
  bottom: "label"
  top: "accuracy"
  include {
    phase: TEST
  }
}
layer {
  name: "loss"
  type: "SoftmaxWithLoss"
  bottom: "relu2"
  bottom: "label"
  top: "loss"
}
I0428 22:23:27.285032  2164 layer_factory.hpp:77] Creating layer mnist
I0428 22:23:27.288928  2164 net.cpp:106] Creating Layer mnist
I0428 22:23:27.289006  2164 net.cpp:411] mnist -> data
I0428 22:23:27.289047  2164 net.cpp:411] mnist -> label
I0428 22:23:27.289996  2270 db_lmdb.cpp:38] Opened lmdb examples/mnist/mnist_test_lmdb
I0428 22:23:27.290171  2164 data_layer.cpp:41] output data size: 100,1,28,28
I0428 22:23:27.291345  2164 net.cpp:150] Setting up mnist
I0428 22:23:27.291378  2164 net.cpp:157] Top shape: 100 1 28 28 (78400)
I0428 22:23:27.291393  2164 net.cpp:157] Top shape: 100 (100)
I0428 22:23:27.291404  2164 net.cpp:165] Memory required for data: 314000
I0428 22:23:27.291417  2164 layer_factory.hpp:77] Creating layer label_mnist_1_split
I0428 22:23:27.291436  2164 net.cpp:106] Creating Layer label_mnist_1_split
I0428 22:23:27.291450  2164 net.cpp:454] label_mnist_1_split <- label
I0428 22:23:27.291466  2164 net.cpp:411] label_mnist_1_split -> label_mnist_1_split_0
I0428 22:23:27.291486  2164 net.cpp:411] label_mnist_1_split -> label_mnist_1_split_1
I0428 22:23:27.291543  2164 net.cpp:150] Setting up label_mnist_1_split
I0428 22:23:27.291563  2164 net.cpp:157] Top shape: 100 (100)
I0428 22:23:27.291574  2164 net.cpp:157] Top shape: 100 (100)
I0428 22:23:27.291594  2164 net.cpp:165] Memory required for data: 314800
I0428 22:23:27.291617  2164 layer_factory.hpp:77] Creating layer conv1
I0428 22:23:27.291640  2164 net.cpp:106] Creating Layer conv1
I0428 22:23:27.291653  2164 net.cpp:454] conv1 <- data
I0428 22:23:27.291667  2164 net.cpp:411] conv1 -> conv1
I0428 22:23:27.298001  2164 net.cpp:150] Setting up conv1
I0428 22:23:27.298069  2164 net.cpp:157] Top shape: 100 20 24 24 (1152000)
I0428 22:23:27.298089  2164 net.cpp:165] Memory required for data: 4922800
I0428 22:23:27.298125  2164 layer_factory.hpp:77] Creating layer pool1
I0428 22:23:27.298159  2164 net.cpp:106] Creating Layer pool1
I0428 22:23:27.298183  2164 net.cpp:454] pool1 <- conv1
I0428 22:23:27.298213  2164 net.cpp:411] pool1 -> pool1
I0428 22:23:27.299077  2164 net.cpp:150] Setting up pool1
I0428 22:23:27.299118  2164 net.cpp:157] Top shape: 100 20 12 12 (288000)
I0428 22:23:27.299144  2164 net.cpp:165] Memory required for data: 6074800
I0428 22:23:27.299166  2164 layer_factory.hpp:77] Creating layer conv2
I0428 22:23:27.299197  2164 net.cpp:106] Creating Layer conv2
I0428 22:23:27.299221  2164 net.cpp:454] conv2 <- pool1
I0428 22:23:27.299250  2164 net.cpp:411] conv2 -> conv2
I0428 22:23:27.302254  2164 net.cpp:150] Setting up conv2
I0428 22:23:27.302327  2164 net.cpp:157] Top shape: 100 50 8 8 (320000)
I0428 22:23:27.302348  2164 net.cpp:165] Memory required for data: 7354800
I0428 22:23:27.302382  2164 layer_factory.hpp:77] Creating layer pool2
I0428 22:23:27.302413  2164 net.cpp:106] Creating Layer pool2
I0428 22:23:27.302438  2164 net.cpp:454] pool2 <- conv2
I0428 22:23:27.302465  2164 net.cpp:411] pool2 -> pool2
I0428 22:23:27.303303  2164 net.cpp:150] Setting up pool2
I0428 22:23:27.303336  2164 net.cpp:157] Top shape: 100 50 4 4 (80000)
I0428 22:23:27.303360  2164 net.cpp:165] Memory required for data: 7674800
I0428 22:23:27.303383  2164 layer_factory.hpp:77] Creating layer ip1
I0428 22:23:27.303412  2164 net.cpp:106] Creating Layer ip1
I0428 22:23:27.303433  2164 net.cpp:454] ip1 <- pool2
I0428 22:23:27.303457  2164 net.cpp:411] ip1 -> ip1
I0428 22:23:27.307436  2164 net.cpp:150] Setting up ip1
I0428 22:23:27.307512  2164 net.cpp:157] Top shape: 100 500 (50000)
I0428 22:23:27.307533  2164 net.cpp:165] Memory required for data: 7874800
I0428 22:23:27.307564  2164 layer_factory.hpp:77] Creating layer relu1
I0428 22:23:27.307597  2164 net.cpp:106] Creating Layer relu1
I0428 22:23:27.307621  2164 net.cpp:454] relu1 <- ip1
I0428 22:23:27.307646  2164 net.cpp:397] relu1 -> ip1 (in-place)
I0428 22:23:27.308588  2164 net.cpp:150] Setting up relu1
I0428 22:23:27.308640  2164 net.cpp:157] Top shape: 100 500 (50000)
I0428 22:23:27.308663  2164 net.cpp:165] Memory required for data: 8074800
I0428 22:23:27.308687  2164 layer_factory.hpp:77] Creating layer ip2
I0428 22:23:27.308717  2164 net.cpp:106] Creating Layer ip2
I0428 22:23:27.308740  2164 net.cpp:454] ip2 <- ip1
I0428 22:23:27.308768  2164 net.cpp:411] ip2 -> ip2
I0428 22:23:27.308997  2164 net.cpp:150] Setting up ip2
I0428 22:23:27.309029  2164 net.cpp:157] Top shape: 100 10 (1000)
I0428 22:23:27.309051  2164 net.cpp:165] Memory required for data: 8078800
I0428 22:23:27.309078  2164 layer_factory.hpp:77] Creating layer relu2
I0428 22:23:27.309104  2164 net.cpp:106] Creating Layer relu2
I0428 22:23:27.309125  2164 net.cpp:454] relu2 <- ip2
I0428 22:23:27.309149  2164 net.cpp:411] relu2 -> relu2
I0428 22:23:27.310083  2164 net.cpp:150] Setting up relu2
I0428 22:23:27.310133  2164 net.cpp:157] Top shape: 100 10 (1000)
I0428 22:23:27.310158  2164 net.cpp:165] Memory required for data: 8082800
I0428 22:23:27.310180  2164 layer_factory.hpp:77] Creating layer relu2_relu2_0_split
I0428 22:23:27.310206  2164 net.cpp:106] Creating Layer relu2_relu2_0_split
I0428 22:23:27.310227  2164 net.cpp:454] relu2_relu2_0_split <- relu2
I0428 22:23:27.310256  2164 net.cpp:411] relu2_relu2_0_split -> relu2_relu2_0_split_0
I0428 22:23:27.310284  2164 net.cpp:411] relu2_relu2_0_split -> relu2_relu2_0_split_1
I0428 22:23:27.310354  2164 net.cpp:150] Setting up relu2_relu2_0_split
I0428 22:23:27.310392  2164 net.cpp:157] Top shape: 100 10 (1000)
I0428 22:23:27.310427  2164 net.cpp:157] Top shape: 100 10 (1000)
I0428 22:23:27.310447  2164 net.cpp:165] Memory required for data: 8090800
I0428 22:23:27.310467  2164 layer_factory.hpp:77] Creating layer accuracy
I0428 22:23:27.310494  2164 net.cpp:106] Creating Layer accuracy
I0428 22:23:27.310515  2164 net.cpp:454] accuracy <- relu2_relu2_0_split_0
I0428 22:23:27.310537  2164 net.cpp:454] accuracy <- label_mnist_1_split_0
I0428 22:23:27.310564  2164 net.cpp:411] accuracy -> accuracy
…
