…
I0424 16:39:10.335168 11187 net.cpp:322] The NetState phase (0) differed from the phase (1) specified by a rule in layer mnist
I0424 16:39:10.335193 11187 net.cpp:322] The NetState phase (0) differed from the phase (1) specified by a rule in layer accuracy
I0424 16:39:10.335309 11187 net.cpp:49] Initializing net from parameters: 
name: "LeNet"
state {
  phase: TRAIN
}
layer {
  name: "mnist"
  type: "Data"
  top: "data"
  top: "label"
  include {
    phase: TRAIN
  }
  transform_param {
    scale: 0.00390625
  }
  data_param {
    source: "examples/mnist/mnist_train_lmdb"
    batch_size: 64
    backend: LMDB
  }
}
layer {
  name: "conv1"
  type: "Convolution"
  bottom: "data"
  top: "conv1"
  param {
    lr_mult: 1
  }
  param {
    lr_mult: 2
  }
  convolution_param {
    num_output: 20
    kernel_size: 5
    stride: 1
    weight_filler {
      type: "xavier"
    }
    bias_filler {
      type: "constant"
    }
  }
}
layer {
  name: "pool1"
  type: "Pooling"
  bottom: "conv1"
  top: "pool1"
  pooling_param {
    pool: MAX
    kernel_size: 2
    stride: 2
  }
}
layer {
  name: "conv2"
  type: "Convolution"
  bottom: "pool1"
  top: "conv2"
  param {
    lr_mult: 1
  }
  param {
    lr_mult: 2
  }
  convolution_param {
    num_output: 50
    kernel_size: 5
    stride: 1
    weight_filler {
      type: "xavier"
    }
    bias_filler {
      type: "constant"
    }
  }
}
layer {
  name: "pool2"
  type: "Pooling"
  bottom: "conv2"
  top: "pool2"
  pooling_param {
    pool: MAX
    kernel_size: 2
    stride: 2
  }
}
layer {
  name: "ip1"
  type: "InnerProduct"
  bottom: "pool2"
  top: "ip1"
  param {
    lr_mult: 1
  }
  param {
    lr_mult: 2
  }
  inner_product_param {
    num_output: 512
    weight_filler {
      type: "xavier"
    }
    bias_filler {
      type: "constant"
    }
  }
}
layer {
  name: "relu1"
  type: "ReLU"
  bottom: "ip1"
  top: "ip1"
}
layer {
  name: "ip2"
  type: "InnerProduct"
  bottom: "ip1"
  top: "ip2"
  param {
    lr_mult: 1
  }
  param {
    lr_mult: 2
  }
  inner_product_param {
    num_output: 20
    weight_filler {
      type: "xavier"
    }
    bias_filler {
      type: "constant"
    }
  }
}
layer {
  name: "loss"
  type: "SoftmaxWithLoss"
  bottom: "ip2"
  bottom: "label"
  top: "loss"
}
I0424 16:39:10.335415 11187 layer_factory.hpp:77] Creating layer mnist
I0424 16:39:10.336052 11187 net.cpp:106] Creating Layer mnist
I0424 16:39:10.336072 11187 net.cpp:411] mnist -> data
I0424 16:39:10.336118 11187 net.cpp:411] mnist -> label
I0424 16:39:10.337210 11193 db_lmdb.cpp:38] Opened lmdb examples/mnist/mnist_train_lmdb
I0424 16:39:10.346212 11187 data_layer.cpp:41] output data size: 64,1,28,28
I0424 16:39:10.347296 11187 net.cpp:150] Setting up mnist
I0424 16:39:10.347378 11187 net.cpp:157] Top shape: 64 1 28 28 (50176)
I0424 16:39:10.347434 11187 net.cpp:157] Top shape: 64 (64)
I0424 16:39:10.347483 11187 net.cpp:165] Memory required for data: 200960
I0424 16:39:10.347543 11187 layer_factory.hpp:77] Creating layer conv1
I0424 16:39:10.347611 11187 net.cpp:106] Creating Layer conv1
I0424 16:39:10.347667 11187 net.cpp:454] conv1 <- data
I0424 16:39:10.347726 11187 net.cpp:411] conv1 -> conv1
I0424 16:39:10.514219 11187 net.cpp:150] Setting up conv1
I0424 16:39:10.514369 11187 net.cpp:157] Top shape: 64 20 24 24 (737280)
I0424 16:39:10.514426 11187 net.cpp:165] Memory required for data: 3150080
I0424 16:39:10.514497 11187 layer_factory.hpp:77] Creating layer pool1
I0424 16:39:10.514559 11187 net.cpp:106] Creating Layer pool1
I0424 16:39:10.514616 11187 net.cpp:454] pool1 <- conv1
I0424 16:39:10.514678 11187 net.cpp:411] pool1 -> pool1
I0424 16:39:10.515533 11187 net.cpp:150] Setting up pool1
I0424 16:39:10.515604 11187 net.cpp:157] Top shape: 64 20 12 12 (184320)
I0424 16:39:10.515655 11187 net.cpp:165] Memory required for data: 3887360
I0424 16:39:10.515705 11187 layer_factory.hpp:77] Creating layer conv2
I0424 16:39:10.515761 11187 net.cpp:106] Creating Layer conv2
I0424 16:39:10.515812 11187 net.cpp:454] conv2 <- pool1
I0424 16:39:10.515866 11187 net.cpp:411] conv2 -> conv2
I0424 16:39:10.518949 11187 net.cpp:150] Setting up conv2
I0424 16:39:10.519024 11187 net.cpp:157] Top shape: 64 50 8 8 (204800)
I0424 16:39:10.519078 11187 net.cpp:165] Memory required for data: 4706560
I0424 16:39:10.519135 11187 layer_factory.hpp:77] Creating layer pool2
I0424 16:39:10.519198 11187 net.cpp:106] Creating Layer pool2
I0424 16:39:10.519248 11187 net.cpp:454] pool2 <- conv2
I0424 16:39:10.519297 11187 net.cpp:411] pool2 -> pool2
I0424 16:39:10.520206 11187 net.cpp:150] Setting up pool2
I0424 16:39:10.520279 11187 net.cpp:157] Top shape: 64 50 4 4 (51200)
I0424 16:39:10.520331 11187 net.cpp:165] Memory required for data: 4911360
I0424 16:39:10.520380 11187 layer_factory.hpp:77] Creating layer ip1
I0424 16:39:10.520438 11187 net.cpp:106] Creating Layer ip1
I0424 16:39:10.520488 11187 net.cpp:454] ip1 <- pool2
I0424 16:39:10.520545 11187 net.cpp:411] ip1 -> ip1
I0424 16:39:10.524088 11187 net.cpp:150] Setting up ip1
I0424 16:39:10.524163 11187 net.cpp:157] Top shape: 64 512 (32768)
I0424 16:39:10.524214 11187 net.cpp:165] Memory required for data: 5042432
I0424 16:39:10.524272 11187 layer_factory.hpp:77] Creating layer relu1
I0424 16:39:10.524335 11187 net.cpp:106] Creating Layer relu1
I0424 16:39:10.524385 11187 net.cpp:454] relu1 <- ip1
I0424 16:39:10.524437 11187 net.cpp:397] relu1 -> ip1 (in-place)
I0424 16:39:10.525301 11187 net.cpp:150] Setting up relu1
I0424 16:39:10.525377 11187 net.cpp:157] Top shape: 64 512 (32768)
I0424 16:39:10.525429 11187 net.cpp:165] Memory required for data: 5173504
I0424 16:39:10.525478 11187 layer_factory.hpp:77] Creating layer ip2
I0424 16:39:10.525532 11187 net.cpp:106] Creating Layer ip2
I0424 16:39:10.525580 11187 net.cpp:454] ip2 <- ip1
I0424 16:39:10.525635 11187 net.cpp:411] ip2 -> ip2
I0424 16:39:10.526336 11187 net.cpp:150] Setting up ip2
I0424 16:39:10.526409 11187 net.cpp:157] Top shape: 64 20 (1280)
I0424 16:39:10.526461 11187 net.cpp:165] Memory required for data: 5178624
I0424 16:39:10.526516 11187 layer_factory.hpp:77] Creating layer loss
I0424 16:39:10.526571 11187 net.cpp:106] Creating Layer loss
I0424 16:39:10.526620 11187 net.cpp:454] loss <- ip2
I0424 16:39:10.526674 11187 net.cpp:454] loss <- label
I0424 16:39:10.526722 11187 net.cpp:411] loss -> loss
I0424 16:39:10.526778 11187 layer_factory.hpp:77] Creating layer loss
…
I0424 16:39:10.529412 11187 solver.cpp:181] Creating test net (#0) specified by net file: examples/mnist/test/lenet_train_test.prototxt
I0424 16:39:10.529505 11187 net.cpp:322] The NetState phase (1) differed from the phase (0) specified by a rule in layer mnist
I0424 16:39:10.529696 11187 net.cpp:49] Initializing net from parameters: 
name: "LeNet"
state {
  phase: TEST
}
layer {
  name: "mnist"
  type: "Data"
  top: "data"
  top: "label"
  include {
    phase: TEST
  }
  transform_param {
    scale: 0.00390625
  }
  data_param {
    source: "examples/mnist/mnist_test_lmdb"
    batch_size: 100
    backend: LMDB
  }
}
layer {
  name: "conv1"
  type: "Convolution"
  bottom: "data"
  top: "conv1"
  param {
    lr_mult: 1
  }
  param {
    lr_mult: 2
  }
  convolution_param {
    num_output: 20
    kernel_size: 5
    stride: 1
    weight_filler {
      type: "xavier"
    }
    bias_filler {
      type: "constant"
    }
  }
}
layer {
  name: "pool1"
  type: "Pooling"
  bottom: "conv1"
  top: "pool1"
  pooling_param {
    pool: MAX
    kernel_size: 2
    stride: 2
  }
}
layer {
  name: "conv2"
  type: "Convolution"
  bottom: "pool1"
  top: "conv2"
  param {
    lr_mult: 1
  }
  param {
    lr_mult: 2
  }
  convolution_param {
    num_output: 50
    kernel_size: 5
    stride: 1
    weight_filler {
      type: "xavier"
    }
    bias_filler {
      type: "constant"
    }
  }
}
layer {
  name: "pool2"
  type: "Pooling"
  bottom: "conv2"
  top: "pool2"
  pooling_param {
    pool: MAX
    kernel_size: 2
    stride: 2
  }
}
layer {
  name: "ip1"
  type: "InnerProduct"
  bottom: "pool2"
  top: "ip1"
  param {
    lr_mult: 1
  }
  param {
    lr_mult: 2
  }
  inner_product_param {
    num_output: 512
    weight_filler {
      type: "xavier"
    }
    bias_filler {
      type: "constant"
    }
  }
}
layer {
  name: "relu1"
  type: "ReLU"
  bottom: "ip1"
  top: "ip1"
}
layer {
  name: "ip2"
  type: "InnerProduct"
  bottom: "ip1"
  top: "ip2"
  param {
    lr_mult: 1
  }
  param {
    lr_mult: 2
  }
  inner_product_param {
    num_output: 20
    weight_filler {
      type: "xavier"
    }
    bias_filler {
      type: "constant"
    }
  }
}
layer {
  name: "accuracy"
  type: "Accuracy"
  bottom: "ip2"
  bottom: "label"
  top: "accuracy"
  include {
    phase: TEST
  }
}
layer {
  name: "loss"
  type: "SoftmaxWithLoss"
  bottom: "ip2"
  bottom: "label"
  top: "loss"
}
I0424 16:39:10.530907 11187 layer_factory.hpp:77] Creating layer mnist
I0424 16:39:10.531055 11187 net.cpp:106] Creating Layer mnist
I0424 16:39:10.531066 11187 net.cpp:411] mnist -> data
I0424 16:39:10.531080 11187 net.cpp:411] mnist -> label
I0424 16:39:10.532061 11195 db_lmdb.cpp:38] Opened lmdb examples/mnist/mnist_test_lmdb
I0424 16:39:10.532201 11187 data_layer.cpp:41] output data size: 100,1,28,28
I0424 16:39:10.533247 11187 net.cpp:150] Setting up mnist
I0424 16:39:10.533264 11187 net.cpp:157] Top shape: 100 1 28 28 (78400)
I0424 16:39:10.533272 11187 net.cpp:157] Top shape: 100 (100)
I0424 16:39:10.533277 11187 net.cpp:165] Memory required for data: 314000
I0424 16:39:10.533284 11187 layer_factory.hpp:77] Creating layer label_mnist_1_split
I0424 16:39:10.533295 11187 net.cpp:106] Creating Layer label_mnist_1_split
I0424 16:39:10.533300 11187 net.cpp:454] label_mnist_1_split <- label
I0424 16:39:10.533311 11187 net.cpp:411] label_mnist_1_split -> label_mnist_1_split_0
I0424 16:39:10.533321 11187 net.cpp:411] label_mnist_1_split -> label_mnist_1_split_1
I0424 16:39:10.533429 11187 net.cpp:150] Setting up label_mnist_1_split
I0424 16:39:10.533442 11187 net.cpp:157] Top shape: 100 (100)
I0424 16:39:10.533448 11187 net.cpp:157] Top shape: 100 (100)
I0424 16:39:10.533452 11187 net.cpp:165] Memory required for data: 314800
I0424 16:39:10.533457 11187 layer_factory.hpp:77] Creating layer conv1
I0424 16:39:10.533470 11187 net.cpp:106] Creating Layer conv1
I0424 16:39:10.533478 11187 net.cpp:454] conv1 <- data
I0424 16:39:10.533486 11187 net.cpp:411] conv1 -> conv1
I0424 16:39:10.536736 11187 net.cpp:150] Setting up conv1
I0424 16:39:10.536772 11187 net.cpp:157] Top shape: 100 20 24 24 (1152000)
I0424 16:39:10.536794 11187 net.cpp:165] Memory required for data: 4922800
I0424 16:39:10.536824 11187 layer_factory.hpp:77] Creating layer pool1
I0424 16:39:10.536855 11187 net.cpp:106] Creating Layer pool1
I0424 16:39:10.536888 11187 net.cpp:454] pool1 <- conv1
I0424 16:39:10.536923 11187 net.cpp:411] pool1 -> pool1
I0424 16:39:10.537837 11187 net.cpp:150] Setting up pool1
I0424 16:39:10.537870 11187 net.cpp:157] Top shape: 100 20 12 12 (288000)
I0424 16:39:10.537892 11187 net.cpp:165] Memory required for data: 6074800
I0424 16:39:10.537912 11187 layer_factory.hpp:77] Creating layer conv2
I0424 16:39:10.537941 11187 net.cpp:106] Creating Layer conv2
I0424 16:39:10.537963 11187 net.cpp:454] conv2 <- pool1
I0424 16:39:10.537987 11187 net.cpp:411] conv2 -> conv2
I0424 16:39:10.540866 11187 net.cpp:150] Setting up conv2
I0424 16:39:10.540910 11187 net.cpp:157] Top shape: 100 50 8 8 (320000)
I0424 16:39:10.540935 11187 net.cpp:165] Memory required for data: 7354800
I0424 16:39:10.540964 11187 layer_factory.hpp:77] Creating layer pool2
I0424 16:39:10.540989 11187 net.cpp:106] Creating Layer pool2
I0424 16:39:10.541010 11187 net.cpp:454] pool2 <- conv2
I0424 16:39:10.541033 11187 net.cpp:411] pool2 -> pool2
I0424 16:39:10.542016 11187 net.cpp:150] Setting up pool2
I0424 16:39:10.542050 11187 net.cpp:157] Top shape: 100 50 4 4 (80000)
I0424 16:39:10.542073 11187 net.cpp:165] Memory required for data: 7674800
I0424 16:39:10.542093 11187 layer_factory.hpp:77] Creating layer ip1
I0424 16:39:10.542120 11187 net.cpp:106] Creating Layer ip1
I0424 16:39:10.542141 11187 net.cpp:454] ip1 <- pool2
I0424 16:39:10.542167 11187 net.cpp:411] ip1 -> ip1
I0424 16:39:10.545686 11187 net.cpp:150] Setting up ip1
I0424 16:39:10.545723 11187 net.cpp:157] Top shape: 100 512 (51200)
I0424 16:39:10.545744 11187 net.cpp:165] Memory required for data: 7879600
I0424 16:39:10.545771 11187 layer_factory.hpp:77] Creating layer relu1
I0424 16:39:10.545799 11187 net.cpp:106] Creating Layer relu1
I0424 16:39:10.545820 11187 net.cpp:454] relu1 <- ip1
I0424 16:39:10.545842 11187 net.cpp:397] relu1 -> ip1 (in-place)
I0424 16:39:10.546679 11187 net.cpp:150] Setting up relu1
I0424 16:39:10.546712 11187 net.cpp:157] Top shape: 100 512 (51200)
I0424 16:39:10.546735 11187 net.cpp:165] Memory required for data: 8084400
I0424 16:39:10.546754 11187 layer_factory.hpp:77] Creating layer ip2
I0424 16:39:10.546782 11187 net.cpp:106] Creating Layer ip2
I0424 16:39:10.546803 11187 net.cpp:454] ip2 <- ip1
I0424 16:39:10.546829 11187 net.cpp:411] ip2 -> ip2
I0424 16:39:10.547063 11187 net.cpp:150] Setting up ip2
I0424 16:39:10.547091 11187 net.cpp:157] Top shape: 100 20 (2000)
I0424 16:39:10.547111 11187 net.cpp:165] Memory required for data: 8092400
I0424 16:39:10.547135 11187 layer_factory.hpp:77] Creating layer ip2_ip2_0_split
I0424 16:39:10.547158 11187 net.cpp:106] Creating Layer ip2_ip2_0_split
I0424 16:39:10.547178 11187 net.cpp:454] ip2_ip2_0_split <- ip2
I0424 16:39:10.547200 11187 net.cpp:411] ip2_ip2_0_split -> ip2_ip2_0_split_0
I0424 16:39:10.547236 11187 net.cpp:411] ip2_ip2_0_split -> ip2_ip2_0_split_1
I0424 16:39:10.547307 11187 net.cpp:150] Setting up ip2_ip2_0_split
I0424 16:39:10.547333 11187 net.cpp:157] Top shape: 100 20 (2000)
I0424 16:39:10.547353 11187 net.cpp:157] Top shape: 100 20 (2000)
I0424 16:39:10.547372 11187 net.cpp:165] Memory required for data: 8108400
I0424 16:39:10.547392 11187 layer_factory.hpp:77] Creating layer accuracy
I0424 16:39:10.547415 11187 net.cpp:106] Creating Layer accuracy
I0424 16:39:10.547435 11187 net.cpp:454] accuracy <- ip2_ip2_0_split_0
I0424 16:39:10.547456 11187 net.cpp:454] accuracy <- label_mnist_1_split_0
I0424 16:39:10.547495 11187 net.cpp:411] accuracy -> accuracy
…
