…
I0424 17:30:21.076823 11412 net.cpp:322] The NetState phase (0) differed from the phase (1) specified by a rule in layer mnist
I0424 17:30:21.076846 11412 net.cpp:322] The NetState phase (0) differed from the phase (1) specified by a rule in layer accuracy
I0424 17:30:21.076954 11412 net.cpp:49] Initializing net from parameters: 
name: "LeNet"
state {
  phase: TRAIN
}
layer {
  name: "mnist"
  type: "Data"
  top: "data"
  top: "label"
  include {
    phase: TRAIN
  }
  transform_param {
    scale: 0.00390625
  }
  data_param {
    source: "examples/mnist/mnist_train_lmdb"
    batch_size: 64
    backend: LMDB
  }
}
layer {
  name: "conv1"
  type: "Convolution"
  bottom: "data"
  top: "conv1"
  param {
    lr_mult: 1
  }
  param {
    lr_mult: 2
  }
  convolution_param {
    num_output: 20
    kernel_size: 5
    stride: 1
    weight_filler {
      type: "xavier"
    }
    bias_filler {
      type: "constant"
    }
  }
}
layer {
  name: "pool1"
  type: "Pooling"
  bottom: "conv1"
  top: "pool1"
  pooling_param {
    pool: MAX
    kernel_size: 2
    stride: 2
  }
}
layer {
  name: "conv2"
  type: "Convolution"
  bottom: "pool1"
  top: "conv2"
  param {
    lr_mult: 1
  }
  param {
    lr_mult: 2
  }
  convolution_param {
    num_output: 50
    kernel_size: 5
    stride: 1
    weight_filler {
      type: "xavier"
    }
    bias_filler {
      type: "constant"
    }
  }
}
layer {
  name: "pool2"
  type: "Pooling"
  bottom: "conv2"
  top: "pool2"
  pooling_param {
    pool: MAX
    kernel_size: 2
    stride: 2
  }
}
layer {
  name: "ip1"
  type: "InnerProduct"
  bottom: "pool2"
  top: "ip1"
  param {
    lr_mult: 1
  }
  param {
    lr_mult: 2
  }
  inner_product_param {
    num_output: 64
    weight_filler {
      type: "xavier"
    }
    bias_filler {
      type: "constant"
    }
  }
}
layer {
  name: "relu1"
  type: "ReLU"
  bottom: "ip1"
  top: "ip1"
}
layer {
  name: "ip2"
  type: "InnerProduct"
  bottom: "ip1"
  top: "ip2"
  param {
    lr_mult: 1
  }
  param {
    lr_mult: 2
  }
  inner_product_param {
    num_output: 100
    weight_filler {
      type: "xavier"
    }
    bias_filler {
      type: "constant"
    }
  }
}
layer {
  name: "loss"
  type: "SoftmaxWithLoss"
  bottom: "ip2"
  bottom: "label"
  top: "loss"
}
I0424 17:30:21.077050 11412 layer_factory.hpp:77] Creating layer mnist
I0424 17:30:21.077692 11412 net.cpp:106] Creating Layer mnist
I0424 17:30:21.077709 11412 net.cpp:411] mnist -> data
I0424 17:30:21.077746 11412 net.cpp:411] mnist -> label
I0424 17:30:21.078696 11417 db_lmdb.cpp:38] Opened lmdb examples/mnist/mnist_train_lmdb
I0424 17:30:21.087628 11412 data_layer.cpp:41] output data size: 64,1,28,28
I0424 17:30:21.088611 11412 net.cpp:150] Setting up mnist
I0424 17:30:21.088665 11412 net.cpp:157] Top shape: 64 1 28 28 (50176)
I0424 17:30:21.088691 11412 net.cpp:157] Top shape: 64 (64)
I0424 17:30:21.088716 11412 net.cpp:165] Memory required for data: 200960
I0424 17:30:21.088745 11412 layer_factory.hpp:77] Creating layer conv1
I0424 17:30:21.088781 11412 net.cpp:106] Creating Layer conv1
I0424 17:30:21.088807 11412 net.cpp:454] conv1 <- data
I0424 17:30:21.088841 11412 net.cpp:411] conv1 -> conv1
I0424 17:30:21.247282 11412 net.cpp:150] Setting up conv1
I0424 17:30:21.247356 11412 net.cpp:157] Top shape: 64 20 24 24 (737280)
I0424 17:30:21.247378 11412 net.cpp:165] Memory required for data: 3150080
I0424 17:30:21.247421 11412 layer_factory.hpp:77] Creating layer pool1
I0424 17:30:21.247454 11412 net.cpp:106] Creating Layer pool1
I0424 17:30:21.247478 11412 net.cpp:454] pool1 <- conv1
I0424 17:30:21.247514 11412 net.cpp:411] pool1 -> pool1
I0424 17:30:21.248334 11412 net.cpp:150] Setting up pool1
I0424 17:30:21.248370 11412 net.cpp:157] Top shape: 64 20 12 12 (184320)
I0424 17:30:21.248392 11412 net.cpp:165] Memory required for data: 3887360
I0424 17:30:21.248414 11412 layer_factory.hpp:77] Creating layer conv2
I0424 17:30:21.248441 11412 net.cpp:106] Creating Layer conv2
I0424 17:30:21.248463 11412 net.cpp:454] conv2 <- pool1
I0424 17:30:21.248488 11412 net.cpp:411] conv2 -> conv2
I0424 17:30:21.251446 11412 net.cpp:150] Setting up conv2
I0424 17:30:21.251484 11412 net.cpp:157] Top shape: 64 50 8 8 (204800)
I0424 17:30:21.251507 11412 net.cpp:165] Memory required for data: 4706560
I0424 17:30:21.251538 11412 layer_factory.hpp:77] Creating layer pool2
I0424 17:30:21.251565 11412 net.cpp:106] Creating Layer pool2
I0424 17:30:21.251587 11412 net.cpp:454] pool2 <- conv2
I0424 17:30:21.251613 11412 net.cpp:411] pool2 -> pool2
I0424 17:30:21.252466 11412 net.cpp:150] Setting up pool2
I0424 17:30:21.252499 11412 net.cpp:157] Top shape: 64 50 4 4 (51200)
I0424 17:30:21.252521 11412 net.cpp:165] Memory required for data: 4911360
I0424 17:30:21.252542 11412 layer_factory.hpp:77] Creating layer ip1
I0424 17:30:21.252570 11412 net.cpp:106] Creating Layer ip1
I0424 17:30:21.252593 11412 net.cpp:454] ip1 <- pool2
I0424 17:30:21.252616 11412 net.cpp:411] ip1 -> ip1
I0424 17:30:21.253129 11412 net.cpp:150] Setting up ip1
I0424 17:30:21.253159 11412 net.cpp:157] Top shape: 64 64 (4096)
I0424 17:30:21.253180 11412 net.cpp:165] Memory required for data: 4927744
I0424 17:30:21.253208 11412 layer_factory.hpp:77] Creating layer relu1
I0424 17:30:21.253237 11412 net.cpp:106] Creating Layer relu1
I0424 17:30:21.253258 11412 net.cpp:454] relu1 <- ip1
I0424 17:30:21.253281 11412 net.cpp:397] relu1 -> ip1 (in-place)
I0424 17:30:21.254084 11412 net.cpp:150] Setting up relu1
I0424 17:30:21.254117 11412 net.cpp:157] Top shape: 64 64 (4096)
I0424 17:30:21.254138 11412 net.cpp:165] Memory required for data: 4944128
I0424 17:30:21.254159 11412 layer_factory.hpp:77] Creating layer ip2
I0424 17:30:21.254185 11412 net.cpp:106] Creating Layer ip2
I0424 17:30:21.254206 11412 net.cpp:454] ip2 <- ip1
I0424 17:30:21.254233 11412 net.cpp:411] ip2 -> ip2
I0424 17:30:21.254889 11412 net.cpp:150] Setting up ip2
I0424 17:30:21.254922 11412 net.cpp:157] Top shape: 64 100 (6400)
I0424 17:30:21.254942 11412 net.cpp:165] Memory required for data: 4969728
I0424 17:30:21.254967 11412 layer_factory.hpp:77] Creating layer loss
I0424 17:30:21.254999 11412 net.cpp:106] Creating Layer loss
I0424 17:30:21.255022 11412 net.cpp:454] loss <- ip2
I0424 17:30:21.255043 11412 net.cpp:454] loss <- label
I0424 17:30:21.255069 11412 net.cpp:411] loss -> loss
I0424 17:30:21.255103 11412 layer_factory.hpp:77] Creating layer loss
…
I0424 17:30:21.256829 11412 solver.cpp:181] Creating test net (#0) specified by net file: examples/mnist/test/lenet_train_test.prototxt
I0424 17:30:21.256885 11412 net.cpp:322] The NetState phase (1) differed from the phase (0) specified by a rule in layer mnist
I0424 17:30:21.257048 11412 net.cpp:49] Initializing net from parameters: 
name: "LeNet"
state {
  phase: TEST
}
layer {
  name: "mnist"
  type: "Data"
  top: "data"
  top: "label"
  include {
    phase: TEST
  }
  transform_param {
    scale: 0.00390625
  }
  data_param {
    source: "examples/mnist/mnist_test_lmdb"
    batch_size: 100
    backend: LMDB
  }
}
layer {
  name: "conv1"
  type: "Convolution"
  bottom: "data"
  top: "conv1"
  param {
    lr_mult: 1
  }
  param {
    lr_mult: 2
  }
  convolution_param {
    num_output: 20
    kernel_size: 5
    stride: 1
    weight_filler {
      type: "xavier"
    }
    bias_filler {
      type: "constant"
    }
  }
}
layer {
  name: "pool1"
  type: "Pooling"
  bottom: "conv1"
  top: "pool1"
  pooling_param {
    pool: MAX
    kernel_size: 2
    stride: 2
  }
}
layer {
  name: "conv2"
  type: "Convolution"
  bottom: "pool1"
  top: "conv2"
  param {
    lr_mult: 1
  }
  param {
    lr_mult: 2
  }
  convolution_param {
    num_output: 50
    kernel_size: 5
    stride: 1
    weight_filler {
      type: "xavier"
    }
    bias_filler {
      type: "constant"
    }
  }
}
layer {
  name: "pool2"
  type: "Pooling"
  bottom: "conv2"
  top: "pool2"
  pooling_param {
    pool: MAX
    kernel_size: 2
    stride: 2
  }
}
layer {
  name: "ip1"
  type: "InnerProduct"
  bottom: "pool2"
  top: "ip1"
  param {
    lr_mult: 1
  }
  param {
    lr_mult: 2
  }
  inner_product_param {
    num_output: 64
    weight_filler {
      type: "xavier"
    }
    bias_filler {
      type: "constant"
    }
  }
}
layer {
  name: "relu1"
  type: "ReLU"
  bottom: "ip1"
  top: "ip1"
}
layer {
  name: "ip2"
  type: "InnerProduct"
  bottom: "ip1"
  top: "ip2"
  param {
    lr_mult: 1
  }
  param {
    lr_mult: 2
  }
  inner_product_param {
    num_output: 100
    weight_filler {
      type: "xavier"
    }
    bias_filler {
      type: "constant"
    }
  }
}
layer {
  name: "accuracy"
  type: "Accuracy"
  bottom: "ip2"
  bottom: "label"
  top: "accuracy"
  include {
    phase: TEST
  }
}
layer {
  name: "loss"
  type: "SoftmaxWithLoss"
  bottom: "ip2"
  bottom: "label"
  top: "loss"
}
I0424 17:30:21.257623 11412 layer_factory.hpp:77] Creating layer mnist
I0424 17:30:21.257943 11412 net.cpp:106] Creating Layer mnist
I0424 17:30:21.257992 11412 net.cpp:411] mnist -> data
I0424 17:30:21.258023 11412 net.cpp:411] mnist -> label
I0424 17:30:21.258967 11419 db_lmdb.cpp:38] Opened lmdb examples/mnist/mnist_test_lmdb
I0424 17:30:21.259122 11412 data_layer.cpp:41] output data size: 100,1,28,28
I0424 17:30:21.260175 11412 net.cpp:150] Setting up mnist
I0424 17:30:21.260212 11412 net.cpp:157] Top shape: 100 1 28 28 (78400)
I0424 17:30:21.260237 11412 net.cpp:157] Top shape: 100 (100)
I0424 17:30:21.260258 11412 net.cpp:165] Memory required for data: 314000
I0424 17:30:21.260280 11412 layer_factory.hpp:77] Creating layer label_mnist_1_split
I0424 17:30:21.260306 11412 net.cpp:106] Creating Layer label_mnist_1_split
I0424 17:30:21.260327 11412 net.cpp:454] label_mnist_1_split <- label
I0424 17:30:21.260351 11412 net.cpp:411] label_mnist_1_split -> label_mnist_1_split_0
I0424 17:30:21.260378 11412 net.cpp:411] label_mnist_1_split -> label_mnist_1_split_1
I0424 17:30:21.260449 11412 net.cpp:150] Setting up label_mnist_1_split
I0424 17:30:21.260476 11412 net.cpp:157] Top shape: 100 (100)
I0424 17:30:21.260499 11412 net.cpp:157] Top shape: 100 (100)
I0424 17:30:21.260517 11412 net.cpp:165] Memory required for data: 314800
I0424 17:30:21.260537 11412 layer_factory.hpp:77] Creating layer conv1
I0424 17:30:21.260566 11412 net.cpp:106] Creating Layer conv1
I0424 17:30:21.260587 11412 net.cpp:454] conv1 <- data
I0424 17:30:21.260614 11412 net.cpp:411] conv1 -> conv1
I0424 17:30:21.263689 11412 net.cpp:150] Setting up conv1
I0424 17:30:21.263730 11412 net.cpp:157] Top shape: 100 20 24 24 (1152000)
I0424 17:30:21.263752 11412 net.cpp:165] Memory required for data: 4922800
I0424 17:30:21.263782 11412 layer_factory.hpp:77] Creating layer pool1
I0424 17:30:21.263818 11412 net.cpp:106] Creating Layer pool1
I0424 17:30:21.263850 11412 net.cpp:454] pool1 <- conv1
I0424 17:30:21.263875 11412 net.cpp:411] pool1 -> pool1
I0424 17:30:21.264751 11412 net.cpp:150] Setting up pool1
I0424 17:30:21.264787 11412 net.cpp:157] Top shape: 100 20 12 12 (288000)
I0424 17:30:21.264819 11412 net.cpp:165] Memory required for data: 6074800
I0424 17:30:21.264852 11412 layer_factory.hpp:77] Creating layer conv2
I0424 17:30:21.264899 11412 net.cpp:106] Creating Layer conv2
I0424 17:30:21.264925 11412 net.cpp:454] conv2 <- pool1
I0424 17:30:21.264958 11412 net.cpp:411] conv2 -> conv2
I0424 17:30:21.267916 11412 net.cpp:150] Setting up conv2
I0424 17:30:21.267954 11412 net.cpp:157] Top shape: 100 50 8 8 (320000)
I0424 17:30:21.267977 11412 net.cpp:165] Memory required for data: 7354800
I0424 17:30:21.268005 11412 layer_factory.hpp:77] Creating layer pool2
I0424 17:30:21.268033 11412 net.cpp:106] Creating Layer pool2
I0424 17:30:21.268054 11412 net.cpp:454] pool2 <- conv2
I0424 17:30:21.268077 11412 net.cpp:411] pool2 -> pool2
I0424 17:30:21.269057 11412 net.cpp:150] Setting up pool2
I0424 17:30:21.269091 11412 net.cpp:157] Top shape: 100 50 4 4 (80000)
I0424 17:30:21.269114 11412 net.cpp:165] Memory required for data: 7674800
I0424 17:30:21.269134 11412 layer_factory.hpp:77] Creating layer ip1
I0424 17:30:21.269161 11412 net.cpp:106] Creating Layer ip1
I0424 17:30:21.269183 11412 net.cpp:454] ip1 <- pool2
I0424 17:30:21.269209 11412 net.cpp:411] ip1 -> ip1
I0424 17:30:21.270164 11412 net.cpp:150] Setting up ip1
I0424 17:30:21.270198 11412 net.cpp:157] Top shape: 100 64 (6400)
I0424 17:30:21.270220 11412 net.cpp:165] Memory required for data: 7700400
I0424 17:30:21.270247 11412 layer_factory.hpp:77] Creating layer relu1
I0424 17:30:21.270277 11412 net.cpp:106] Creating Layer relu1
I0424 17:30:21.270298 11412 net.cpp:454] relu1 <- ip1
I0424 17:30:21.270321 11412 net.cpp:397] relu1 -> ip1 (in-place)
I0424 17:30:21.271145 11412 net.cpp:150] Setting up relu1
I0424 17:30:21.271181 11412 net.cpp:157] Top shape: 100 64 (6400)
I0424 17:30:21.271204 11412 net.cpp:165] Memory required for data: 7726000
I0424 17:30:21.271224 11412 layer_factory.hpp:77] Creating layer ip2
I0424 17:30:21.271253 11412 net.cpp:106] Creating Layer ip2
I0424 17:30:21.271275 11412 net.cpp:454] ip2 <- ip1
I0424 17:30:21.271301 11412 net.cpp:411] ip2 -> ip2
I0424 17:30:21.271502 11412 net.cpp:150] Setting up ip2
I0424 17:30:21.271530 11412 net.cpp:157] Top shape: 100 100 (10000)
I0424 17:30:21.271550 11412 net.cpp:165] Memory required for data: 7766000
I0424 17:30:21.271574 11412 layer_factory.hpp:77] Creating layer ip2_ip2_0_split
I0424 17:30:21.271598 11412 net.cpp:106] Creating Layer ip2_ip2_0_split
I0424 17:30:21.271620 11412 net.cpp:454] ip2_ip2_0_split <- ip2
I0424 17:30:21.271643 11412 net.cpp:411] ip2_ip2_0_split -> ip2_ip2_0_split_0
I0424 17:30:21.271670 11412 net.cpp:411] ip2_ip2_0_split -> ip2_ip2_0_split_1
I0424 17:30:21.271739 11412 net.cpp:150] Setting up ip2_ip2_0_split
I0424 17:30:21.271765 11412 net.cpp:157] Top shape: 100 100 (10000)
I0424 17:30:21.271787 11412 net.cpp:157] Top shape: 100 100 (10000)
I0424 17:30:21.271806 11412 net.cpp:165] Memory required for data: 7846000
I0424 17:30:21.271826 11412 layer_factory.hpp:77] Creating layer accuracy
I0424 17:30:21.271852 11412 net.cpp:106] Creating Layer accuracy
I0424 17:30:21.271873 11412 net.cpp:454] accuracy <- ip2_ip2_0_split_0
I0424 17:30:21.271894 11412 net.cpp:454] accuracy <- label_mnist_1_split_0
I0424 17:30:21.271919 11412 net.cpp:411] accuracy -> accuracy
…
