…
I0425 15:39:09.322209 12937 net.cpp:322] The NetState phase (0) differed from the phase (1) specified by a rule in layer mnist
I0425 15:39:09.322229 12937 net.cpp:322] The NetState phase (0) differed from the phase (1) specified by a rule in layer accuracy
I0425 15:39:09.322310 12937 net.cpp:49] Initializing net from parameters: 
name: "LeNet"
state {
  phase: TRAIN
}
layer {
  name: "mnist"
  type: "Data"
  top: "data"
  top: "label"
  include {
    phase: TRAIN
  }
  transform_param {
    scale: 0.00390625
  }
  data_param {
    source: "examples/mnist/mnist_train_lmdb"
    batch_size: 64
    backend: LMDB
  }
}
layer {
  name: "conv1"
  type: "Convolution"
  bottom: "data"
  top: "conv1"
  param {
    lr_mult: 1
  }
  param {
    lr_mult: 2
  }
  convolution_param {
    num_output: 20
    kernel_size: 5
    stride: 1
    weight_filler {
      type: "xavier"
    }
    bias_filler {
      type: "constant"
    }
  }
}
layer {
  name: "pool1"
  type: "Pooling"
  bottom: "conv1"
  top: "pool1"
  pooling_param {
    pool: MAX
    kernel_size: 2
    stride: 2
  }
}
layer {
  name: "conv2"
  type: "Convolution"
  bottom: "pool1"
  top: "conv2"
  param {
    lr_mult: 1
  }
  param {
    lr_mult: 2
  }
  convolution_param {
    num_output: 50
    kernel_size: 5
    stride: 1
    weight_filler {
      type: "xavier"
    }
    bias_filler {
      type: "constant"
    }
  }
}
layer {
  name: "pool2"
  type: "Pooling"
  bottom: "conv2"
  top: "pool2"
  pooling_param {
    pool: MAX
    kernel_size: 2
    stride: 2
  }
}
layer {
  name: "ip1"
  type: "InnerProduct"
  bottom: "pool2"
  top: "ip1"
  param {
    lr_mult: 1
  }
  param {
    lr_mult: 2
  }
  inner_product_param {
    num_output: 64
    weight_filler {
      type: "xavier"
    }
    bias_filler {
      type: "constant"
    }
  }
}
layer {
  name: "relu1"
  type: "ReLU"
  bottom: "ip1"
  top: "ip1"
}
layer {
  name: "ip2"
  type: "InnerProduct"
  bottom: "ip1"
  top: "ip2"
  param {
    lr_mult: 1
  }
  param {
    lr_mult: 2
  }
  inner_product_param {
    num_output: 10
    weight_filler {
      type: "xavier"
    }
    bias_filler {
      type: "constant"
    }
  }
}
layer {
  name: "loss"
  type: "SoftmaxWithLoss"
  bottom: "ip2"
  bottom: "label"
  top: "loss"
}
I0425 15:39:09.322396 12937 layer_factory.hpp:77] Creating layer mnist
I0425 15:39:09.322984 12937 net.cpp:106] Creating Layer mnist
I0425 15:39:09.322999 12937 net.cpp:411] mnist -> data
I0425 15:39:09.323031 12937 net.cpp:411] mnist -> label
I0425 15:39:09.324666 12942 db_lmdb.cpp:38] Opened lmdb examples/mnist/mnist_train_lmdb
I0425 15:39:09.332370 12937 data_layer.cpp:41] output data size: 64,1,28,28
I0425 15:39:09.333314 12937 net.cpp:150] Setting up mnist
I0425 15:39:09.333336 12937 net.cpp:157] Top shape: 64 1 28 28 (50176)
I0425 15:39:09.333343 12937 net.cpp:157] Top shape: 64 (64)
I0425 15:39:09.333346 12937 net.cpp:165] Memory required for data: 200960
I0425 15:39:09.333356 12937 layer_factory.hpp:77] Creating layer conv1
I0425 15:39:09.333395 12937 net.cpp:106] Creating Layer conv1
I0425 15:39:09.333402 12937 net.cpp:454] conv1 <- data
I0425 15:39:09.333418 12937 net.cpp:411] conv1 -> conv1
I0425 15:39:09.461387 12937 net.cpp:150] Setting up conv1
I0425 15:39:09.461416 12937 net.cpp:157] Top shape: 64 20 24 24 (737280)
I0425 15:39:09.461421 12937 net.cpp:165] Memory required for data: 3150080
I0425 15:39:09.461439 12937 layer_factory.hpp:77] Creating layer pool1
I0425 15:39:09.461450 12937 net.cpp:106] Creating Layer pool1
I0425 15:39:09.461455 12937 net.cpp:454] pool1 <- conv1
I0425 15:39:09.461462 12937 net.cpp:411] pool1 -> pool1
I0425 15:39:09.462070 12937 net.cpp:150] Setting up pool1
I0425 15:39:09.462083 12937 net.cpp:157] Top shape: 64 20 12 12 (184320)
I0425 15:39:09.462087 12937 net.cpp:165] Memory required for data: 3887360
I0425 15:39:09.462091 12937 layer_factory.hpp:77] Creating layer conv2
I0425 15:39:09.462100 12937 net.cpp:106] Creating Layer conv2
I0425 15:39:09.462105 12937 net.cpp:454] conv2 <- pool1
I0425 15:39:09.462110 12937 net.cpp:411] conv2 -> conv2
I0425 15:39:09.464157 12937 net.cpp:150] Setting up conv2
I0425 15:39:09.464172 12937 net.cpp:157] Top shape: 64 50 8 8 (204800)
I0425 15:39:09.464176 12937 net.cpp:165] Memory required for data: 4706560
I0425 15:39:09.464184 12937 layer_factory.hpp:77] Creating layer pool2
I0425 15:39:09.464191 12937 net.cpp:106] Creating Layer pool2
I0425 15:39:09.464195 12937 net.cpp:454] pool2 <- conv2
I0425 15:39:09.464200 12937 net.cpp:411] pool2 -> pool2
I0425 15:39:09.464771 12937 net.cpp:150] Setting up pool2
I0425 15:39:09.464784 12937 net.cpp:157] Top shape: 64 50 4 4 (51200)
I0425 15:39:09.464787 12937 net.cpp:165] Memory required for data: 4911360
I0425 15:39:09.464792 12937 layer_factory.hpp:77] Creating layer ip1
I0425 15:39:09.464798 12937 net.cpp:106] Creating Layer ip1
I0425 15:39:09.464802 12937 net.cpp:454] ip1 <- pool2
I0425 15:39:09.464807 12937 net.cpp:411] ip1 -> ip1
I0425 15:39:09.465191 12937 net.cpp:150] Setting up ip1
I0425 15:39:09.465201 12937 net.cpp:157] Top shape: 64 64 (4096)
I0425 15:39:09.465204 12937 net.cpp:165] Memory required for data: 4927744
I0425 15:39:09.465211 12937 layer_factory.hpp:77] Creating layer relu1
I0425 15:39:09.465217 12937 net.cpp:106] Creating Layer relu1
I0425 15:39:09.465221 12937 net.cpp:454] relu1 <- ip1
I0425 15:39:09.465225 12937 net.cpp:397] relu1 -> ip1 (in-place)
I0425 15:39:09.465764 12937 net.cpp:150] Setting up relu1
I0425 15:39:09.465776 12937 net.cpp:157] Top shape: 64 64 (4096)
I0425 15:39:09.465780 12937 net.cpp:165] Memory required for data: 4944128
I0425 15:39:09.465782 12937 layer_factory.hpp:77] Creating layer ip2
I0425 15:39:09.465790 12937 net.cpp:106] Creating Layer ip2
I0425 15:39:09.465792 12937 net.cpp:454] ip2 <- ip1
I0425 15:39:09.465797 12937 net.cpp:411] ip2 -> ip2
I0425 15:39:09.465886 12937 net.cpp:150] Setting up ip2
I0425 15:39:09.465893 12937 net.cpp:157] Top shape: 64 10 (640)
I0425 15:39:09.465896 12937 net.cpp:165] Memory required for data: 4946688
I0425 15:39:09.465903 12937 layer_factory.hpp:77] Creating layer loss
I0425 15:39:09.465915 12937 net.cpp:106] Creating Layer loss
I0425 15:39:09.465919 12937 net.cpp:454] loss <- ip2
I0425 15:39:09.465922 12937 net.cpp:454] loss <- label
I0425 15:39:09.465929 12937 net.cpp:411] loss -> loss
I0425 15:39:09.465939 12937 layer_factory.hpp:77] Creating layer loss
…
I0425 15:39:09.466924 12937 solver.cpp:181] Creating test net (#0) specified by net file: examples/mnist/test/lenet_train_test.prototxt
I0425 15:39:09.466949 12937 net.cpp:322] The NetState phase (1) differed from the phase (0) specified by a rule in layer mnist
I0425 15:39:09.467044 12937 net.cpp:49] Initializing net from parameters: 
name: "LeNet"
state {
  phase: TEST
}
layer {
  name: "mnist"
  type: "Data"
  top: "data"
  top: "label"
  include {
    phase: TEST
  }
  transform_param {
    scale: 0.00390625
  }
  data_param {
    source: "examples/mnist/mnist_test_lmdb"
    batch_size: 100
    backend: LMDB
  }
}
layer {
  name: "conv1"
  type: "Convolution"
  bottom: "data"
  top: "conv1"
  param {
    lr_mult: 1
  }
  param {
    lr_mult: 2
  }
  convolution_param {
    num_output: 20
    kernel_size: 5
    stride: 1
    weight_filler {
      type: "xavier"
    }
    bias_filler {
      type: "constant"
    }
  }
}
layer {
  name: "pool1"
  type: "Pooling"
  bottom: "conv1"
  top: "pool1"
  pooling_param {
    pool: MAX
    kernel_size: 2
    stride: 2
  }
}
layer {
  name: "conv2"
  type: "Convolution"
  bottom: "pool1"
  top: "conv2"
  param {
    lr_mult: 1
  }
  param {
    lr_mult: 2
  }
  convolution_param {
    num_output: 50
    kernel_size: 5
    stride: 1
    weight_filler {
      type: "xavier"
    }
    bias_filler {
      type: "constant"
    }
  }
}
layer {
  name: "pool2"
  type: "Pooling"
  bottom: "conv2"
  top: "pool2"
  pooling_param {
    pool: MAX
    kernel_size: 2
    stride: 2
  }
}
layer {
  name: "ip1"
  type: "InnerProduct"
  bottom: "pool2"
  top: "ip1"
  param {
    lr_mult: 1
  }
  param {
    lr_mult: 2
  }
  inner_product_param {
    num_output: 64
    weight_filler {
      type: "xavier"
    }
    bias_filler {
      type: "constant"
    }
  }
}
layer {
  name: "relu1"
  type: "ReLU"
  bottom: "ip1"
  top: "ip1"
}
layer {
  name: "ip2"
  type: "InnerProduct"
  bottom: "ip1"
  top: "ip2"
  param {
    lr_mult: 1
  }
  param {
    lr_mult: 2
  }
  inner_product_param {
    num_output: 10
    weight_filler {
      type: "xavier"
    }
    bias_filler {
      type: "constant"
    }
  }
}
layer {
  name: "accuracy"
  type: "Accuracy"
  bottom: "ip2"
  bottom: "label"
  top: "accuracy"
  include {
    phase: TEST
  }
}
layer {
  name: "loss"
  type: "SoftmaxWithLoss"
  bottom: "ip2"
  bottom: "label"
  top: "loss"
}
I0425 15:39:09.467113 12937 layer_factory.hpp:77] Creating layer mnist
I0425 15:39:09.467214 12937 net.cpp:106] Creating Layer mnist
I0425 15:39:09.467234 12937 net.cpp:411] mnist -> data
I0425 15:39:09.467243 12937 net.cpp:411] mnist -> label
I0425 15:39:09.468739 12944 db_lmdb.cpp:38] Opened lmdb examples/mnist/mnist_test_lmdb
I0425 15:39:09.468860 12937 data_layer.cpp:41] output data size: 100,1,28,28
I0425 15:39:09.469799 12937 net.cpp:150] Setting up mnist
I0425 15:39:09.469812 12937 net.cpp:157] Top shape: 100 1 28 28 (78400)
I0425 15:39:09.469817 12937 net.cpp:157] Top shape: 100 (100)
I0425 15:39:09.469820 12937 net.cpp:165] Memory required for data: 314000
I0425 15:39:09.469823 12937 layer_factory.hpp:77] Creating layer label_mnist_1_split
I0425 15:39:09.469844 12937 net.cpp:106] Creating Layer label_mnist_1_split
I0425 15:39:09.469851 12937 net.cpp:454] label_mnist_1_split <- label
I0425 15:39:09.469859 12937 net.cpp:411] label_mnist_1_split -> label_mnist_1_split_0
I0425 15:39:09.469871 12937 net.cpp:411] label_mnist_1_split -> label_mnist_1_split_1
I0425 15:39:09.469987 12937 net.cpp:150] Setting up label_mnist_1_split
I0425 15:39:09.469998 12937 net.cpp:157] Top shape: 100 (100)
I0425 15:39:09.470002 12937 net.cpp:157] Top shape: 100 (100)
I0425 15:39:09.470006 12937 net.cpp:165] Memory required for data: 314800
I0425 15:39:09.470011 12937 layer_factory.hpp:77] Creating layer conv1
I0425 15:39:09.470026 12937 net.cpp:106] Creating Layer conv1
I0425 15:39:09.470032 12937 net.cpp:454] conv1 <- data
I0425 15:39:09.470041 12937 net.cpp:411] conv1 -> conv1
I0425 15:39:09.472365 12937 net.cpp:150] Setting up conv1
I0425 15:39:09.472380 12937 net.cpp:157] Top shape: 100 20 24 24 (1152000)
I0425 15:39:09.472384 12937 net.cpp:165] Memory required for data: 4922800
I0425 15:39:09.472393 12937 layer_factory.hpp:77] Creating layer pool1
I0425 15:39:09.472398 12937 net.cpp:106] Creating Layer pool1
I0425 15:39:09.472417 12937 net.cpp:454] pool1 <- conv1
I0425 15:39:09.472430 12937 net.cpp:411] pool1 -> pool1
I0425 15:39:09.473233 12937 net.cpp:150] Setting up pool1
I0425 15:39:09.473249 12937 net.cpp:157] Top shape: 100 20 12 12 (288000)
I0425 15:39:09.473259 12937 net.cpp:165] Memory required for data: 6074800
I0425 15:39:09.473268 12937 layer_factory.hpp:77] Creating layer conv2
I0425 15:39:09.473289 12937 net.cpp:106] Creating Layer conv2
I0425 15:39:09.473306 12937 net.cpp:454] conv2 <- pool1
I0425 15:39:09.473318 12937 net.cpp:411] conv2 -> conv2
I0425 15:39:09.475661 12937 net.cpp:150] Setting up conv2
I0425 15:39:09.475675 12937 net.cpp:157] Top shape: 100 50 8 8 (320000)
I0425 15:39:09.475679 12937 net.cpp:165] Memory required for data: 7354800
I0425 15:39:09.475692 12937 layer_factory.hpp:77] Creating layer pool2
I0425 15:39:09.475699 12937 net.cpp:106] Creating Layer pool2
I0425 15:39:09.475705 12937 net.cpp:454] pool2 <- conv2
I0425 15:39:09.475710 12937 net.cpp:411] pool2 -> pool2
I0425 15:39:09.476455 12937 net.cpp:150] Setting up pool2
I0425 15:39:09.476477 12937 net.cpp:157] Top shape: 100 50 4 4 (80000)
I0425 15:39:09.476481 12937 net.cpp:165] Memory required for data: 7674800
I0425 15:39:09.476485 12937 layer_factory.hpp:77] Creating layer ip1
I0425 15:39:09.476497 12937 net.cpp:106] Creating Layer ip1
I0425 15:39:09.476508 12937 net.cpp:454] ip1 <- pool2
I0425 15:39:09.476532 12937 net.cpp:411] ip1 -> ip1
I0425 15:39:09.477365 12937 net.cpp:150] Setting up ip1
I0425 15:39:09.477386 12937 net.cpp:157] Top shape: 100 64 (6400)
I0425 15:39:09.477394 12937 net.cpp:165] Memory required for data: 7700400
I0425 15:39:09.477402 12937 layer_factory.hpp:77] Creating layer relu1
I0425 15:39:09.477409 12937 net.cpp:106] Creating Layer relu1
I0425 15:39:09.477416 12937 net.cpp:454] relu1 <- ip1
I0425 15:39:09.477427 12937 net.cpp:397] relu1 -> ip1 (in-place)
I0425 15:39:09.478070 12937 net.cpp:150] Setting up relu1
I0425 15:39:09.478087 12937 net.cpp:157] Top shape: 100 64 (6400)
I0425 15:39:09.478108 12937 net.cpp:165] Memory required for data: 7726000
I0425 15:39:09.478116 12937 layer_factory.hpp:77] Creating layer ip2
I0425 15:39:09.478129 12937 net.cpp:106] Creating Layer ip2
I0425 15:39:09.478132 12937 net.cpp:454] ip2 <- ip1
I0425 15:39:09.478140 12937 net.cpp:411] ip2 -> ip2
I0425 15:39:09.478248 12937 net.cpp:150] Setting up ip2
I0425 15:39:09.478260 12937 net.cpp:157] Top shape: 100 10 (1000)
I0425 15:39:09.478266 12937 net.cpp:165] Memory required for data: 7730000
I0425 15:39:09.478277 12937 layer_factory.hpp:77] Creating layer ip2_ip2_0_split
I0425 15:39:09.478282 12937 net.cpp:106] Creating Layer ip2_ip2_0_split
I0425 15:39:09.478286 12937 net.cpp:454] ip2_ip2_0_split <- ip2
I0425 15:39:09.478291 12937 net.cpp:411] ip2_ip2_0_split -> ip2_ip2_0_split_0
I0425 15:39:09.478307 12937 net.cpp:411] ip2_ip2_0_split -> ip2_ip2_0_split_1
I0425 15:39:09.478343 12937 net.cpp:150] Setting up ip2_ip2_0_split
I0425 15:39:09.478351 12937 net.cpp:157] Top shape: 100 10 (1000)
I0425 15:39:09.478361 12937 net.cpp:157] Top shape: 100 10 (1000)
I0425 15:39:09.478364 12937 net.cpp:165] Memory required for data: 7738000
I0425 15:39:09.478368 12937 layer_factory.hpp:77] Creating layer accuracy
I0425 15:39:09.478374 12937 net.cpp:106] Creating Layer accuracy
I0425 15:39:09.478377 12937 net.cpp:454] accuracy <- ip2_ip2_0_split_0
I0425 15:39:09.478380 12937 net.cpp:454] accuracy <- label_mnist_1_split_0
I0425 15:39:09.478385 12937 net.cpp:411] accuracy -> accuracy
…
