…
I0424 17:37:41.709313 11521 net.cpp:322] The NetState phase (0) differed from the phase (1) specified by a rule in layer mnist
I0424 17:37:41.709334 11521 net.cpp:322] The NetState phase (0) differed from the phase (1) specified by a rule in layer accuracy
I0424 17:37:41.709429 11521 net.cpp:49] Initializing net from parameters: 
name: "LeNet"
state {
  phase: TRAIN
}
layer {
  name: "mnist"
  type: "Data"
  top: "data"
  top: "label"
  include {
    phase: TRAIN
  }
  transform_param {
    scale: 0.00390625
  }
  data_param {
    source: "examples/mnist/mnist_train_lmdb"
    batch_size: 64
    backend: LMDB
  }
}
layer {
  name: "conv1"
  type: "Convolution"
  bottom: "data"
  top: "conv1"
  param {
    lr_mult: 1
  }
  param {
    lr_mult: 2
  }
  convolution_param {
    num_output: 20
    kernel_size: 5
    stride: 1
    weight_filler {
      type: "xavier"
    }
    bias_filler {
      type: "constant"
    }
  }
}
layer {
  name: "pool1"
  type: "Pooling"
  bottom: "conv1"
  top: "pool1"
  pooling_param {
    pool: MAX
    kernel_size: 2
    stride: 2
  }
}
layer {
  name: "conv2"
  type: "Convolution"
  bottom: "pool1"
  top: "conv2"
  param {
    lr_mult: 1
  }
  param {
    lr_mult: 2
  }
  convolution_param {
    num_output: 50
    kernel_size: 5
    stride: 1
    weight_filler {
      type: "xavier"
    }
    bias_filler {
      type: "constant"
    }
  }
}
layer {
  name: "pool2"
  type: "Pooling"
  bottom: "conv2"
  top: "pool2"
  pooling_param {
    pool: MAX
    kernel_size: 2
    stride: 2
  }
}
layer {
  name: "ip1"
  type: "InnerProduct"
  bottom: "pool2"
  top: "ip1"
  param {
    lr_mult: 1
  }
  param {
    lr_mult: 2
  }
  inner_product_param {
    num_output: 8
    weight_filler {
      type: "xavier"
    }
    bias_filler {
      type: "constant"
    }
  }
}
layer {
  name: "relu1"
  type: "ReLU"
  bottom: "ip1"
  top: "ip1"
}
layer {
  name: "ip2"
  type: "InnerProduct"
  bottom: "ip1"
  top: "ip2"
  param {
    lr_mult: 1
  }
  param {
    lr_mult: 2
  }
  inner_product_param {
    num_output: 10
    weight_filler {
      type: "xavier"
    }
    bias_filler {
      type: "constant"
    }
  }
}
layer {
  name: "loss"
  type: "SoftmaxWithLoss"
  bottom: "ip2"
  bottom: "label"
  top: "loss"
}
I0424 17:37:41.709523 11521 layer_factory.hpp:77] Creating layer mnist
I0424 17:37:41.710014 11521 net.cpp:106] Creating Layer mnist
I0424 17:37:41.710033 11521 net.cpp:411] mnist -> data
I0424 17:37:41.710072 11521 net.cpp:411] mnist -> label
I0424 17:37:41.710993 11526 db_lmdb.cpp:38] Opened lmdb examples/mnist/mnist_train_lmdb
I0424 17:37:41.717166 11521 data_layer.cpp:41] output data size: 64,1,28,28
I0424 17:37:41.717991 11521 net.cpp:150] Setting up mnist
I0424 17:37:41.718075 11521 net.cpp:157] Top shape: 64 1 28 28 (50176)
I0424 17:37:41.718128 11521 net.cpp:157] Top shape: 64 (64)
I0424 17:37:41.718168 11521 net.cpp:165] Memory required for data: 200960
I0424 17:37:41.718214 11521 layer_factory.hpp:77] Creating layer conv1
I0424 17:37:41.718274 11521 net.cpp:106] Creating Layer conv1
I0424 17:37:41.718319 11521 net.cpp:454] conv1 <- data
I0424 17:37:41.718369 11521 net.cpp:411] conv1 -> conv1
I0424 17:37:41.836381 11521 net.cpp:150] Setting up conv1
I0424 17:37:41.836412 11521 net.cpp:157] Top shape: 64 20 24 24 (737280)
I0424 17:37:41.836419 11521 net.cpp:165] Memory required for data: 3150080
I0424 17:37:41.836516 11521 layer_factory.hpp:77] Creating layer pool1
I0424 17:37:41.836549 11521 net.cpp:106] Creating Layer pool1
I0424 17:37:41.836558 11521 net.cpp:454] pool1 <- conv1
I0424 17:37:41.836592 11521 net.cpp:411] pool1 -> pool1
I0424 17:37:41.837209 11521 net.cpp:150] Setting up pool1
I0424 17:37:41.837224 11521 net.cpp:157] Top shape: 64 20 12 12 (184320)
I0424 17:37:41.837258 11521 net.cpp:165] Memory required for data: 3887360
I0424 17:37:41.837270 11521 layer_factory.hpp:77] Creating layer conv2
I0424 17:37:41.837308 11521 net.cpp:106] Creating Layer conv2
I0424 17:37:41.837316 11521 net.cpp:454] conv2 <- pool1
I0424 17:37:41.837350 11521 net.cpp:411] conv2 -> conv2
I0424 17:37:41.839465 11521 net.cpp:150] Setting up conv2
I0424 17:37:41.839481 11521 net.cpp:157] Top shape: 64 50 8 8 (204800)
I0424 17:37:41.839515 11521 net.cpp:165] Memory required for data: 4706560
I0424 17:37:41.839565 11521 layer_factory.hpp:77] Creating layer pool2
I0424 17:37:41.839581 11521 net.cpp:106] Creating Layer pool2
I0424 17:37:41.839588 11521 net.cpp:454] pool2 <- conv2
I0424 17:37:41.839598 11521 net.cpp:411] pool2 -> pool2
I0424 17:37:41.840245 11521 net.cpp:150] Setting up pool2
I0424 17:37:41.840258 11521 net.cpp:157] Top shape: 64 50 4 4 (51200)
I0424 17:37:41.840263 11521 net.cpp:165] Memory required for data: 4911360
I0424 17:37:41.840270 11521 layer_factory.hpp:77] Creating layer ip1
I0424 17:37:41.840291 11521 net.cpp:106] Creating Layer ip1
I0424 17:37:41.840298 11521 net.cpp:454] ip1 <- pool2
I0424 17:37:41.840307 11521 net.cpp:411] ip1 -> ip1
I0424 17:37:41.840847 11521 net.cpp:150] Setting up ip1
I0424 17:37:41.840862 11521 net.cpp:157] Top shape: 64 8 (512)
I0424 17:37:41.840867 11521 net.cpp:165] Memory required for data: 4913408
I0424 17:37:41.840879 11521 layer_factory.hpp:77] Creating layer relu1
I0424 17:37:41.840889 11521 net.cpp:106] Creating Layer relu1
I0424 17:37:41.840904 11521 net.cpp:454] relu1 <- ip1
I0424 17:37:41.840914 11521 net.cpp:397] relu1 -> ip1 (in-place)
I0424 17:37:41.841562 11521 net.cpp:150] Setting up relu1
I0424 17:37:41.841575 11521 net.cpp:157] Top shape: 64 8 (512)
I0424 17:37:41.841581 11521 net.cpp:165] Memory required for data: 4915456
I0424 17:37:41.841586 11521 layer_factory.hpp:77] Creating layer ip2
I0424 17:37:41.841598 11521 net.cpp:106] Creating Layer ip2
I0424 17:37:41.841604 11521 net.cpp:454] ip2 <- ip1
I0424 17:37:41.841614 11521 net.cpp:411] ip2 -> ip2
I0424 17:37:41.841758 11521 net.cpp:150] Setting up ip2
I0424 17:37:41.841769 11521 net.cpp:157] Top shape: 64 10 (640)
I0424 17:37:41.841774 11521 net.cpp:165] Memory required for data: 4918016
I0424 17:37:41.841784 11521 layer_factory.hpp:77] Creating layer loss
I0424 17:37:41.841797 11521 net.cpp:106] Creating Layer loss
I0424 17:37:41.841804 11521 net.cpp:454] loss <- ip2
I0424 17:37:41.841811 11521 net.cpp:454] loss <- label
I0424 17:37:41.841820 11521 net.cpp:411] loss -> loss
I0424 17:37:41.841840 11521 layer_factory.hpp:77] Creating layer loss
…
I0424 17:37:41.843137 11521 solver.cpp:181] Creating test net (#0) specified by net file: examples/mnist/test/lenet_train_test.prototxt
I0424 17:37:41.843174 11521 net.cpp:322] The NetState phase (1) differed from the phase (0) specified by a rule in layer mnist
I0424 17:37:41.843289 11521 net.cpp:49] Initializing net from parameters: 
name: "LeNet"
state {
  phase: TEST
}
layer {
  name: "mnist"
  type: "Data"
  top: "data"
  top: "label"
  include {
    phase: TEST
  }
  transform_param {
    scale: 0.00390625
  }
  data_param {
    source: "examples/mnist/mnist_test_lmdb"
    batch_size: 100
    backend: LMDB
  }
}
layer {
  name: "conv1"
  type: "Convolution"
  bottom: "data"
  top: "conv1"
  param {
    lr_mult: 1
  }
  param {
    lr_mult: 2
  }
  convolution_param {
    num_output: 20
    kernel_size: 5
    stride: 1
    weight_filler {
      type: "xavier"
    }
    bias_filler {
      type: "constant"
    }
  }
}
layer {
  name: "pool1"
  type: "Pooling"
  bottom: "conv1"
  top: "pool1"
  pooling_param {
    pool: MAX
    kernel_size: 2
    stride: 2
  }
}
layer {
  name: "conv2"
  type: "Convolution"
  bottom: "pool1"
  top: "conv2"
  param {
    lr_mult: 1
  }
  param {
    lr_mult: 2
  }
  convolution_param {
    num_output: 50
    kernel_size: 5
    stride: 1
    weight_filler {
      type: "xavier"
    }
    bias_filler {
      type: "constant"
    }
  }
}
layer {
  name: "pool2"
  type: "Pooling"
  bottom: "conv2"
  top: "pool2"
  pooling_param {
    pool: MAX
    kernel_size: 2
    stride: 2
  }
}
layer {
  name: "ip1"
  type: "InnerProduct"
  bottom: "pool2"
  top: "ip1"
  param {
    lr_mult: 1
  }
  param {
    lr_mult: 2
  }
  inner_product_param {
    num_output: 8
    weight_filler {
      type: "xavier"
    }
    bias_filler {
      type: "constant"
    }
  }
}
layer {
  name: "relu1"
  type: "ReLU"
  bottom: "ip1"
  top: "ip1"
}
layer {
  name: "ip2"
  type: "InnerProduct"
  bottom: "ip1"
  top: "ip2"
  param {
    lr_mult: 1
  }
  param {
    lr_mult: 2
  }
  inner_product_param {
    num_output: 10
    weight_filler {
      type: "xavier"
    }
    bias_filler {
      type: "constant"
    }
  }
}
layer {
  name: "accuracy"
  type: "Accuracy"
  bottom: "ip2"
  bottom: "label"
  top: "accuracy"
  include {
    phase: TEST
  }
}
layer {
  name: "loss"
  type: "SoftmaxWithLoss"
  bottom: "ip2"
  bottom: "label"
  top: "loss"
}
I0424 17:37:41.843394 11521 layer_factory.hpp:77] Creating layer mnist
I0424 17:37:41.843535 11521 net.cpp:106] Creating Layer mnist
I0424 17:37:41.843549 11521 net.cpp:411] mnist -> data
I0424 17:37:41.843562 11521 net.cpp:411] mnist -> label
I0424 17:37:41.844768 11528 db_lmdb.cpp:38] Opened lmdb examples/mnist/mnist_test_lmdb
I0424 17:37:41.844924 11521 data_layer.cpp:41] output data size: 100,1,28,28
I0424 17:37:41.845870 11521 net.cpp:150] Setting up mnist
I0424 17:37:41.845885 11521 net.cpp:157] Top shape: 100 1 28 28 (78400)
I0424 17:37:41.845922 11521 net.cpp:157] Top shape: 100 (100)
I0424 17:37:41.845930 11521 net.cpp:165] Memory required for data: 314000
I0424 17:37:41.845957 11521 layer_factory.hpp:77] Creating layer label_mnist_1_split
I0424 17:37:41.845981 11521 net.cpp:106] Creating Layer label_mnist_1_split
I0424 17:37:41.845989 11521 net.cpp:454] label_mnist_1_split <- label
I0424 17:37:41.846015 11521 net.cpp:411] label_mnist_1_split -> label_mnist_1_split_0
I0424 17:37:41.846045 11521 net.cpp:411] label_mnist_1_split -> label_mnist_1_split_1
I0424 17:37:41.846101 11521 net.cpp:150] Setting up label_mnist_1_split
I0424 17:37:41.846112 11521 net.cpp:157] Top shape: 100 (100)
I0424 17:37:41.846153 11521 net.cpp:157] Top shape: 100 (100)
I0424 17:37:41.846161 11521 net.cpp:165] Memory required for data: 314800
I0424 17:37:41.846166 11521 layer_factory.hpp:77] Creating layer conv1
I0424 17:37:41.846181 11521 net.cpp:106] Creating Layer conv1
I0424 17:37:41.846189 11521 net.cpp:454] conv1 <- data
I0424 17:37:41.846199 11521 net.cpp:411] conv1 -> conv1
I0424 17:37:41.848220 11521 net.cpp:150] Setting up conv1
I0424 17:37:41.848237 11521 net.cpp:157] Top shape: 100 20 24 24 (1152000)
I0424 17:37:41.848244 11521 net.cpp:165] Memory required for data: 4922800
I0424 17:37:41.848258 11521 layer_factory.hpp:77] Creating layer pool1
I0424 17:37:41.848268 11521 net.cpp:106] Creating Layer pool1
I0424 17:37:41.848287 11521 net.cpp:454] pool1 <- conv1
I0424 17:37:41.848297 11521 net.cpp:411] pool1 -> pool1
I0424 17:37:41.848990 11521 net.cpp:150] Setting up pool1
I0424 17:37:41.849004 11521 net.cpp:157] Top shape: 100 20 12 12 (288000)
I0424 17:37:41.849009 11521 net.cpp:165] Memory required for data: 6074800
I0424 17:37:41.849014 11521 layer_factory.hpp:77] Creating layer conv2
I0424 17:37:41.849028 11521 net.cpp:106] Creating Layer conv2
I0424 17:37:41.849035 11521 net.cpp:454] conv2 <- pool1
I0424 17:37:41.849047 11521 net.cpp:411] conv2 -> conv2
I0424 17:37:41.851862 11521 net.cpp:150] Setting up conv2
I0424 17:37:41.851881 11521 net.cpp:157] Top shape: 100 50 8 8 (320000)
I0424 17:37:41.851888 11521 net.cpp:165] Memory required for data: 7354800
I0424 17:37:41.851900 11521 layer_factory.hpp:77] Creating layer pool2
I0424 17:37:41.851913 11521 net.cpp:106] Creating Layer pool2
I0424 17:37:41.851927 11521 net.cpp:454] pool2 <- conv2
I0424 17:37:41.851950 11521 net.cpp:411] pool2 -> pool2
I0424 17:37:41.852835 11521 net.cpp:150] Setting up pool2
I0424 17:37:41.852874 11521 net.cpp:157] Top shape: 100 50 4 4 (80000)
I0424 17:37:41.852905 11521 net.cpp:165] Memory required for data: 7674800
I0424 17:37:41.852932 11521 layer_factory.hpp:77] Creating layer ip1
I0424 17:37:41.852962 11521 net.cpp:106] Creating Layer ip1
I0424 17:37:41.852977 11521 net.cpp:454] ip1 <- pool2
I0424 17:37:41.852988 11521 net.cpp:411] ip1 -> ip1
I0424 17:37:41.853189 11521 net.cpp:150] Setting up ip1
I0424 17:37:41.853205 11521 net.cpp:157] Top shape: 100 8 (800)
I0424 17:37:41.853214 11521 net.cpp:165] Memory required for data: 7678000
I0424 17:37:41.853226 11521 layer_factory.hpp:77] Creating layer relu1
I0424 17:37:41.853247 11521 net.cpp:106] Creating Layer relu1
I0424 17:37:41.853255 11521 net.cpp:454] relu1 <- ip1
I0424 17:37:41.853267 11521 net.cpp:397] relu1 -> ip1 (in-place)
I0424 17:37:41.853981 11521 net.cpp:150] Setting up relu1
I0424 17:37:41.853996 11521 net.cpp:157] Top shape: 100 8 (800)
I0424 17:37:41.854001 11521 net.cpp:165] Memory required for data: 7681200
I0424 17:37:41.854007 11521 layer_factory.hpp:77] Creating layer ip2
I0424 17:37:41.854022 11521 net.cpp:106] Creating Layer ip2
I0424 17:37:41.854029 11521 net.cpp:454] ip2 <- ip1
I0424 17:37:41.854040 11521 net.cpp:411] ip2 -> ip2
I0424 17:37:41.854195 11521 net.cpp:150] Setting up ip2
I0424 17:37:41.854207 11521 net.cpp:157] Top shape: 100 10 (1000)
I0424 17:37:41.854212 11521 net.cpp:165] Memory required for data: 7685200
I0424 17:37:41.854220 11521 layer_factory.hpp:77] Creating layer ip2_ip2_0_split
I0424 17:37:41.854229 11521 net.cpp:106] Creating Layer ip2_ip2_0_split
I0424 17:37:41.854235 11521 net.cpp:454] ip2_ip2_0_split <- ip2
I0424 17:37:41.854243 11521 net.cpp:411] ip2_ip2_0_split -> ip2_ip2_0_split_0
I0424 17:37:41.854252 11521 net.cpp:411] ip2_ip2_0_split -> ip2_ip2_0_split_1
I0424 17:37:41.854305 11521 net.cpp:150] Setting up ip2_ip2_0_split
I0424 17:37:41.854315 11521 net.cpp:157] Top shape: 100 10 (1000)
I0424 17:37:41.854322 11521 net.cpp:157] Top shape: 100 10 (1000)
I0424 17:37:41.854327 11521 net.cpp:165] Memory required for data: 7693200
I0424 17:37:41.854332 11521 layer_factory.hpp:77] Creating layer accuracy
I0424 17:37:41.854341 11521 net.cpp:106] Creating Layer accuracy
I0424 17:37:41.854346 11521 net.cpp:454] accuracy <- ip2_ip2_0_split_0
I0424 17:37:41.854353 11521 net.cpp:454] accuracy <- label_mnist_1_split_0
I0424 17:37:41.854363 11521 net.cpp:411] accuracy -> accuracy
…
