…
I0424 17:35:06.664613 11471 net.cpp:322] The NetState phase (0) differed from the phase (1) specified by a rule in layer mnist
I0424 17:35:06.664636 11471 net.cpp:322] The NetState phase (0) differed from the phase (1) specified by a rule in layer accuracy
I0424 17:35:06.664738 11471 net.cpp:49] Initializing net from parameters: 
name: "LeNet"
state {
  phase: TRAIN
}
layer {
  name: "mnist"
  type: "Data"
  top: "data"
  top: "label"
  include {
    phase: TRAIN
  }
  transform_param {
    scale: 0.00390625
  }
  data_param {
    source: "examples/mnist/mnist_train_lmdb"
    batch_size: 64
    backend: LMDB
  }
}
layer {
  name: "conv1"
  type: "Convolution"
  bottom: "data"
  top: "conv1"
  param {
    lr_mult: 1
  }
  param {
    lr_mult: 2
  }
  convolution_param {
    num_output: 20
    kernel_size: 5
    stride: 1
    weight_filler {
      type: "xavier"
    }
    bias_filler {
      type: "constant"
    }
  }
}
layer {
  name: "pool1"
  type: "Pooling"
  bottom: "conv1"
  top: "pool1"
  pooling_param {
    pool: MAX
    kernel_size: 2
    stride: 2
  }
}
layer {
  name: "conv2"
  type: "Convolution"
  bottom: "pool1"
  top: "conv2"
  param {
    lr_mult: 1
  }
  param {
    lr_mult: 2
  }
  convolution_param {
    num_output: 50
    kernel_size: 5
    stride: 1
    weight_filler {
      type: "xavier"
    }
    bias_filler {
      type: "constant"
    }
  }
}
layer {
  name: "pool2"
  type: "Pooling"
  bottom: "conv2"
  top: "pool2"
  pooling_param {
    pool: MAX
    kernel_size: 2
    stride: 2
  }
}
layer {
  name: "ip1"
  type: "InnerProduct"
  bottom: "pool2"
  top: "ip1"
  param {
    lr_mult: 1
  }
  param {
    lr_mult: 2
  }
  inner_product_param {
    num_output: 8
    weight_filler {
      type: "xavier"
    }
    bias_filler {
      type: "constant"
    }
  }
}
layer {
  name: "relu1"
  type: "ReLU"
  bottom: "ip1"
  top: "ip1"
}
layer {
  name: "ip2"
  type: "InnerProduct"
  bottom: "ip1"
  top: "ip2"
  param {
    lr_mult: 1
  }
  param {
    lr_mult: 2
  }
  inner_product_param {
    num_output: 100
    weight_filler {
      type: "xavier"
    }
    bias_filler {
      type: "constant"
    }
  }
}
layer {
  name: "loss"
  type: "SoftmaxWithLoss"
  bottom: "ip2"
  bottom: "label"
  top: "loss"
}
I0424 17:35:06.664836 11471 layer_factory.hpp:77] Creating layer mnist
I0424 17:35:06.665506 11471 net.cpp:106] Creating Layer mnist
I0424 17:35:06.665526 11471 net.cpp:411] mnist -> data
I0424 17:35:06.665563 11471 net.cpp:411] mnist -> label
I0424 17:35:06.666460 11476 db_lmdb.cpp:38] Opened lmdb examples/mnist/mnist_train_lmdb
I0424 17:35:06.675493 11471 data_layer.cpp:41] output data size: 64,1,28,28
I0424 17:35:06.676496 11471 net.cpp:150] Setting up mnist
I0424 17:35:06.676520 11471 net.cpp:157] Top shape: 64 1 28 28 (50176)
I0424 17:35:06.676529 11471 net.cpp:157] Top shape: 64 (64)
I0424 17:35:06.676534 11471 net.cpp:165] Memory required for data: 200960
I0424 17:35:06.676548 11471 layer_factory.hpp:77] Creating layer conv1
I0424 17:35:06.676568 11471 net.cpp:106] Creating Layer conv1
I0424 17:35:06.676576 11471 net.cpp:454] conv1 <- data
I0424 17:35:06.676594 11471 net.cpp:411] conv1 -> conv1
I0424 17:35:06.824904 11471 net.cpp:150] Setting up conv1
I0424 17:35:06.824937 11471 net.cpp:157] Top shape: 64 20 24 24 (737280)
I0424 17:35:06.824944 11471 net.cpp:165] Memory required for data: 3150080
I0424 17:35:06.824968 11471 layer_factory.hpp:77] Creating layer pool1
I0424 17:35:06.824985 11471 net.cpp:106] Creating Layer pool1
I0424 17:35:06.824992 11471 net.cpp:454] pool1 <- conv1
I0424 17:35:06.825001 11471 net.cpp:411] pool1 -> pool1
I0424 17:35:06.825887 11471 net.cpp:150] Setting up pool1
I0424 17:35:06.825904 11471 net.cpp:157] Top shape: 64 20 12 12 (184320)
I0424 17:35:06.825911 11471 net.cpp:165] Memory required for data: 3887360
I0424 17:35:06.825917 11471 layer_factory.hpp:77] Creating layer conv2
I0424 17:35:06.825932 11471 net.cpp:106] Creating Layer conv2
I0424 17:35:06.825937 11471 net.cpp:454] conv2 <- pool1
I0424 17:35:06.825947 11471 net.cpp:411] conv2 -> conv2
I0424 17:35:06.828960 11471 net.cpp:150] Setting up conv2
I0424 17:35:06.828979 11471 net.cpp:157] Top shape: 64 50 8 8 (204800)
I0424 17:35:06.828985 11471 net.cpp:165] Memory required for data: 4706560
I0424 17:35:06.828996 11471 layer_factory.hpp:77] Creating layer pool2
I0424 17:35:06.829010 11471 net.cpp:106] Creating Layer pool2
I0424 17:35:06.829015 11471 net.cpp:454] pool2 <- conv2
I0424 17:35:06.829021 11471 net.cpp:411] pool2 -> pool2
I0424 17:35:06.829885 11471 net.cpp:150] Setting up pool2
I0424 17:35:06.829903 11471 net.cpp:157] Top shape: 64 50 4 4 (51200)
I0424 17:35:06.829910 11471 net.cpp:165] Memory required for data: 4911360
I0424 17:35:06.829916 11471 layer_factory.hpp:77] Creating layer ip1
I0424 17:35:06.829931 11471 net.cpp:106] Creating Layer ip1
I0424 17:35:06.829936 11471 net.cpp:454] ip1 <- pool2
I0424 17:35:06.829946 11471 net.cpp:411] ip1 -> ip1
I0424 17:35:06.830588 11471 net.cpp:150] Setting up ip1
I0424 17:35:06.830605 11471 net.cpp:157] Top shape: 64 8 (512)
I0424 17:35:06.830610 11471 net.cpp:165] Memory required for data: 4913408
I0424 17:35:06.830621 11471 layer_factory.hpp:77] Creating layer relu1
I0424 17:35:06.830634 11471 net.cpp:106] Creating Layer relu1
I0424 17:35:06.830641 11471 net.cpp:454] relu1 <- ip1
I0424 17:35:06.830647 11471 net.cpp:397] relu1 -> ip1 (in-place)
I0424 17:35:06.831439 11471 net.cpp:150] Setting up relu1
I0424 17:35:06.831454 11471 net.cpp:157] Top shape: 64 8 (512)
I0424 17:35:06.831460 11471 net.cpp:165] Memory required for data: 4915456
I0424 17:35:06.831465 11471 layer_factory.hpp:77] Creating layer ip2
I0424 17:35:06.831476 11471 net.cpp:106] Creating Layer ip2
I0424 17:35:06.831482 11471 net.cpp:454] ip2 <- ip1
I0424 17:35:06.831490 11471 net.cpp:411] ip2 -> ip2
I0424 17:35:06.831629 11471 net.cpp:150] Setting up ip2
I0424 17:35:06.831640 11471 net.cpp:157] Top shape: 64 100 (6400)
I0424 17:35:06.831645 11471 net.cpp:165] Memory required for data: 4941056
I0424 17:35:06.831653 11471 layer_factory.hpp:77] Creating layer loss
I0424 17:35:06.831665 11471 net.cpp:106] Creating Layer loss
I0424 17:35:06.831671 11471 net.cpp:454] loss <- ip2
I0424 17:35:06.831677 11471 net.cpp:454] loss <- label
I0424 17:35:06.831686 11471 net.cpp:411] loss -> loss
I0424 17:35:06.831701 11471 layer_factory.hpp:77] Creating layer loss
…
I0424 17:35:06.833181 11471 solver.cpp:181] Creating test net (#0) specified by net file: examples/mnist/test/lenet_train_test.prototxt
I0424 17:35:06.833220 11471 net.cpp:322] The NetState phase (1) differed from the phase (0) specified by a rule in layer mnist
I0424 17:35:06.833371 11471 net.cpp:49] Initializing net from parameters: 
name: "LeNet"
state {
  phase: TEST
}
layer {
  name: "mnist"
  type: "Data"
  top: "data"
  top: "label"
  include {
    phase: TEST
  }
  transform_param {
    scale: 0.00390625
  }
  data_param {
    source: "examples/mnist/mnist_test_lmdb"
    batch_size: 100
    backend: LMDB
  }
}
layer {
  name: "conv1"
  type: "Convolution"
  bottom: "data"
  top: "conv1"
  param {
    lr_mult: 1
  }
  param {
    lr_mult: 2
  }
  convolution_param {
    num_output: 20
    kernel_size: 5
    stride: 1
    weight_filler {
      type: "xavier"
    }
    bias_filler {
      type: "constant"
    }
  }
}
layer {
  name: "pool1"
  type: "Pooling"
  bottom: "conv1"
  top: "pool1"
  pooling_param {
    pool: MAX
    kernel_size: 2
    stride: 2
  }
}
layer {
  name: "conv2"
  type: "Convolution"
  bottom: "pool1"
  top: "conv2"
  param {
    lr_mult: 1
  }
  param {
    lr_mult: 2
  }
  convolution_param {
    num_output: 50
    kernel_size: 5
    stride: 1
    weight_filler {
      type: "xavier"
    }
    bias_filler {
      type: "constant"
    }
  }
}
layer {
  name: "pool2"
  type: "Pooling"
  bottom: "conv2"
  top: "pool2"
  pooling_param {
    pool: MAX
    kernel_size: 2
    stride: 2
  }
}
layer {
  name: "ip1"
  type: "InnerProduct"
  bottom: "pool2"
  top: "ip1"
  param {
    lr_mult: 1
  }
  param {
    lr_mult: 2
  }
  inner_product_param {
    num_output: 8
    weight_filler {
      type: "xavier"
    }
    bias_filler {
      type: "constant"
    }
  }
}
layer {
  name: "relu1"
  type: "ReLU"
  bottom: "ip1"
  top: "ip1"
}
layer {
  name: "ip2"
  type: "InnerProduct"
  bottom: "ip1"
  top: "ip2"
  param {
    lr_mult: 1
  }
  param {
    lr_mult: 2
  }
  inner_product_param {
    num_output: 100
    weight_filler {
      type: "xavier"
    }
    bias_filler {
      type: "constant"
    }
  }
}
layer {
  name: "accuracy"
  type: "Accuracy"
  bottom: "ip2"
  bottom: "label"
  top: "accuracy"
  include {
    phase: TEST
  }
}
layer {
  name: "loss"
  type: "SoftmaxWithLoss"
  bottom: "ip2"
  bottom: "label"
  top: "loss"
}
I0424 17:35:06.833468 11471 layer_factory.hpp:77] Creating layer mnist
I0424 17:35:06.833770 11471 net.cpp:106] Creating Layer mnist
I0424 17:35:06.833781 11471 net.cpp:411] mnist -> data
I0424 17:35:06.833792 11471 net.cpp:411] mnist -> label
I0424 17:35:06.834728 11478 db_lmdb.cpp:38] Opened lmdb examples/mnist/mnist_test_lmdb
I0424 17:35:06.834866 11471 data_layer.cpp:41] output data size: 100,1,28,28
I0424 17:35:06.835906 11471 net.cpp:150] Setting up mnist
I0424 17:35:06.835922 11471 net.cpp:157] Top shape: 100 1 28 28 (78400)
I0424 17:35:06.835932 11471 net.cpp:157] Top shape: 100 (100)
I0424 17:35:06.835937 11471 net.cpp:165] Memory required for data: 314000
I0424 17:35:06.835942 11471 layer_factory.hpp:77] Creating layer label_mnist_1_split
I0424 17:35:06.835952 11471 net.cpp:106] Creating Layer label_mnist_1_split
I0424 17:35:06.835958 11471 net.cpp:454] label_mnist_1_split <- label
I0424 17:35:06.835964 11471 net.cpp:411] label_mnist_1_split -> label_mnist_1_split_0
I0424 17:35:06.835974 11471 net.cpp:411] label_mnist_1_split -> label_mnist_1_split_1
I0424 17:35:06.836032 11471 net.cpp:150] Setting up label_mnist_1_split
I0424 17:35:06.836041 11471 net.cpp:157] Top shape: 100 (100)
I0424 17:35:06.836047 11471 net.cpp:157] Top shape: 100 (100)
I0424 17:35:06.836051 11471 net.cpp:165] Memory required for data: 314800
I0424 17:35:06.836056 11471 layer_factory.hpp:77] Creating layer conv1
I0424 17:35:06.836069 11471 net.cpp:106] Creating Layer conv1
I0424 17:35:06.836076 11471 net.cpp:454] conv1 <- data
I0424 17:35:06.836082 11471 net.cpp:411] conv1 -> conv1
I0424 17:35:06.839160 11471 net.cpp:150] Setting up conv1
I0424 17:35:06.839180 11471 net.cpp:157] Top shape: 100 20 24 24 (1152000)
I0424 17:35:06.839189 11471 net.cpp:165] Memory required for data: 4922800
I0424 17:35:06.839202 11471 layer_factory.hpp:77] Creating layer pool1
I0424 17:35:06.839212 11471 net.cpp:106] Creating Layer pool1
I0424 17:35:06.839233 11471 net.cpp:454] pool1 <- conv1
I0424 17:35:06.839251 11471 net.cpp:411] pool1 -> pool1
I0424 17:35:06.840106 11471 net.cpp:150] Setting up pool1
I0424 17:35:06.840124 11471 net.cpp:157] Top shape: 100 20 12 12 (288000)
I0424 17:35:06.840131 11471 net.cpp:165] Memory required for data: 6074800
I0424 17:35:06.840136 11471 layer_factory.hpp:77] Creating layer conv2
I0424 17:35:06.840150 11471 net.cpp:106] Creating Layer conv2
I0424 17:35:06.840157 11471 net.cpp:454] conv2 <- pool1
I0424 17:35:06.840174 11471 net.cpp:411] conv2 -> conv2
I0424 17:35:06.843123 11471 net.cpp:150] Setting up conv2
I0424 17:35:06.843140 11471 net.cpp:157] Top shape: 100 50 8 8 (320000)
I0424 17:35:06.843147 11471 net.cpp:165] Memory required for data: 7354800
I0424 17:35:06.843160 11471 layer_factory.hpp:77] Creating layer pool2
I0424 17:35:06.843170 11471 net.cpp:106] Creating Layer pool2
I0424 17:35:06.843175 11471 net.cpp:454] pool2 <- conv2
I0424 17:35:06.843183 11471 net.cpp:411] pool2 -> pool2
I0424 17:35:06.844130 11471 net.cpp:150] Setting up pool2
I0424 17:35:06.844146 11471 net.cpp:157] Top shape: 100 50 4 4 (80000)
I0424 17:35:06.844151 11471 net.cpp:165] Memory required for data: 7674800
I0424 17:35:06.844156 11471 layer_factory.hpp:77] Creating layer ip1
I0424 17:35:06.844167 11471 net.cpp:106] Creating Layer ip1
I0424 17:35:06.844173 11471 net.cpp:454] ip1 <- pool2
I0424 17:35:06.844182 11471 net.cpp:411] ip1 -> ip1
I0424 17:35:06.844362 11471 net.cpp:150] Setting up ip1
I0424 17:35:06.844375 11471 net.cpp:157] Top shape: 100 8 (800)
I0424 17:35:06.844380 11471 net.cpp:165] Memory required for data: 7678000
I0424 17:35:06.844391 11471 layer_factory.hpp:77] Creating layer relu1
I0424 17:35:06.844399 11471 net.cpp:106] Creating Layer relu1
I0424 17:35:06.844404 11471 net.cpp:454] relu1 <- ip1
I0424 17:35:06.844411 11471 net.cpp:397] relu1 -> ip1 (in-place)
I0424 17:35:06.845219 11471 net.cpp:150] Setting up relu1
I0424 17:35:06.845235 11471 net.cpp:157] Top shape: 100 8 (800)
I0424 17:35:06.845242 11471 net.cpp:165] Memory required for data: 7681200
I0424 17:35:06.845247 11471 layer_factory.hpp:77] Creating layer ip2
I0424 17:35:06.845257 11471 net.cpp:106] Creating Layer ip2
I0424 17:35:06.845263 11471 net.cpp:454] ip2 <- ip1
I0424 17:35:06.845279 11471 net.cpp:411] ip2 -> ip2
I0424 17:35:06.845432 11471 net.cpp:150] Setting up ip2
I0424 17:35:06.845443 11471 net.cpp:157] Top shape: 100 100 (10000)
I0424 17:35:06.845448 11471 net.cpp:165] Memory required for data: 7721200
I0424 17:35:06.845455 11471 layer_factory.hpp:77] Creating layer ip2_ip2_0_split
I0424 17:35:06.845463 11471 net.cpp:106] Creating Layer ip2_ip2_0_split
I0424 17:35:06.845468 11471 net.cpp:454] ip2_ip2_0_split <- ip2
I0424 17:35:06.845476 11471 net.cpp:411] ip2_ip2_0_split -> ip2_ip2_0_split_0
I0424 17:35:06.845484 11471 net.cpp:411] ip2_ip2_0_split -> ip2_ip2_0_split_1
I0424 17:35:06.845530 11471 net.cpp:150] Setting up ip2_ip2_0_split
I0424 17:35:06.845540 11471 net.cpp:157] Top shape: 100 100 (10000)
I0424 17:35:06.845546 11471 net.cpp:157] Top shape: 100 100 (10000)
I0424 17:35:06.845549 11471 net.cpp:165] Memory required for data: 7801200
I0424 17:35:06.845553 11471 layer_factory.hpp:77] Creating layer accuracy
I0424 17:35:06.845561 11471 net.cpp:106] Creating Layer accuracy
I0424 17:35:06.845566 11471 net.cpp:454] accuracy <- ip2_ip2_0_split_0
I0424 17:35:06.845572 11471 net.cpp:454] accuracy <- label_mnist_1_split_0
I0424 17:35:06.845578 11471 net.cpp:411] accuracy -> accuracy
…
