…
I0428 22:37:53.996646  2452 net.cpp:322] The NetState phase (0) differed from the phase (1) specified by a rule in layer mnist
I0428 22:37:53.996690  2452 net.cpp:322] The NetState phase (0) differed from the phase (1) specified by a rule in layer accuracy
I0428 22:37:53.996820  2452 net.cpp:49] Initializing net from parameters: 
name: "LeNet"
state {
  phase: TRAIN
}
layer {
  name: "mnist"
  type: "Data"
  top: "data"
  top: "label"
  include {
    phase: TRAIN
  }
  transform_param {
    scale: 0.00390625
  }
  data_param {
    source: "examples/mnist/mnist_train_lmdb"
    batch_size: 64
    backend: LMDB
  }
}
layer {
  name: "conv1"
  type: "Convolution"
  bottom: "data"
  top: "conv1"
  param {
    lr_mult: 1
  }
  param {
    lr_mult: 2
  }
  convolution_param {
    num_output: 20
    kernel_size: 5
    stride: 1
    weight_filler {
      type: "xavier"
    }
    bias_filler {
      type: "constant"
    }
  }
}
layer {
  name: "pool1"
  type: "Pooling"
  bottom: "conv1"
  top: "pool1"
  pooling_param {
    pool: MAX
    kernel_size: 2
    stride: 2
  }
}
layer {
  name: "conv2"
  type: "Convolution"
  bottom: "pool1"
  top: "conv2"
  param {
    lr_mult: 1
  }
  param {
    lr_mult: 2
  }
  convolution_param {
    num_output: 50
    kernel_size: 5
    stride: 1
    weight_filler {
      type: "xavier"
    }
    bias_filler {
      type: "constant"
    }
  }
}
layer {
  name: "pool2"
  type: "Pooling"
  bottom: "conv2"
  top: "pool2"
  pooling_param {
    pool: MAX
    kernel_size: 2
    stride: 2
  }
}
layer {
  name: "drop2"
  type: "Dropout"
  bottom: "pool2"
  top: "pool2"
  dropout_param {
    dropout_ratio: 0.5
  }
}
layer {
  name: "ip1"
  type: "InnerProduct"
  bottom: "pool2"
  top: "ip1"
  param {
    lr_mult: 1
  }
  param {
    lr_mult: 2
  }
  inner_product_param {
    num_output: 500
    weight_filler {
      type: "xavier"
    }
    bias_filler {
      type: "constant"
    }
  }
}
layer {
  name: "relu1"
  type: "ReLU"
  bottom: "ip1"
  top: "ip1"
}
layer {
  name: "ip2"
  type: "InnerProduct"
  bottom: "ip1"
  top: "ip2"
  param {
    lr_mult: 1
  }
  param {
    lr_mult: 2
  }
  inner_product_param {
    num_output: 10
    weight_filler {
      type: "xavier"
    }
    bias_filler {
      type: "constant"
    }
  }
}
layer {
  name: "loss"
  type: "SoftmaxWithLoss"
  bottom: "ip2"
  bottom: "label"
  top: "loss"
}
I0428 22:37:53.997442  2452 layer_factory.hpp:77] Creating layer mnist
I0428 22:37:53.998173  2452 net.cpp:106] Creating Layer mnist
I0428 22:37:53.998206  2452 net.cpp:411] mnist -> data
I0428 22:37:53.998253  2452 net.cpp:411] mnist -> label
I0428 22:37:53.999258  2457 db_lmdb.cpp:38] Opened lmdb examples/mnist/mnist_train_lmdb
I0428 22:37:54.007762  2452 data_layer.cpp:41] output data size: 64,1,28,28
I0428 22:37:54.010383  2452 net.cpp:150] Setting up mnist
I0428 22:37:54.010452  2452 net.cpp:157] Top shape: 64 1 28 28 (50176)
I0428 22:37:54.010478  2452 net.cpp:157] Top shape: 64 (64)
I0428 22:37:54.010499  2452 net.cpp:165] Memory required for data: 200960
I0428 22:37:54.010527  2452 layer_factory.hpp:77] Creating layer conv1
I0428 22:37:54.010572  2452 net.cpp:106] Creating Layer conv1
I0428 22:37:54.010599  2452 net.cpp:454] conv1 <- data
I0428 22:37:54.010630  2452 net.cpp:411] conv1 -> conv1
I0428 22:37:54.162830  2452 net.cpp:150] Setting up conv1
I0428 22:37:54.162911  2452 net.cpp:157] Top shape: 64 20 24 24 (737280)
I0428 22:37:54.162935  2452 net.cpp:165] Memory required for data: 3150080
I0428 22:37:54.162976  2452 layer_factory.hpp:77] Creating layer pool1
I0428 22:37:54.163010  2452 net.cpp:106] Creating Layer pool1
I0428 22:37:54.163048  2452 net.cpp:454] pool1 <- conv1
I0428 22:37:54.163085  2452 net.cpp:411] pool1 -> pool1
I0428 22:37:54.163900  2452 net.cpp:150] Setting up pool1
I0428 22:37:54.163938  2452 net.cpp:157] Top shape: 64 20 12 12 (184320)
I0428 22:37:54.163961  2452 net.cpp:165] Memory required for data: 3887360
I0428 22:37:54.163981  2452 layer_factory.hpp:77] Creating layer conv2
I0428 22:37:54.164008  2452 net.cpp:106] Creating Layer conv2
I0428 22:37:54.164028  2452 net.cpp:454] conv2 <- pool1
I0428 22:37:54.164055  2452 net.cpp:411] conv2 -> conv2
I0428 22:37:54.167032  2452 net.cpp:150] Setting up conv2
I0428 22:37:54.167083  2452 net.cpp:157] Top shape: 64 50 8 8 (204800)
I0428 22:37:54.167107  2452 net.cpp:165] Memory required for data: 4706560
I0428 22:37:54.167140  2452 layer_factory.hpp:77] Creating layer pool2
I0428 22:37:54.167168  2452 net.cpp:106] Creating Layer pool2
I0428 22:37:54.167191  2452 net.cpp:454] pool2 <- conv2
I0428 22:37:54.167215  2452 net.cpp:411] pool2 -> pool2
I0428 22:37:54.168061  2452 net.cpp:150] Setting up pool2
I0428 22:37:54.168098  2452 net.cpp:157] Top shape: 64 50 4 4 (51200)
I0428 22:37:54.168119  2452 net.cpp:165] Memory required for data: 4911360
I0428 22:37:54.168139  2452 layer_factory.hpp:77] Creating layer drop2
I0428 22:37:54.168172  2452 net.cpp:106] Creating Layer drop2
I0428 22:37:54.168195  2452 net.cpp:454] drop2 <- pool2
I0428 22:37:54.168216  2452 net.cpp:397] drop2 -> pool2 (in-place)
I0428 22:37:54.168277  2452 net.cpp:150] Setting up drop2
I0428 22:37:54.168308  2452 net.cpp:157] Top shape: 64 50 4 4 (51200)
I0428 22:37:54.168329  2452 net.cpp:165] Memory required for data: 5116160
I0428 22:37:54.168349  2452 layer_factory.hpp:77] Creating layer ip1
I0428 22:37:54.168372  2452 net.cpp:106] Creating Layer ip1
I0428 22:37:54.168395  2452 net.cpp:454] ip1 <- pool2
I0428 22:37:54.168419  2452 net.cpp:411] ip1 -> ip1
I0428 22:37:54.172111  2452 net.cpp:150] Setting up ip1
I0428 22:37:54.172155  2452 net.cpp:157] Top shape: 64 500 (32000)
I0428 22:37:54.172175  2452 net.cpp:165] Memory required for data: 5244160
I0428 22:37:54.172202  2452 layer_factory.hpp:77] Creating layer relu1
I0428 22:37:54.172227  2452 net.cpp:106] Creating Layer relu1
I0428 22:37:54.172246  2452 net.cpp:454] relu1 <- ip1
I0428 22:37:54.172267  2452 net.cpp:397] relu1 -> ip1 (in-place)
I0428 22:37:54.173076  2452 net.cpp:150] Setting up relu1
I0428 22:37:54.173115  2452 net.cpp:157] Top shape: 64 500 (32000)
I0428 22:37:54.173135  2452 net.cpp:165] Memory required for data: 5372160
I0428 22:37:54.173153  2452 layer_factory.hpp:77] Creating layer ip2
I0428 22:37:54.173178  2452 net.cpp:106] Creating Layer ip2
I0428 22:37:54.173197  2452 net.cpp:454] ip2 <- ip1
I0428 22:37:54.173220  2452 net.cpp:411] ip2 -> ip2
I0428 22:37:54.173872  2452 net.cpp:150] Setting up ip2
I0428 22:37:54.173910  2452 net.cpp:157] Top shape: 64 10 (640)
I0428 22:37:54.173930  2452 net.cpp:165] Memory required for data: 5374720
I0428 22:37:54.173954  2452 layer_factory.hpp:77] Creating layer loss
I0428 22:37:54.173982  2452 net.cpp:106] Creating Layer loss
I0428 22:37:54.174002  2452 net.cpp:454] loss <- ip2
I0428 22:37:54.174021  2452 net.cpp:454] loss <- label
I0428 22:37:54.174044  2452 net.cpp:411] loss -> loss
I0428 22:37:54.174074  2452 layer_factory.hpp:77] Creating layer loss
…
I0428 22:37:54.175835  2452 solver.cpp:181] Creating test net (#0) specified by net file: examples/mnist/test/lenet_train_test.prototxt
I0428 22:37:54.175891  2452 net.cpp:322] The NetState phase (1) differed from the phase (0) specified by a rule in layer mnist
I0428 22:37:54.176040  2452 net.cpp:49] Initializing net from parameters: 
name: "LeNet"
state {
  phase: TEST
}
layer {
  name: "mnist"
  type: "Data"
  top: "data"
  top: "label"
  include {
    phase: TEST
  }
  transform_param {
    scale: 0.00390625
  }
  data_param {
    source: "examples/mnist/mnist_test_lmdb"
    batch_size: 100
    backend: LMDB
  }
}
layer {
  name: "conv1"
  type: "Convolution"
  bottom: "data"
  top: "conv1"
  param {
    lr_mult: 1
  }
  param {
    lr_mult: 2
  }
  convolution_param {
    num_output: 20
    kernel_size: 5
    stride: 1
    weight_filler {
      type: "xavier"
    }
    bias_filler {
      type: "constant"
    }
  }
}
layer {
  name: "pool1"
  type: "Pooling"
  bottom: "conv1"
  top: "pool1"
  pooling_param {
    pool: MAX
    kernel_size: 2
    stride: 2
  }
}
layer {
  name: "conv2"
  type: "Convolution"
  bottom: "pool1"
  top: "conv2"
  param {
    lr_mult: 1
  }
  param {
    lr_mult: 2
  }
  convolution_param {
    num_output: 50
    kernel_size: 5
    stride: 1
    weight_filler {
      type: "xavier"
    }
    bias_filler {
      type: "constant"
    }
  }
}
layer {
  name: "pool2"
  type: "Pooling"
  bottom: "conv2"
  top: "pool2"
  pooling_param {
    pool: MAX
    kernel_size: 2
    stride: 2
  }
}
layer {
  name: "drop2"
  type: "Dropout"
  bottom: "pool2"
  top: "pool2"
  dropout_param {
    dropout_ratio: 0.5
  }
}
layer {
  name: "ip1"
  type: "InnerProduct"
  bottom: "pool2"
  top: "ip1"
  param {
    lr_mult: 1
  }
  param {
    lr_mult: 2
  }
  inner_product_param {
    num_output: 500
    weight_filler {
      type: "xavier"
    }
    bias_filler {
      type: "constant"
    }
  }
}
layer {
  name: "relu1"
  type: "ReLU"
  bottom: "ip1"
  top: "ip1"
}
layer {
  name: "ip2"
  type: "InnerProduct"
  bottom: "ip1"
  top: "ip2"
  param {
    lr_mult: 1
  }
  param {
    lr_mult: 2
  }
  inner_product_param {
    num_output: 10
    weight_filler {
      type: "xavier"
    }
    bias_filler {
      type: "constant"
    }
  }
}
layer {
  name: "accuracy"
  type: "Accuracy"
  bottom: "ip2"
  bottom: "label"
  top: "accuracy"
  include {
    phase: TEST
  }
}
layer {
  name: "loss"
  type: "SoftmaxWithLoss"
  bottom: "ip2"
  bottom: "label"
  top: "loss"
}
I0428 22:37:54.176689  2452 layer_factory.hpp:77] Creating layer mnist
I0428 22:37:54.176847  2452 net.cpp:106] Creating Layer mnist
I0428 22:37:54.176877  2452 net.cpp:411] mnist -> data
I0428 22:37:54.176908  2452 net.cpp:411] mnist -> label
I0428 22:37:54.177845  2459 db_lmdb.cpp:38] Opened lmdb examples/mnist/mnist_test_lmdb
I0428 22:37:54.181018  2452 data_layer.cpp:41] output data size: 100,1,28,28
I0428 22:37:54.182066  2452 net.cpp:150] Setting up mnist
I0428 22:37:54.182103  2452 net.cpp:157] Top shape: 100 1 28 28 (78400)
I0428 22:37:54.182126  2452 net.cpp:157] Top shape: 100 (100)
I0428 22:37:54.182143  2452 net.cpp:165] Memory required for data: 314000
I0428 22:37:54.182163  2452 layer_factory.hpp:77] Creating layer label_mnist_1_split
I0428 22:37:54.182185  2452 net.cpp:106] Creating Layer label_mnist_1_split
I0428 22:37:54.182205  2452 net.cpp:454] label_mnist_1_split <- label
I0428 22:37:54.182226  2452 net.cpp:411] label_mnist_1_split -> label_mnist_1_split_0
I0428 22:37:54.182250  2452 net.cpp:411] label_mnist_1_split -> label_mnist_1_split_1
I0428 22:37:54.182313  2452 net.cpp:150] Setting up label_mnist_1_split
I0428 22:37:54.182349  2452 net.cpp:157] Top shape: 100 (100)
I0428 22:37:54.182381  2452 net.cpp:157] Top shape: 100 (100)
I0428 22:37:54.182399  2452 net.cpp:165] Memory required for data: 314800
I0428 22:37:54.182417  2452 layer_factory.hpp:77] Creating layer conv1
I0428 22:37:54.182443  2452 net.cpp:106] Creating Layer conv1
I0428 22:37:54.182464  2452 net.cpp:454] conv1 <- data
I0428 22:37:54.182488  2452 net.cpp:411] conv1 -> conv1
I0428 22:37:54.189128  2452 net.cpp:150] Setting up conv1
I0428 22:37:54.189188  2452 net.cpp:157] Top shape: 100 20 24 24 (1152000)
I0428 22:37:54.189208  2452 net.cpp:165] Memory required for data: 4922800
I0428 22:37:54.189236  2452 layer_factory.hpp:77] Creating layer pool1
I0428 22:37:54.189262  2452 net.cpp:106] Creating Layer pool1
I0428 22:37:54.189281  2452 net.cpp:454] pool1 <- conv1
I0428 22:37:54.189302  2452 net.cpp:411] pool1 -> pool1
I0428 22:37:54.190140  2452 net.cpp:150] Setting up pool1
I0428 22:37:54.190176  2452 net.cpp:157] Top shape: 100 20 12 12 (288000)
I0428 22:37:54.190196  2452 net.cpp:165] Memory required for data: 6074800
I0428 22:37:54.190213  2452 layer_factory.hpp:77] Creating layer conv2
I0428 22:37:54.190243  2452 net.cpp:106] Creating Layer conv2
I0428 22:37:54.190263  2452 net.cpp:454] conv2 <- pool1
I0428 22:37:54.190285  2452 net.cpp:411] conv2 -> conv2
I0428 22:37:54.193032  2452 net.cpp:150] Setting up conv2
I0428 22:37:54.193069  2452 net.cpp:157] Top shape: 100 50 8 8 (320000)
I0428 22:37:54.193089  2452 net.cpp:165] Memory required for data: 7354800
I0428 22:37:54.193115  2452 layer_factory.hpp:77] Creating layer pool2
I0428 22:37:54.193140  2452 net.cpp:106] Creating Layer pool2
I0428 22:37:54.193158  2452 net.cpp:454] pool2 <- conv2
I0428 22:37:54.193181  2452 net.cpp:411] pool2 -> pool2
I0428 22:37:54.194092  2452 net.cpp:150] Setting up pool2
I0428 22:37:54.194126  2452 net.cpp:157] Top shape: 100 50 4 4 (80000)
I0428 22:37:54.194146  2452 net.cpp:165] Memory required for data: 7674800
I0428 22:37:54.194164  2452 layer_factory.hpp:77] Creating layer drop2
I0428 22:37:54.194186  2452 net.cpp:106] Creating Layer drop2
I0428 22:37:54.194205  2452 net.cpp:454] drop2 <- pool2
I0428 22:37:54.194227  2452 net.cpp:397] drop2 -> pool2 (in-place)
I0428 22:37:54.194275  2452 net.cpp:150] Setting up drop2
I0428 22:37:54.194301  2452 net.cpp:157] Top shape: 100 50 4 4 (80000)
I0428 22:37:54.194319  2452 net.cpp:165] Memory required for data: 7994800
I0428 22:37:54.194337  2452 layer_factory.hpp:77] Creating layer ip1
I0428 22:37:54.194360  2452 net.cpp:106] Creating Layer ip1
I0428 22:37:54.194377  2452 net.cpp:454] ip1 <- pool2
I0428 22:37:54.194404  2452 net.cpp:411] ip1 -> ip1
I0428 22:37:54.198175  2452 net.cpp:150] Setting up ip1
I0428 22:37:54.198217  2452 net.cpp:157] Top shape: 100 500 (50000)
I0428 22:37:54.198238  2452 net.cpp:165] Memory required for data: 8194800
I0428 22:37:54.198264  2452 layer_factory.hpp:77] Creating layer relu1
I0428 22:37:54.198288  2452 net.cpp:106] Creating Layer relu1
I0428 22:37:54.198307  2452 net.cpp:454] relu1 <- ip1
I0428 22:37:54.198328  2452 net.cpp:397] relu1 -> ip1 (in-place)
I0428 22:37:54.199126  2452 net.cpp:150] Setting up relu1
I0428 22:37:54.199158  2452 net.cpp:157] Top shape: 100 500 (50000)
I0428 22:37:54.199178  2452 net.cpp:165] Memory required for data: 8394800
I0428 22:37:54.199196  2452 layer_factory.hpp:77] Creating layer ip2
I0428 22:37:54.199218  2452 net.cpp:106] Creating Layer ip2
I0428 22:37:54.199237  2452 net.cpp:454] ip2 <- ip1
I0428 22:37:54.199261  2452 net.cpp:411] ip2 -> ip2
I0428 22:37:54.199452  2452 net.cpp:150] Setting up ip2
I0428 22:37:54.199481  2452 net.cpp:157] Top shape: 100 10 (1000)
I0428 22:37:54.199501  2452 net.cpp:165] Memory required for data: 8398800
I0428 22:37:54.199522  2452 layer_factory.hpp:77] Creating layer ip2_ip2_0_split
I0428 22:37:54.199543  2452 net.cpp:106] Creating Layer ip2_ip2_0_split
I0428 22:37:54.199560  2452 net.cpp:454] ip2_ip2_0_split <- ip2
I0428 22:37:54.199582  2452 net.cpp:411] ip2_ip2_0_split -> ip2_ip2_0_split_0
I0428 22:37:54.199606  2452 net.cpp:411] ip2_ip2_0_split -> ip2_ip2_0_split_1
I0428 22:37:54.199689  2452 net.cpp:150] Setting up ip2_ip2_0_split
I0428 22:37:54.199717  2452 net.cpp:157] Top shape: 100 10 (1000)
I0428 22:37:54.199738  2452 net.cpp:157] Top shape: 100 10 (1000)
I0428 22:37:54.199755  2452 net.cpp:165] Memory required for data: 8406800
I0428 22:37:54.199774  2452 layer_factory.hpp:77] Creating layer accuracy
I0428 22:37:54.199798  2452 net.cpp:106] Creating Layer accuracy
I0428 22:37:54.199816  2452 net.cpp:454] accuracy <- ip2_ip2_0_split_0
I0428 22:37:54.199836  2452 net.cpp:454] accuracy <- label_mnist_1_split_0
I0428 22:37:54.199856  2452 net.cpp:411] accuracy -> accuracy
…
