…
I0428 22:35:21.833884  2425 net.cpp:322] The NetState phase (0) differed from the phase (1) specified by a rule in layer mnist
I0428 22:35:21.833928  2425 net.cpp:322] The NetState phase (0) differed from the phase (1) specified by a rule in layer accuracy
I0428 22:35:21.834064  2425 net.cpp:49] Initializing net from parameters: 
name: "LeNet"
state {
  phase: TRAIN
}
layer {
  name: "mnist"
  type: "Data"
  top: "data"
  top: "label"
  include {
    phase: TRAIN
  }
  transform_param {
    scale: 0.00390625
  }
  data_param {
    source: "examples/mnist/mnist_train_lmdb"
    batch_size: 64
    backend: LMDB
  }
}
layer {
  name: "conv1"
  type: "Convolution"
  bottom: "data"
  top: "conv1"
  param {
    lr_mult: 1
  }
  param {
    lr_mult: 2
  }
  convolution_param {
    num_output: 20
    kernel_size: 5
    stride: 1
    weight_filler {
      type: "xavier"
    }
    bias_filler {
      type: "constant"
    }
  }
}
layer {
  name: "pool1"
  type: "Pooling"
  bottom: "conv1"
  top: "pool1"
  pooling_param {
    pool: MAX
    kernel_size: 2
    stride: 2
  }
}
layer {
  name: "drop1"
  type: "Dropout"
  bottom: "pool1"
  top: "pool1"
  dropout_param {
    dropout_ratio: 0.5
  }
}
layer {
  name: "conv2"
  type: "Convolution"
  bottom: "pool1"
  top: "conv2"
  param {
    lr_mult: 1
  }
  param {
    lr_mult: 2
  }
  convolution_param {
    num_output: 50
    kernel_size: 5
    stride: 1
    weight_filler {
      type: "xavier"
    }
    bias_filler {
      type: "constant"
    }
  }
}
layer {
  name: "pool2"
  type: "Pooling"
  bottom: "conv2"
  top: "pool2"
  pooling_param {
    pool: MAX
    kernel_size: 2
    stride: 2
  }
}
layer {
  name: "ip1"
  type: "InnerProduct"
  bottom: "pool2"
  top: "ip1"
  param {
    lr_mult: 1
  }
  param {
    lr_mult: 2
  }
  inner_product_param {
    num_output: 500
    weight_filler {
      type: "xavier"
    }
    bias_filler {
      type: "constant"
    }
  }
}
layer {
  name: "relu1"
  type: "ReLU"
  bottom: "ip1"
  top: "ip1"
}
layer {
  name: "ip2"
  type: "InnerProduct"
  bottom: "ip1"
  top: "ip2"
  param {
    lr_mult: 1
  }
  param {
    lr_mult: 2
  }
  inner_product_param {
    num_output: 10
    weight_filler {
      type: "xavier"
    }
    bias_filler {
      type: "constant"
    }
  }
}
layer {
  name: "loss"
  type: "SoftmaxWithLoss"
  bottom: "ip2"
  bottom: "label"
  top: "loss"
}
I0428 22:35:21.834673  2425 layer_factory.hpp:77] Creating layer mnist
I0428 22:35:21.835398  2425 net.cpp:106] Creating Layer mnist
I0428 22:35:21.835434  2425 net.cpp:411] mnist -> data
I0428 22:35:21.835489  2425 net.cpp:411] mnist -> label
I0428 22:35:21.836441  2430 db_lmdb.cpp:38] Opened lmdb examples/mnist/mnist_train_lmdb
I0428 22:35:21.845288  2425 data_layer.cpp:41] output data size: 64,1,28,28
I0428 22:35:21.850004  2425 net.cpp:150] Setting up mnist
I0428 22:35:21.850067  2425 net.cpp:157] Top shape: 64 1 28 28 (50176)
I0428 22:35:21.850086  2425 net.cpp:157] Top shape: 64 (64)
I0428 22:35:21.850101  2425 net.cpp:165] Memory required for data: 200960
I0428 22:35:21.850124  2425 layer_factory.hpp:77] Creating layer conv1
I0428 22:35:21.850160  2425 net.cpp:106] Creating Layer conv1
I0428 22:35:21.850178  2425 net.cpp:454] conv1 <- data
I0428 22:35:21.850200  2425 net.cpp:411] conv1 -> conv1
I0428 22:35:22.005390  2425 net.cpp:150] Setting up conv1
I0428 22:35:22.005471  2425 net.cpp:157] Top shape: 64 20 24 24 (737280)
I0428 22:35:22.005492  2425 net.cpp:165] Memory required for data: 3150080
I0428 22:35:22.005535  2425 layer_factory.hpp:77] Creating layer pool1
I0428 22:35:22.005573  2425 net.cpp:106] Creating Layer pool1
I0428 22:35:22.005609  2425 net.cpp:454] pool1 <- conv1
I0428 22:35:22.005651  2425 net.cpp:411] pool1 -> pool1
I0428 22:35:22.006433  2425 net.cpp:150] Setting up pool1
I0428 22:35:22.006469  2425 net.cpp:157] Top shape: 64 20 12 12 (184320)
I0428 22:35:22.006489  2425 net.cpp:165] Memory required for data: 3887360
I0428 22:35:22.006510  2425 layer_factory.hpp:77] Creating layer drop1
I0428 22:35:22.006537  2425 net.cpp:106] Creating Layer drop1
I0428 22:35:22.006559  2425 net.cpp:454] drop1 <- pool1
I0428 22:35:22.006583  2425 net.cpp:397] drop1 -> pool1 (in-place)
I0428 22:35:22.006641  2425 net.cpp:150] Setting up drop1
I0428 22:35:22.006669  2425 net.cpp:157] Top shape: 64 20 12 12 (184320)
I0428 22:35:22.006687  2425 net.cpp:165] Memory required for data: 4624640
I0428 22:35:22.006706  2425 layer_factory.hpp:77] Creating layer conv2
I0428 22:35:22.006736  2425 net.cpp:106] Creating Layer conv2
I0428 22:35:22.006757  2425 net.cpp:454] conv2 <- pool1
I0428 22:35:22.006780  2425 net.cpp:411] conv2 -> conv2
I0428 22:35:22.009507  2425 net.cpp:150] Setting up conv2
I0428 22:35:22.009557  2425 net.cpp:157] Top shape: 64 50 8 8 (204800)
I0428 22:35:22.009578  2425 net.cpp:165] Memory required for data: 5443840
I0428 22:35:22.009608  2425 layer_factory.hpp:77] Creating layer pool2
I0428 22:35:22.009634  2425 net.cpp:106] Creating Layer pool2
I0428 22:35:22.009656  2425 net.cpp:454] pool2 <- conv2
I0428 22:35:22.009682  2425 net.cpp:411] pool2 -> pool2
I0428 22:35:22.010443  2425 net.cpp:150] Setting up pool2
I0428 22:35:22.010479  2425 net.cpp:157] Top shape: 64 50 4 4 (51200)
I0428 22:35:22.010505  2425 net.cpp:165] Memory required for data: 5648640
I0428 22:35:22.010526  2425 layer_factory.hpp:77] Creating layer ip1
I0428 22:35:22.010551  2425 net.cpp:106] Creating Layer ip1
I0428 22:35:22.010572  2425 net.cpp:454] ip1 <- pool2
I0428 22:35:22.010598  2425 net.cpp:411] ip1 -> ip1
I0428 22:35:22.014333  2425 net.cpp:150] Setting up ip1
I0428 22:35:22.014400  2425 net.cpp:157] Top shape: 64 500 (32000)
I0428 22:35:22.014420  2425 net.cpp:165] Memory required for data: 5776640
I0428 22:35:22.014456  2425 layer_factory.hpp:77] Creating layer relu1
I0428 22:35:22.014487  2425 net.cpp:106] Creating Layer relu1
I0428 22:35:22.014509  2425 net.cpp:454] relu1 <- ip1
I0428 22:35:22.014533  2425 net.cpp:397] relu1 -> ip1 (in-place)
I0428 22:35:22.015321  2425 net.cpp:150] Setting up relu1
I0428 22:35:22.015355  2425 net.cpp:157] Top shape: 64 500 (32000)
I0428 22:35:22.015378  2425 net.cpp:165] Memory required for data: 5904640
I0428 22:35:22.015399  2425 layer_factory.hpp:77] Creating layer ip2
I0428 22:35:22.015429  2425 net.cpp:106] Creating Layer ip2
I0428 22:35:22.015451  2425 net.cpp:454] ip2 <- ip1
I0428 22:35:22.015475  2425 net.cpp:411] ip2 -> ip2
I0428 22:35:22.016141  2425 net.cpp:150] Setting up ip2
I0428 22:35:22.016178  2425 net.cpp:157] Top shape: 64 10 (640)
I0428 22:35:22.016201  2425 net.cpp:165] Memory required for data: 5907200
I0428 22:35:22.016227  2425 layer_factory.hpp:77] Creating layer loss
I0428 22:35:22.016253  2425 net.cpp:106] Creating Layer loss
I0428 22:35:22.016276  2425 net.cpp:454] loss <- ip2
I0428 22:35:22.016299  2425 net.cpp:454] loss <- label
I0428 22:35:22.016329  2425 net.cpp:411] loss -> loss
I0428 22:35:22.016373  2425 layer_factory.hpp:77] Creating layer loss
…
I0428 22:35:22.018151  2425 solver.cpp:181] Creating test net (#0) specified by net file: examples/mnist/test/lenet_train_test.prototxt
I0428 22:35:22.018211  2425 net.cpp:322] The NetState phase (1) differed from the phase (0) specified by a rule in layer mnist
I0428 22:35:22.018365  2425 net.cpp:49] Initializing net from parameters: 
name: "LeNet"
state {
  phase: TEST
}
layer {
  name: "mnist"
  type: "Data"
  top: "data"
  top: "label"
  include {
    phase: TEST
  }
  transform_param {
    scale: 0.00390625
  }
  data_param {
    source: "examples/mnist/mnist_test_lmdb"
    batch_size: 100
    backend: LMDB
  }
}
layer {
  name: "conv1"
  type: "Convolution"
  bottom: "data"
  top: "conv1"
  param {
    lr_mult: 1
  }
  param {
    lr_mult: 2
  }
  convolution_param {
    num_output: 20
    kernel_size: 5
    stride: 1
    weight_filler {
      type: "xavier"
    }
    bias_filler {
      type: "constant"
    }
  }
}
layer {
  name: "pool1"
  type: "Pooling"
  bottom: "conv1"
  top: "pool1"
  pooling_param {
    pool: MAX
    kernel_size: 2
    stride: 2
  }
}
layer {
  name: "drop1"
  type: "Dropout"
  bottom: "pool1"
  top: "pool1"
  dropout_param {
    dropout_ratio: 0.5
  }
}
layer {
  name: "conv2"
  type: "Convolution"
  bottom: "pool1"
  top: "conv2"
  param {
    lr_mult: 1
  }
  param {
    lr_mult: 2
  }
  convolution_param {
    num_output: 50
    kernel_size: 5
    stride: 1
    weight_filler {
      type: "xavier"
    }
    bias_filler {
      type: "constant"
    }
  }
}
layer {
  name: "pool2"
  type: "Pooling"
  bottom: "conv2"
  top: "pool2"
  pooling_param {
    pool: MAX
    kernel_size: 2
    stride: 2
  }
}
layer {
  name: "ip1"
  type: "InnerProduct"
  bottom: "pool2"
  top: "ip1"
  param {
    lr_mult: 1
  }
  param {
    lr_mult: 2
  }
  inner_product_param {
    num_output: 500
    weight_filler {
      type: "xavier"
    }
    bias_filler {
      type: "constant"
    }
  }
}
layer {
  name: "relu1"
  type: "ReLU"
  bottom: "ip1"
  top: "ip1"
}
layer {
  name: "ip2"
  type: "InnerProduct"
  bottom: "ip1"
  top: "ip2"
  param {
    lr_mult: 1
  }
  param {
    lr_mult: 2
  }
  inner_product_param {
    num_output: 10
    weight_filler {
      type: "xavier"
    }
    bias_filler {
      type: "constant"
    }
  }
}
layer {
  name: "accuracy"
  type: "Accuracy"
  bottom: "ip2"
  bottom: "label"
  top: "accuracy"
  include {
    phase: TEST
  }
}
layer {
  name: "loss"
  type: "SoftmaxWithLoss"
  bottom: "ip2"
  bottom: "label"
  top: "loss"
}
I0428 22:35:22.019011  2425 layer_factory.hpp:77] Creating layer mnist
I0428 22:35:22.019165  2425 net.cpp:106] Creating Layer mnist
I0428 22:35:22.019196  2425 net.cpp:411] mnist -> data
I0428 22:35:22.019227  2425 net.cpp:411] mnist -> label
I0428 22:35:22.020176  2432 db_lmdb.cpp:38] Opened lmdb examples/mnist/mnist_test_lmdb
I0428 22:35:22.025025  2425 data_layer.cpp:41] output data size: 100,1,28,28
I0428 22:35:22.026114  2425 net.cpp:150] Setting up mnist
I0428 22:35:22.026154  2425 net.cpp:157] Top shape: 100 1 28 28 (78400)
I0428 22:35:22.026180  2425 net.cpp:157] Top shape: 100 (100)
I0428 22:35:22.026201  2425 net.cpp:165] Memory required for data: 314000
I0428 22:35:22.026226  2425 layer_factory.hpp:77] Creating layer label_mnist_1_split
I0428 22:35:22.026254  2425 net.cpp:106] Creating Layer label_mnist_1_split
I0428 22:35:22.026278  2425 net.cpp:454] label_mnist_1_split <- label
I0428 22:35:22.026304  2425 net.cpp:411] label_mnist_1_split -> label_mnist_1_split_0
I0428 22:35:22.026335  2425 net.cpp:411] label_mnist_1_split -> label_mnist_1_split_1
I0428 22:35:22.026402  2425 net.cpp:150] Setting up label_mnist_1_split
I0428 22:35:22.026440  2425 net.cpp:157] Top shape: 100 (100)
I0428 22:35:22.026475  2425 net.cpp:157] Top shape: 100 (100)
I0428 22:35:22.026496  2425 net.cpp:165] Memory required for data: 314800
I0428 22:35:22.026516  2425 layer_factory.hpp:77] Creating layer conv1
I0428 22:35:22.026546  2425 net.cpp:106] Creating Layer conv1
I0428 22:35:22.026567  2425 net.cpp:454] conv1 <- data
I0428 22:35:22.026594  2425 net.cpp:411] conv1 -> conv1
I0428 22:35:22.033143  2425 net.cpp:150] Setting up conv1
I0428 22:35:22.033193  2425 net.cpp:157] Top shape: 100 20 24 24 (1152000)
I0428 22:35:22.033217  2425 net.cpp:165] Memory required for data: 4922800
I0428 22:35:22.033252  2425 layer_factory.hpp:77] Creating layer pool1
I0428 22:35:22.033280  2425 net.cpp:106] Creating Layer pool1
I0428 22:35:22.033304  2425 net.cpp:454] pool1 <- conv1
I0428 22:35:22.033330  2425 net.cpp:411] pool1 -> pool1
I0428 22:35:22.034102  2425 net.cpp:150] Setting up pool1
I0428 22:35:22.034138  2425 net.cpp:157] Top shape: 100 20 12 12 (288000)
I0428 22:35:22.034162  2425 net.cpp:165] Memory required for data: 6074800
I0428 22:35:22.034183  2425 layer_factory.hpp:77] Creating layer drop1
I0428 22:35:22.034209  2425 net.cpp:106] Creating Layer drop1
I0428 22:35:22.034231  2425 net.cpp:454] drop1 <- pool1
I0428 22:35:22.034255  2425 net.cpp:397] drop1 -> pool1 (in-place)
I0428 22:35:22.034307  2425 net.cpp:150] Setting up drop1
I0428 22:35:22.034334  2425 net.cpp:157] Top shape: 100 20 12 12 (288000)
I0428 22:35:22.034355  2425 net.cpp:165] Memory required for data: 7226800
I0428 22:35:22.034375  2425 layer_factory.hpp:77] Creating layer conv2
I0428 22:35:22.034401  2425 net.cpp:106] Creating Layer conv2
I0428 22:35:22.034423  2425 net.cpp:454] conv2 <- pool1
I0428 22:35:22.034447  2425 net.cpp:411] conv2 -> conv2
I0428 22:35:22.037008  2425 net.cpp:150] Setting up conv2
I0428 22:35:22.037046  2425 net.cpp:157] Top shape: 100 50 8 8 (320000)
I0428 22:35:22.037070  2425 net.cpp:165] Memory required for data: 8506800
I0428 22:35:22.037099  2425 layer_factory.hpp:77] Creating layer pool2
I0428 22:35:22.037128  2425 net.cpp:106] Creating Layer pool2
I0428 22:35:22.037150  2425 net.cpp:454] pool2 <- conv2
I0428 22:35:22.037174  2425 net.cpp:411] pool2 -> pool2
I0428 22:35:22.038033  2425 net.cpp:150] Setting up pool2
I0428 22:35:22.038069  2425 net.cpp:157] Top shape: 100 50 4 4 (80000)
I0428 22:35:22.038092  2425 net.cpp:165] Memory required for data: 8826800
I0428 22:35:22.038115  2425 layer_factory.hpp:77] Creating layer ip1
I0428 22:35:22.038141  2425 net.cpp:106] Creating Layer ip1
I0428 22:35:22.038164  2425 net.cpp:454] ip1 <- pool2
I0428 22:35:22.038190  2425 net.cpp:411] ip1 -> ip1
I0428 22:35:22.041990  2425 net.cpp:150] Setting up ip1
I0428 22:35:22.042050  2425 net.cpp:157] Top shape: 100 500 (50000)
I0428 22:35:22.042073  2425 net.cpp:165] Memory required for data: 9026800
I0428 22:35:22.042106  2425 layer_factory.hpp:77] Creating layer relu1
I0428 22:35:22.042137  2425 net.cpp:106] Creating Layer relu1
I0428 22:35:22.042160  2425 net.cpp:454] relu1 <- ip1
I0428 22:35:22.042186  2425 net.cpp:397] relu1 -> ip1 (in-place)
I0428 22:35:22.042986  2425 net.cpp:150] Setting up relu1
I0428 22:35:22.043022  2425 net.cpp:157] Top shape: 100 500 (50000)
I0428 22:35:22.043045  2425 net.cpp:165] Memory required for data: 9226800
I0428 22:35:22.043067  2425 layer_factory.hpp:77] Creating layer ip2
I0428 22:35:22.043093  2425 net.cpp:106] Creating Layer ip2
I0428 22:35:22.043118  2425 net.cpp:454] ip2 <- ip1
I0428 22:35:22.043143  2425 net.cpp:411] ip2 -> ip2
I0428 22:35:22.043339  2425 net.cpp:150] Setting up ip2
I0428 22:35:22.043370  2425 net.cpp:157] Top shape: 100 10 (1000)
I0428 22:35:22.043390  2425 net.cpp:165] Memory required for data: 9230800
I0428 22:35:22.043416  2425 layer_factory.hpp:77] Creating layer ip2_ip2_0_split
I0428 22:35:22.043439  2425 net.cpp:106] Creating Layer ip2_ip2_0_split
I0428 22:35:22.043462  2425 net.cpp:454] ip2_ip2_0_split <- ip2
I0428 22:35:22.043484  2425 net.cpp:411] ip2_ip2_0_split -> ip2_ip2_0_split_0
I0428 22:35:22.043510  2425 net.cpp:411] ip2_ip2_0_split -> ip2_ip2_0_split_1
I0428 22:35:22.043602  2425 net.cpp:150] Setting up ip2_ip2_0_split
I0428 22:35:22.043632  2425 net.cpp:157] Top shape: 100 10 (1000)
I0428 22:35:22.043654  2425 net.cpp:157] Top shape: 100 10 (1000)
I0428 22:35:22.043675  2425 net.cpp:165] Memory required for data: 9238800
I0428 22:35:22.043696  2425 layer_factory.hpp:77] Creating layer accuracy
I0428 22:35:22.043720  2425 net.cpp:106] Creating Layer accuracy
I0428 22:35:22.043742  2425 net.cpp:454] accuracy <- ip2_ip2_0_split_0
I0428 22:35:22.043763  2425 net.cpp:454] accuracy <- label_mnist_1_split_0
I0428 22:35:22.043787  2425 net.cpp:411] accuracy -> accuracy
…
