…
I0416 19:08:01.069735 21929 net.cpp:322] The NetState phase (0) differed from the phase (1) specified by a rule in layer mnist
I0416 19:08:01.069751 21929 net.cpp:322] The NetState phase (0) differed from the phase (1) specified by a rule in layer accuracy
I0416 19:08:01.069814 21929 net.cpp:49] Initializing net from parameters: 
name: "Embeded"
state {
  phase: TRAIN
}
layer {
  name: "dart"
  type: "Data"
  top: "data"
  top: "label"
  include {
    phase: TRAIN
  }
  transform_param {
    scale: 0.00390625
  }
  data_param {
    source: "examples/embeded/dart_train_lmdb"
    batch_size: 10
    backend: LMDB
  }
}
layer {
  name: "conv1"
  type: "Convolution"
  bottom: "data"
  top: "conv1"
  param {
    lr_mult: 1
  }
  param {
    lr_mult: 2
  }
  convolution_param {
    num_output: 20
    kernel_size: 5
    stride: 1
    weight_filler {
      type: "xavier"
    }
    bias_filler {
      type: "constant"
    }
  }
}
layer {
  name: "pool1"
  type: "Pooling"
  bottom: "conv1"
  top: "pool1"
  pooling_param {
    pool: MAX
    kernel_size: 2
    stride: 2
  }
}
layer {
  name: "conv2"
  type: "Convolution"
  bottom: "pool1"
  top: "conv2"
  param {
    lr_mult: 1
  }
  param {
    lr_mult: 2
  }
  convolution_param {
    num_output: 50
    kernel_size: 5
    stride: 1
    weight_filler {
      type: "xavier"
    }
    bias_filler {
      type: "constant"
    }
  }
}
layer {
  name: "pool2"
  type: "Pooling"
  bottom: "conv2"
  top: "pool2"
  pooling_param {
    pool: MAX
    kernel_size: 2
    stride: 2
  }
}
layer {
  name: "ip1"
  type: "InnerProduct"
  bottom: "pool2"
  top: "ip1"
  param {
    lr_mult: 1
  }
  param {
    lr_mult: 2
  }
  inner_product_param {
    num_output: 128
    weight_filler {
      type: "xavier"
    }
    bias_filler {
      type: "constant"
    }
  }
}
layer {
  name: "relu1"
  type: "ReLU"
  bottom: "ip1"
  top: "ip1"
}
layer {
  name: "ip2"
  type: "InnerProduct"
  bottom: "ip1"
  top: "ip2"
  param {
    lr_mult: 1
  }
  param {
    lr_mult: 2
  }
  inner_product_param {
    num_output: 48
    weight_filler {
      type: "xavier"
    }
    bias_filler {
      type: "constant"
    }
  }
}
layer {
  name: "loss"
  type: "SoftmaxWithLoss"
  bottom: "ip2"
  bottom: "label"
  top: "loss"
}
I0416 19:08:01.069882 21929 layer_factory.hpp:77] Creating layer dart
I0416 19:08:01.070312 21929 net.cpp:106] Creating Layer dart
I0416 19:08:01.070323 21929 net.cpp:411] dart -> data
I0416 19:08:01.070349 21929 net.cpp:411] dart -> label
I0416 19:08:01.071864 21933 db_lmdb.cpp:38] Opened lmdb examples/embeded/dart_train_lmdb
I0416 19:08:01.077736 21929 data_layer.cpp:41] output data size: 10,3,24,24
I0416 19:08:01.078387 21929 net.cpp:150] Setting up dart
I0416 19:08:01.078403 21929 net.cpp:157] Top shape: 10 3 24 24 (17280)
I0416 19:08:01.078408 21929 net.cpp:157] Top shape: 10 (10)
I0416 19:08:01.078410 21929 net.cpp:165] Memory required for data: 69160
I0416 19:08:01.078418 21929 layer_factory.hpp:77] Creating layer conv1
I0416 19:08:01.078431 21929 net.cpp:106] Creating Layer conv1
I0416 19:08:01.078436 21929 net.cpp:454] conv1 <- data
I0416 19:08:01.078449 21929 net.cpp:411] conv1 -> conv1
I0416 19:08:01.186079 21929 net.cpp:150] Setting up conv1
I0416 19:08:01.186108 21929 net.cpp:157] Top shape: 10 20 20 20 (80000)
I0416 19:08:01.186113 21929 net.cpp:165] Memory required for data: 389160
I0416 19:08:01.186131 21929 layer_factory.hpp:77] Creating layer pool1
I0416 19:08:01.186143 21929 net.cpp:106] Creating Layer pool1
I0416 19:08:01.186147 21929 net.cpp:454] pool1 <- conv1
I0416 19:08:01.186153 21929 net.cpp:411] pool1 -> pool1
I0416 19:08:01.186722 21929 net.cpp:150] Setting up pool1
I0416 19:08:01.186735 21929 net.cpp:157] Top shape: 10 20 10 10 (20000)
I0416 19:08:01.186738 21929 net.cpp:165] Memory required for data: 469160
I0416 19:08:01.186741 21929 layer_factory.hpp:77] Creating layer conv2
I0416 19:08:01.186750 21929 net.cpp:106] Creating Layer conv2
I0416 19:08:01.186754 21929 net.cpp:454] conv2 <- pool1
I0416 19:08:01.186759 21929 net.cpp:411] conv2 -> conv2
I0416 19:08:01.188634 21929 net.cpp:150] Setting up conv2
I0416 19:08:01.188648 21929 net.cpp:157] Top shape: 10 50 6 6 (18000)
I0416 19:08:01.188652 21929 net.cpp:165] Memory required for data: 541160
I0416 19:08:01.188659 21929 layer_factory.hpp:77] Creating layer pool2
I0416 19:08:01.188668 21929 net.cpp:106] Creating Layer pool2
I0416 19:08:01.188670 21929 net.cpp:454] pool2 <- conv2
I0416 19:08:01.188675 21929 net.cpp:411] pool2 -> pool2
I0416 19:08:01.189223 21929 net.cpp:150] Setting up pool2
I0416 19:08:01.189234 21929 net.cpp:157] Top shape: 10 50 3 3 (4500)
I0416 19:08:01.189239 21929 net.cpp:165] Memory required for data: 559160
I0416 19:08:01.189241 21929 layer_factory.hpp:77] Creating layer ip1
I0416 19:08:01.189249 21929 net.cpp:106] Creating Layer ip1
I0416 19:08:01.189252 21929 net.cpp:454] ip1 <- pool2
I0416 19:08:01.189259 21929 net.cpp:411] ip1 -> ip1
I0416 19:08:01.189663 21929 net.cpp:150] Setting up ip1
I0416 19:08:01.189671 21929 net.cpp:157] Top shape: 10 128 (1280)
I0416 19:08:01.189674 21929 net.cpp:165] Memory required for data: 564280
I0416 19:08:01.189682 21929 layer_factory.hpp:77] Creating layer relu1
I0416 19:08:01.189688 21929 net.cpp:106] Creating Layer relu1
I0416 19:08:01.189692 21929 net.cpp:454] relu1 <- ip1
I0416 19:08:01.189695 21929 net.cpp:397] relu1 -> ip1 (in-place)
I0416 19:08:01.190209 21929 net.cpp:150] Setting up relu1
I0416 19:08:01.190220 21929 net.cpp:157] Top shape: 10 128 (1280)
I0416 19:08:01.190223 21929 net.cpp:165] Memory required for data: 569400
I0416 19:08:01.190227 21929 layer_factory.hpp:77] Creating layer ip2
I0416 19:08:01.190233 21929 net.cpp:106] Creating Layer ip2
I0416 19:08:01.190237 21929 net.cpp:454] ip2 <- ip1
I0416 19:08:01.190243 21929 net.cpp:411] ip2 -> ip2
I0416 19:08:01.190675 21929 net.cpp:150] Setting up ip2
I0416 19:08:01.190686 21929 net.cpp:157] Top shape: 10 48 (480)
I0416 19:08:01.190690 21929 net.cpp:165] Memory required for data: 571320
I0416 19:08:01.190696 21929 layer_factory.hpp:77] Creating layer loss
I0416 19:08:01.190702 21929 net.cpp:106] Creating Layer loss
I0416 19:08:01.190706 21929 net.cpp:454] loss <- ip2
I0416 19:08:01.190709 21929 net.cpp:454] loss <- label
I0416 19:08:01.190716 21929 net.cpp:411] loss -> loss
I0416 19:08:01.190733 21929 layer_factory.hpp:77] Creating layer loss
…
I0416 19:08:01.191668 21929 solver.cpp:181] Creating test net (#0) specified by net file: examples/embeded/dart_train_test.prototxt
I0416 19:08:01.191692 21929 net.cpp:322] The NetState phase (1) differed from the phase (0) specified by a rule in layer dart
I0416 19:08:01.191778 21929 net.cpp:49] Initializing net from parameters: 
name: "Embeded"
state {
  phase: TEST
}
layer {
  name: "mnist"
  type: "Data"
  top: "data"
  top: "label"
  include {
    phase: TEST
  }
  transform_param {
    scale: 0.00390625
  }
  data_param {
    source: "examples/embeded/dart_val_lmdb"
    batch_size: 10
    backend: LMDB
  }
}
layer {
  name: "conv1"
  type: "Convolution"
  bottom: "data"
  top: "conv1"
  param {
    lr_mult: 1
  }
  param {
    lr_mult: 2
  }
  convolution_param {
    num_output: 20
    kernel_size: 5
    stride: 1
    weight_filler {
      type: "xavier"
    }
    bias_filler {
      type: "constant"
    }
  }
}
layer {
  name: "pool1"
  type: "Pooling"
  bottom: "conv1"
  top: "pool1"
  pooling_param {
    pool: MAX
    kernel_size: 2
    stride: 2
  }
}
layer {
  name: "conv2"
  type: "Convolution"
  bottom: "pool1"
  top: "conv2"
  param {
    lr_mult: 1
  }
  param {
    lr_mult: 2
  }
  convolution_param {
    num_output: 50
    kernel_size: 5
    stride: 1
    weight_filler {
      type: "xavier"
    }
    bias_filler {
      type: "constant"
    }
  }
}
layer {
  name: "pool2"
  type: "Pooling"
  bottom: "conv2"
  top: "pool2"
  pooling_param {
    pool: MAX
    kernel_size: 2
    stride: 2
  }
}
layer {
  name: "ip1"
  type: "InnerProduct"
  bottom: "pool2"
  top: "ip1"
  param {
    lr_mult: 1
  }
  param {
    lr_mult: 2
  }
  inner_product_param {
    num_output: 128
    weight_filler {
      type: "xavier"
    }
    bias_filler {
      type: "constant"
    }
  }
}
layer {
  name: "relu1"
  type: "ReLU"
  bottom: "ip1"
  top: "ip1"
}
layer {
  name: "ip2"
  type: "InnerProduct"
  bottom: "ip1"
  top: "ip2"
  param {
    lr_mult: 1
  }
  param {
    lr_mult: 2
  }
  inner_product_param {
    num_output: 48
    weight_filler {
      type: "xavier"
    }
    bias_filler {
      type: "constant"
    }
  }
}
layer {
  name: "accuracy"
  type: "Accuracy"
  bottom: "ip2"
  bottom: "label"
  top: "accuracy"
  include {
    phase: TEST
  }
}
layer {
  name: "loss"
  type: "SoftmaxWithLoss"
  bottom: "ip2"
  bottom: "label"
  top: "loss"
}
I0416 19:08:01.191839 21929 layer_factory.hpp:77] Creating layer mnist
I0416 19:08:01.191890 21929 net.cpp:106] Creating Layer mnist
I0416 19:08:01.191897 21929 net.cpp:411] mnist -> data
I0416 19:08:01.191905 21929 net.cpp:411] mnist -> label
I0416 19:08:01.193425 21935 db_lmdb.cpp:38] Opened lmdb examples/embeded/dart_val_lmdb
I0416 19:08:01.193541 21929 data_layer.cpp:41] output data size: 10,3,24,24
I0416 19:08:01.193771 21929 net.cpp:150] Setting up mnist
I0416 19:08:01.193781 21929 net.cpp:157] Top shape: 10 3 24 24 (17280)
I0416 19:08:01.193786 21929 net.cpp:157] Top shape: 10 (10)
I0416 19:08:01.193789 21929 net.cpp:165] Memory required for data: 69160
I0416 19:08:01.193792 21929 layer_factory.hpp:77] Creating layer label_mnist_1_split
I0416 19:08:01.193799 21929 net.cpp:106] Creating Layer label_mnist_1_split
I0416 19:08:01.193802 21929 net.cpp:454] label_mnist_1_split <- label
I0416 19:08:01.193806 21929 net.cpp:411] label_mnist_1_split -> label_mnist_1_split_0
I0416 19:08:01.193814 21929 net.cpp:411] label_mnist_1_split -> label_mnist_1_split_1
I0416 19:08:01.193852 21929 net.cpp:150] Setting up label_mnist_1_split
I0416 19:08:01.193857 21929 net.cpp:157] Top shape: 10 (10)
I0416 19:08:01.193861 21929 net.cpp:157] Top shape: 10 (10)
I0416 19:08:01.193863 21929 net.cpp:165] Memory required for data: 69240
I0416 19:08:01.193866 21929 layer_factory.hpp:77] Creating layer conv1
I0416 19:08:01.193872 21929 net.cpp:106] Creating Layer conv1
I0416 19:08:01.193876 21929 net.cpp:454] conv1 <- data
I0416 19:08:01.193881 21929 net.cpp:411] conv1 -> conv1
I0416 19:08:01.195974 21929 net.cpp:150] Setting up conv1
I0416 19:08:01.195987 21929 net.cpp:157] Top shape: 10 20 20 20 (80000)
I0416 19:08:01.195991 21929 net.cpp:165] Memory required for data: 389240
I0416 19:08:01.195999 21929 layer_factory.hpp:77] Creating layer pool1
I0416 19:08:01.196007 21929 net.cpp:106] Creating Layer pool1
I0416 19:08:01.196009 21929 net.cpp:454] pool1 <- conv1
I0416 19:08:01.196024 21929 net.cpp:411] pool1 -> pool1
I0416 19:08:01.196696 21929 net.cpp:150] Setting up pool1
I0416 19:08:01.196707 21929 net.cpp:157] Top shape: 10 20 10 10 (20000)
I0416 19:08:01.196710 21929 net.cpp:165] Memory required for data: 469240
I0416 19:08:01.196713 21929 layer_factory.hpp:77] Creating layer conv2
I0416 19:08:01.196722 21929 net.cpp:106] Creating Layer conv2
I0416 19:08:01.196724 21929 net.cpp:454] conv2 <- pool1
I0416 19:08:01.196729 21929 net.cpp:411] conv2 -> conv2
I0416 19:08:01.198834 21929 net.cpp:150] Setting up conv2
I0416 19:08:01.198848 21929 net.cpp:157] Top shape: 10 50 6 6 (18000)
I0416 19:08:01.198850 21929 net.cpp:165] Memory required for data: 541240
I0416 19:08:01.198859 21929 layer_factory.hpp:77] Creating layer pool2
I0416 19:08:01.198865 21929 net.cpp:106] Creating Layer pool2
I0416 19:08:01.198868 21929 net.cpp:454] pool2 <- conv2
I0416 19:08:01.198875 21929 net.cpp:411] pool2 -> pool2
I0416 19:08:01.199545 21929 net.cpp:150] Setting up pool2
I0416 19:08:01.199558 21929 net.cpp:157] Top shape: 10 50 3 3 (4500)
I0416 19:08:01.199560 21929 net.cpp:165] Memory required for data: 559240
I0416 19:08:01.199563 21929 layer_factory.hpp:77] Creating layer ip1
I0416 19:08:01.199569 21929 net.cpp:106] Creating Layer ip1
I0416 19:08:01.199573 21929 net.cpp:454] ip1 <- pool2
I0416 19:08:01.199579 21929 net.cpp:411] ip1 -> ip1
I0416 19:08:01.200294 21929 net.cpp:150] Setting up ip1
I0416 19:08:01.200306 21929 net.cpp:157] Top shape: 10 128 (1280)
I0416 19:08:01.200309 21929 net.cpp:165] Memory required for data: 564360
I0416 19:08:01.200317 21929 layer_factory.hpp:77] Creating layer relu1
I0416 19:08:01.200322 21929 net.cpp:106] Creating Layer relu1
I0416 19:08:01.200326 21929 net.cpp:454] relu1 <- ip1
I0416 19:08:01.200330 21929 net.cpp:397] relu1 -> ip1 (in-place)
I0416 19:08:01.200844 21929 net.cpp:150] Setting up relu1
I0416 19:08:01.200855 21929 net.cpp:157] Top shape: 10 128 (1280)
I0416 19:08:01.200858 21929 net.cpp:165] Memory required for data: 569480
I0416 19:08:01.200861 21929 layer_factory.hpp:77] Creating layer ip2
I0416 19:08:01.200870 21929 net.cpp:106] Creating Layer ip2
I0416 19:08:01.200872 21929 net.cpp:454] ip2 <- ip1
I0416 19:08:01.200877 21929 net.cpp:411] ip2 -> ip2
I0416 19:08:01.201001 21929 net.cpp:150] Setting up ip2
I0416 19:08:01.201009 21929 net.cpp:157] Top shape: 10 48 (480)
I0416 19:08:01.201012 21929 net.cpp:165] Memory required for data: 571400
I0416 19:08:01.201017 21929 layer_factory.hpp:77] Creating layer ip2_ip2_0_split
I0416 19:08:01.201022 21929 net.cpp:106] Creating Layer ip2_ip2_0_split
I0416 19:08:01.201025 21929 net.cpp:454] ip2_ip2_0_split <- ip2
I0416 19:08:01.201030 21929 net.cpp:411] ip2_ip2_0_split -> ip2_ip2_0_split_0
I0416 19:08:01.201035 21929 net.cpp:411] ip2_ip2_0_split -> ip2_ip2_0_split_1
I0416 19:08:01.201061 21929 net.cpp:150] Setting up ip2_ip2_0_split
I0416 19:08:01.201066 21929 net.cpp:157] Top shape: 10 48 (480)
I0416 19:08:01.201071 21929 net.cpp:157] Top shape: 10 48 (480)
I0416 19:08:01.201072 21929 net.cpp:165] Memory required for data: 575240
I0416 19:08:01.201076 21929 layer_factory.hpp:77] Creating layer accuracy
I0416 19:08:01.201079 21929 net.cpp:106] Creating Layer accuracy
I0416 19:08:01.201082 21929 net.cpp:454] accuracy <- ip2_ip2_0_split_0
I0416 19:08:01.201086 21929 net.cpp:454] accuracy <- label_mnist_1_split_0
I0416 19:08:01.201091 21929 net.cpp:411] accuracy -> accuracy
…
