…
I0416 20:56:36.191761 23299 net.cpp:322] The NetState phase (0) differed from the phase (1) specified by a rule in layer mnist
I0416 20:56:36.191776 23299 net.cpp:322] The NetState phase (0) differed from the phase (1) specified by a rule in layer accuracy
I0416 20:56:36.191845 23299 net.cpp:49] Initializing net from parameters: 
name: "Embeded"
state {
  phase: TRAIN
}
layer {
  name: "dart"
  type: "Data"
  top: "data"
  top: "label"
  include {
    phase: TRAIN
  }
  transform_param {
    scale: 0.00390625
  }
  data_param {
    source: "examples/embeded/dart_train_lmdb"
    batch_size: 100
    backend: LMDB
  }
}
layer {
  name: "conv1"
  type: "Convolution"
  bottom: "data"
  top: "conv1"
  param {
    lr_mult: 1
  }
  param {
    lr_mult: 2
  }
  convolution_param {
    num_output: 20
    kernel_size: 5
    stride: 1
    weight_filler {
      type: "xavier"
    }
    bias_filler {
      type: "constant"
    }
  }
}
layer {
  name: "pool1"
  type: "Pooling"
  bottom: "conv1"
  top: "pool1"
  pooling_param {
    pool: MAX
    kernel_size: 2
    stride: 2
  }
}
layer {
  name: "conv2"
  type: "Convolution"
  bottom: "pool1"
  top: "conv2"
  param {
    lr_mult: 1
  }
  param {
    lr_mult: 2
  }
  convolution_param {
    num_output: 50
    kernel_size: 5
    stride: 1
    weight_filler {
      type: "xavier"
    }
    bias_filler {
      type: "constant"
    }
  }
}
layer {
  name: "pool2"
  type: "Pooling"
  bottom: "conv2"
  top: "pool2"
  pooling_param {
    pool: MAX
    kernel_size: 2
    stride: 2
  }
}
layer {
  name: "ip1"
  type: "InnerProduct"
  bottom: "pool2"
  top: "ip1"
  param {
    lr_mult: 1
  }
  param {
    lr_mult: 2
  }
  inner_product_param {
    num_output: 128
    weight_filler {
      type: "xavier"
    }
    bias_filler {
      type: "constant"
    }
  }
}
layer {
  name: "relu1"
  type: "ReLU"
  bottom: "ip1"
  top: "ip1"
}
layer {
  name: "ip2"
  type: "InnerProduct"
  bottom: "ip1"
  top: "ip2"
  param {
    lr_mult: 1
  }
  param {
    lr_mult: 2
  }
  inner_product_param {
    num_output: 48
    weight_filler {
      type: "xavier"
    }
    bias_filler {
      type: "constant"
    }
  }
}
layer {
  name: "loss"
  type: "SoftmaxWithLoss"
  bottom: "ip2"
  bottom: "label"
  top: "loss"
}
I0416 20:56:36.191926 23299 layer_factory.hpp:77] Creating layer dart
I0416 20:56:36.192435 23299 net.cpp:106] Creating Layer dart
I0416 20:56:36.192448 23299 net.cpp:411] dart -> data
I0416 20:56:36.192477 23299 net.cpp:411] dart -> label
I0416 20:56:36.194054 23303 db_lmdb.cpp:38] Opened lmdb examples/embeded/dart_train_lmdb
I0416 20:56:36.200697 23299 data_layer.cpp:41] output data size: 100,3,24,24
I0416 20:56:36.202524 23299 net.cpp:150] Setting up dart
I0416 20:56:36.202544 23299 net.cpp:157] Top shape: 100 3 24 24 (172800)
I0416 20:56:36.202551 23299 net.cpp:157] Top shape: 100 (100)
I0416 20:56:36.202554 23299 net.cpp:165] Memory required for data: 691600
I0416 20:56:36.202564 23299 layer_factory.hpp:77] Creating layer conv1
I0416 20:56:36.202600 23299 net.cpp:106] Creating Layer conv1
I0416 20:56:36.202610 23299 net.cpp:454] conv1 <- data
I0416 20:56:36.202621 23299 net.cpp:411] conv1 -> conv1
I0416 20:56:36.317107 23299 net.cpp:150] Setting up conv1
I0416 20:56:36.317138 23299 net.cpp:157] Top shape: 100 20 20 20 (800000)
I0416 20:56:36.317143 23299 net.cpp:165] Memory required for data: 3891600
I0416 20:56:36.317162 23299 layer_factory.hpp:77] Creating layer pool1
I0416 20:56:36.317176 23299 net.cpp:106] Creating Layer pool1
I0416 20:56:36.317180 23299 net.cpp:454] pool1 <- conv1
I0416 20:56:36.317185 23299 net.cpp:411] pool1 -> pool1
I0416 20:56:36.317803 23299 net.cpp:150] Setting up pool1
I0416 20:56:36.317817 23299 net.cpp:157] Top shape: 100 20 10 10 (200000)
I0416 20:56:36.317821 23299 net.cpp:165] Memory required for data: 4691600
I0416 20:56:36.317824 23299 layer_factory.hpp:77] Creating layer conv2
I0416 20:56:36.317836 23299 net.cpp:106] Creating Layer conv2
I0416 20:56:36.317838 23299 net.cpp:454] conv2 <- pool1
I0416 20:56:36.317845 23299 net.cpp:411] conv2 -> conv2
I0416 20:56:36.320333 23299 net.cpp:150] Setting up conv2
I0416 20:56:36.320354 23299 net.cpp:157] Top shape: 100 50 6 6 (180000)
I0416 20:56:36.320359 23299 net.cpp:165] Memory required for data: 5411600
I0416 20:56:36.320374 23299 layer_factory.hpp:77] Creating layer pool2
I0416 20:56:36.320386 23299 net.cpp:106] Creating Layer pool2
I0416 20:56:36.320392 23299 net.cpp:454] pool2 <- conv2
I0416 20:56:36.320397 23299 net.cpp:411] pool2 -> pool2
I0416 20:56:36.321064 23299 net.cpp:150] Setting up pool2
I0416 20:56:36.321079 23299 net.cpp:157] Top shape: 100 50 3 3 (45000)
I0416 20:56:36.321082 23299 net.cpp:165] Memory required for data: 5591600
I0416 20:56:36.321085 23299 layer_factory.hpp:77] Creating layer ip1
I0416 20:56:36.321094 23299 net.cpp:106] Creating Layer ip1
I0416 20:56:36.321096 23299 net.cpp:454] ip1 <- pool2
I0416 20:56:36.321104 23299 net.cpp:411] ip1 -> ip1
I0416 20:56:36.321504 23299 net.cpp:150] Setting up ip1
I0416 20:56:36.321513 23299 net.cpp:157] Top shape: 100 128 (12800)
I0416 20:56:36.321516 23299 net.cpp:165] Memory required for data: 5642800
I0416 20:56:36.321524 23299 layer_factory.hpp:77] Creating layer relu1
I0416 20:56:36.321532 23299 net.cpp:106] Creating Layer relu1
I0416 20:56:36.321537 23299 net.cpp:454] relu1 <- ip1
I0416 20:56:36.321540 23299 net.cpp:397] relu1 -> ip1 (in-place)
I0416 20:56:36.322114 23299 net.cpp:150] Setting up relu1
I0416 20:56:36.322129 23299 net.cpp:157] Top shape: 100 128 (12800)
I0416 20:56:36.322131 23299 net.cpp:165] Memory required for data: 5694000
I0416 20:56:36.322134 23299 layer_factory.hpp:77] Creating layer ip2
I0416 20:56:36.322142 23299 net.cpp:106] Creating Layer ip2
I0416 20:56:36.322145 23299 net.cpp:454] ip2 <- ip1
I0416 20:56:36.322150 23299 net.cpp:411] ip2 -> ip2
I0416 20:56:36.322633 23299 net.cpp:150] Setting up ip2
I0416 20:56:36.322646 23299 net.cpp:157] Top shape: 100 48 (4800)
I0416 20:56:36.322649 23299 net.cpp:165] Memory required for data: 5713200
I0416 20:56:36.322655 23299 layer_factory.hpp:77] Creating layer loss
I0416 20:56:36.322662 23299 net.cpp:106] Creating Layer loss
I0416 20:56:36.322666 23299 net.cpp:454] loss <- ip2
I0416 20:56:36.322670 23299 net.cpp:454] loss <- label
I0416 20:56:36.322677 23299 net.cpp:411] loss -> loss
I0416 20:56:36.322695 23299 layer_factory.hpp:77] Creating layer loss
…
I0416 20:56:36.323724 23299 solver.cpp:181] Creating test net (#0) specified by net file: examples/embeded/dart_train_test.prototxt
I0416 20:56:36.323756 23299 net.cpp:322] The NetState phase (1) differed from the phase (0) specified by a rule in layer dart
I0416 20:56:36.323851 23299 net.cpp:49] Initializing net from parameters: 
name: "Embeded"
state {
  phase: TEST
}
layer {
  name: "mnist"
  type: "Data"
  top: "data"
  top: "label"
  include {
    phase: TEST
  }
  transform_param {
    scale: 0.00390625
  }
  data_param {
    source: "examples/embeded/dart_val_lmdb"
    batch_size: 20
    backend: LMDB
  }
}
layer {
  name: "conv1"
  type: "Convolution"
  bottom: "data"
  top: "conv1"
  param {
    lr_mult: 1
  }
  param {
    lr_mult: 2
  }
  convolution_param {
    num_output: 20
    kernel_size: 5
    stride: 1
    weight_filler {
      type: "xavier"
    }
    bias_filler {
      type: "constant"
    }
  }
}
layer {
  name: "pool1"
  type: "Pooling"
  bottom: "conv1"
  top: "pool1"
  pooling_param {
    pool: MAX
    kernel_size: 2
    stride: 2
  }
}
layer {
  name: "conv2"
  type: "Convolution"
  bottom: "pool1"
  top: "conv2"
  param {
    lr_mult: 1
  }
  param {
    lr_mult: 2
  }
  convolution_param {
    num_output: 50
    kernel_size: 5
    stride: 1
    weight_filler {
      type: "xavier"
    }
    bias_filler {
      type: "constant"
    }
  }
}
layer {
  name: "pool2"
  type: "Pooling"
  bottom: "conv2"
  top: "pool2"
  pooling_param {
    pool: MAX
    kernel_size: 2
    stride: 2
  }
}
layer {
  name: "ip1"
  type: "InnerProduct"
  bottom: "pool2"
  top: "ip1"
  param {
    lr_mult: 1
  }
  param {
    lr_mult: 2
  }
  inner_product_param {
    num_output: 128
    weight_filler {
      type: "xavier"
    }
    bias_filler {
      type: "constant"
    }
  }
}
layer {
  name: "relu1"
  type: "ReLU"
  bottom: "ip1"
  top: "ip1"
}
layer {
  name: "ip2"
  type: "InnerProduct"
  bottom: "ip1"
  top: "ip2"
  param {
    lr_mult: 1
  }
  param {
    lr_mult: 2
  }
  inner_product_param {
    num_output: 48
    weight_filler {
      type: "xavier"
    }
    bias_filler {
      type: "constant"
    }
  }
}
layer {
  name: "accuracy"
  type: "Accuracy"
  bottom: "ip2"
  bottom: "label"
  top: "accuracy"
  include {
    phase: TEST
  }
}
layer {
  name: "loss"
  type: "SoftmaxWithLoss"
  bottom: "ip2"
  bottom: "label"
  top: "loss"
}
I0416 20:56:36.323918 23299 layer_factory.hpp:77] Creating layer mnist
I0416 20:56:36.323979 23299 net.cpp:106] Creating Layer mnist
I0416 20:56:36.323987 23299 net.cpp:411] mnist -> data
I0416 20:56:36.323995 23299 net.cpp:411] mnist -> label
I0416 20:56:36.325588 23305 db_lmdb.cpp:38] Opened lmdb examples/embeded/dart_val_lmdb
I0416 20:56:36.325716 23299 data_layer.cpp:41] output data size: 20,3,24,24
I0416 20:56:36.326093 23299 net.cpp:150] Setting up mnist
I0416 20:56:36.326107 23299 net.cpp:157] Top shape: 20 3 24 24 (34560)
I0416 20:56:36.326112 23299 net.cpp:157] Top shape: 20 (20)
I0416 20:56:36.326114 23299 net.cpp:165] Memory required for data: 138320
I0416 20:56:36.326117 23299 layer_factory.hpp:77] Creating layer label_mnist_1_split
I0416 20:56:36.326125 23299 net.cpp:106] Creating Layer label_mnist_1_split
I0416 20:56:36.326128 23299 net.cpp:454] label_mnist_1_split <- label
I0416 20:56:36.326134 23299 net.cpp:411] label_mnist_1_split -> label_mnist_1_split_0
I0416 20:56:36.326140 23299 net.cpp:411] label_mnist_1_split -> label_mnist_1_split_1
I0416 20:56:36.326216 23299 net.cpp:150] Setting up label_mnist_1_split
I0416 20:56:36.326223 23299 net.cpp:157] Top shape: 20 (20)
I0416 20:56:36.326227 23299 net.cpp:157] Top shape: 20 (20)
I0416 20:56:36.326230 23299 net.cpp:165] Memory required for data: 138480
I0416 20:56:36.326232 23299 layer_factory.hpp:77] Creating layer conv1
I0416 20:56:36.326241 23299 net.cpp:106] Creating Layer conv1
I0416 20:56:36.326243 23299 net.cpp:454] conv1 <- data
I0416 20:56:36.326249 23299 net.cpp:411] conv1 -> conv1
I0416 20:56:36.328583 23299 net.cpp:150] Setting up conv1
I0416 20:56:36.328598 23299 net.cpp:157] Top shape: 20 20 20 20 (160000)
I0416 20:56:36.328603 23299 net.cpp:165] Memory required for data: 778480
I0416 20:56:36.328613 23299 layer_factory.hpp:77] Creating layer pool1
I0416 20:56:36.328619 23299 net.cpp:106] Creating Layer pool1
I0416 20:56:36.328622 23299 net.cpp:454] pool1 <- conv1
I0416 20:56:36.328639 23299 net.cpp:411] pool1 -> pool1
I0416 20:56:36.329394 23299 net.cpp:150] Setting up pool1
I0416 20:56:36.329408 23299 net.cpp:157] Top shape: 20 20 10 10 (40000)
I0416 20:56:36.329417 23299 net.cpp:165] Memory required for data: 938480
I0416 20:56:36.329421 23299 layer_factory.hpp:77] Creating layer conv2
I0416 20:56:36.329430 23299 net.cpp:106] Creating Layer conv2
I0416 20:56:36.329434 23299 net.cpp:454] conv2 <- pool1
I0416 20:56:36.329440 23299 net.cpp:411] conv2 -> conv2
I0416 20:56:36.331786 23299 net.cpp:150] Setting up conv2
I0416 20:56:36.331799 23299 net.cpp:157] Top shape: 20 50 6 6 (36000)
I0416 20:56:36.331804 23299 net.cpp:165] Memory required for data: 1082480
I0416 20:56:36.331811 23299 layer_factory.hpp:77] Creating layer pool2
I0416 20:56:36.331820 23299 net.cpp:106] Creating Layer pool2
I0416 20:56:36.331822 23299 net.cpp:454] pool2 <- conv2
I0416 20:56:36.331827 23299 net.cpp:411] pool2 -> pool2
I0416 20:56:36.332613 23299 net.cpp:150] Setting up pool2
I0416 20:56:36.332628 23299 net.cpp:157] Top shape: 20 50 3 3 (9000)
I0416 20:56:36.332631 23299 net.cpp:165] Memory required for data: 1118480
I0416 20:56:36.332634 23299 layer_factory.hpp:77] Creating layer ip1
I0416 20:56:36.332641 23299 net.cpp:106] Creating Layer ip1
I0416 20:56:36.332645 23299 net.cpp:454] ip1 <- pool2
I0416 20:56:36.332650 23299 net.cpp:411] ip1 -> ip1
I0416 20:56:36.333418 23299 net.cpp:150] Setting up ip1
I0416 20:56:36.333431 23299 net.cpp:157] Top shape: 20 128 (2560)
I0416 20:56:36.333436 23299 net.cpp:165] Memory required for data: 1128720
I0416 20:56:36.333443 23299 layer_factory.hpp:77] Creating layer relu1
I0416 20:56:36.333451 23299 net.cpp:106] Creating Layer relu1
I0416 20:56:36.333454 23299 net.cpp:454] relu1 <- ip1
I0416 20:56:36.333461 23299 net.cpp:397] relu1 -> ip1 (in-place)
I0416 20:56:36.334054 23299 net.cpp:150] Setting up relu1
I0416 20:56:36.334069 23299 net.cpp:157] Top shape: 20 128 (2560)
I0416 20:56:36.334072 23299 net.cpp:165] Memory required for data: 1138960
I0416 20:56:36.334075 23299 layer_factory.hpp:77] Creating layer ip2
I0416 20:56:36.334084 23299 net.cpp:106] Creating Layer ip2
I0416 20:56:36.334087 23299 net.cpp:454] ip2 <- ip1
I0416 20:56:36.334092 23299 net.cpp:411] ip2 -> ip2
I0416 20:56:36.334226 23299 net.cpp:150] Setting up ip2
I0416 20:56:36.334235 23299 net.cpp:157] Top shape: 20 48 (960)
I0416 20:56:36.334239 23299 net.cpp:165] Memory required for data: 1142800
I0416 20:56:36.334244 23299 layer_factory.hpp:77] Creating layer ip2_ip2_0_split
I0416 20:56:36.334249 23299 net.cpp:106] Creating Layer ip2_ip2_0_split
I0416 20:56:36.334251 23299 net.cpp:454] ip2_ip2_0_split <- ip2
I0416 20:56:36.334257 23299 net.cpp:411] ip2_ip2_0_split -> ip2_ip2_0_split_0
I0416 20:56:36.334262 23299 net.cpp:411] ip2_ip2_0_split -> ip2_ip2_0_split_1
I0416 20:56:36.334295 23299 net.cpp:150] Setting up ip2_ip2_0_split
I0416 20:56:36.334300 23299 net.cpp:157] Top shape: 20 48 (960)
I0416 20:56:36.334305 23299 net.cpp:157] Top shape: 20 48 (960)
I0416 20:56:36.334306 23299 net.cpp:165] Memory required for data: 1150480
I0416 20:56:36.334309 23299 layer_factory.hpp:77] Creating layer accuracy
I0416 20:56:36.334314 23299 net.cpp:106] Creating Layer accuracy
I0416 20:56:36.334317 23299 net.cpp:454] accuracy <- ip2_ip2_0_split_0
I0416 20:56:36.334321 23299 net.cpp:454] accuracy <- label_mnist_1_split_0
I0416 20:56:36.334326 23299 net.cpp:411] accuracy -> accuracy
…
