…
I0416 19:06:29.849822 21882 net.cpp:322] The NetState phase (0) differed from the phase (1) specified by a rule in layer mnist
I0416 19:06:29.849844 21882 net.cpp:322] The NetState phase (0) differed from the phase (1) specified by a rule in layer accuracy
I0416 19:06:29.849951 21882 net.cpp:49] Initializing net from parameters: 
name: "Embeded"
state {
  phase: TRAIN
}
layer {
  name: "dart"
  type: "Data"
  top: "data"
  top: "label"
  include {
    phase: TRAIN
  }
  transform_param {
    scale: 0.00390625
  }
  data_param {
    source: "examples/embeded/dart_train_lmdb"
    batch_size: 10
    backend: LMDB
  }
}
layer {
  name: "conv1"
  type: "Convolution"
  bottom: "data"
  top: "conv1"
  param {
    lr_mult: 1
  }
  param {
    lr_mult: 2
  }
  convolution_param {
    num_output: 20
    kernel_size: 5
    stride: 1
    weight_filler {
      type: "xavier"
    }
    bias_filler {
      type: "constant"
    }
  }
}
layer {
  name: "pool1"
  type: "Pooling"
  bottom: "conv1"
  top: "pool1"
  pooling_param {
    pool: MAX
    kernel_size: 2
    stride: 2
  }
}
layer {
  name: "conv2"
  type: "Convolution"
  bottom: "pool1"
  top: "conv2"
  param {
    lr_mult: 1
  }
  param {
    lr_mult: 2
  }
  convolution_param {
    num_output: 50
    kernel_size: 5
    stride: 1
    weight_filler {
      type: "xavier"
    }
    bias_filler {
      type: "constant"
    }
  }
}
layer {
  name: "pool2"
  type: "Pooling"
  bottom: "conv2"
  top: "pool2"
  pooling_param {
    pool: MAX
    kernel_size: 2
    stride: 2
  }
}
layer {
  name: "ip1"
  type: "InnerProduct"
  bottom: "pool2"
  top: "ip1"
  param {
    lr_mult: 1
  }
  param {
    lr_mult: 2
  }
  inner_product_param {
    num_output: 128
    weight_filler {
      type: "xavier"
    }
    bias_filler {
      type: "constant"
    }
  }
}
layer {
  name: "relu1"
  type: "ReLU"
  bottom: "ip1"
  top: "ip1"
}
layer {
  name: "ip2"
  type: "InnerProduct"
  bottom: "ip1"
  top: "ip2"
  param {
    lr_mult: 1
  }
  param {
    lr_mult: 2
  }
  inner_product_param {
    num_output: 48
    weight_filler {
      type: "xavier"
    }
    bias_filler {
      type: "constant"
    }
  }
}
layer {
  name: "loss"
  type: "SoftmaxWithLoss"
  bottom: "ip2"
  bottom: "label"
  top: "loss"
}
I0416 19:06:29.850052 21882 layer_factory.hpp:77] Creating layer dart
I0416 19:06:29.851861 21882 net.cpp:106] Creating Layer dart
I0416 19:06:29.851881 21882 net.cpp:411] dart -> data
I0416 19:06:29.851938 21882 net.cpp:411] dart -> label
I0416 19:06:29.853446 21886 db_lmdb.cpp:38] Opened lmdb examples/embeded/dart_train_lmdb
I0416 19:06:29.926528 21882 data_layer.cpp:41] output data size: 10,3,24,24
I0416 19:06:29.928504 21882 net.cpp:150] Setting up dart
I0416 19:06:29.928527 21882 net.cpp:157] Top shape: 10 3 24 24 (17280)
I0416 19:06:29.928535 21882 net.cpp:157] Top shape: 10 (10)
I0416 19:06:29.928540 21882 net.cpp:165] Memory required for data: 69160
I0416 19:06:29.928552 21882 layer_factory.hpp:77] Creating layer conv1
I0416 19:06:29.928571 21882 net.cpp:106] Creating Layer conv1
I0416 19:06:29.928578 21882 net.cpp:454] conv1 <- data
I0416 19:06:29.928601 21882 net.cpp:411] conv1 -> conv1
I0416 19:06:30.593101 21882 net.cpp:150] Setting up conv1
I0416 19:06:30.593137 21882 net.cpp:157] Top shape: 10 20 20 20 (80000)
I0416 19:06:30.593142 21882 net.cpp:165] Memory required for data: 389160
I0416 19:06:30.593168 21882 layer_factory.hpp:77] Creating layer pool1
I0416 19:06:30.593185 21882 net.cpp:106] Creating Layer pool1
I0416 19:06:30.593191 21882 net.cpp:454] pool1 <- conv1
I0416 19:06:30.593199 21882 net.cpp:411] pool1 -> pool1
I0416 19:06:30.594024 21882 net.cpp:150] Setting up pool1
I0416 19:06:30.594056 21882 net.cpp:157] Top shape: 10 20 10 10 (20000)
I0416 19:06:30.594063 21882 net.cpp:165] Memory required for data: 469160
I0416 19:06:30.594068 21882 layer_factory.hpp:77] Creating layer conv2
I0416 19:06:30.594082 21882 net.cpp:106] Creating Layer conv2
I0416 19:06:30.594089 21882 net.cpp:454] conv2 <- pool1
I0416 19:06:30.594096 21882 net.cpp:411] conv2 -> conv2
I0416 19:06:30.596876 21882 net.cpp:150] Setting up conv2
I0416 19:06:30.596894 21882 net.cpp:157] Top shape: 10 50 6 6 (18000)
I0416 19:06:30.596907 21882 net.cpp:165] Memory required for data: 541160
I0416 19:06:30.596920 21882 layer_factory.hpp:77] Creating layer pool2
I0416 19:06:30.596930 21882 net.cpp:106] Creating Layer pool2
I0416 19:06:30.596935 21882 net.cpp:454] pool2 <- conv2
I0416 19:06:30.596945 21882 net.cpp:411] pool2 -> pool2
I0416 19:06:30.597731 21882 net.cpp:150] Setting up pool2
I0416 19:06:30.597748 21882 net.cpp:157] Top shape: 10 50 3 3 (4500)
I0416 19:06:30.597754 21882 net.cpp:165] Memory required for data: 559160
I0416 19:06:30.597759 21882 layer_factory.hpp:77] Creating layer ip1
I0416 19:06:30.597770 21882 net.cpp:106] Creating Layer ip1
I0416 19:06:30.597776 21882 net.cpp:454] ip1 <- pool2
I0416 19:06:30.597784 21882 net.cpp:411] ip1 -> ip1
I0416 19:06:30.598346 21882 net.cpp:150] Setting up ip1
I0416 19:06:30.598358 21882 net.cpp:157] Top shape: 10 128 (1280)
I0416 19:06:30.598363 21882 net.cpp:165] Memory required for data: 564280
I0416 19:06:30.598374 21882 layer_factory.hpp:77] Creating layer relu1
I0416 19:06:30.598386 21882 net.cpp:106] Creating Layer relu1
I0416 19:06:30.598390 21882 net.cpp:454] relu1 <- ip1
I0416 19:06:30.598397 21882 net.cpp:397] relu1 -> ip1 (in-place)
I0416 19:06:30.599141 21882 net.cpp:150] Setting up relu1
I0416 19:06:30.599159 21882 net.cpp:157] Top shape: 10 128 (1280)
I0416 19:06:30.599164 21882 net.cpp:165] Memory required for data: 569400
I0416 19:06:30.599169 21882 layer_factory.hpp:77] Creating layer ip2
I0416 19:06:30.599179 21882 net.cpp:106] Creating Layer ip2
I0416 19:06:30.599184 21882 net.cpp:454] ip2 <- ip1
I0416 19:06:30.599192 21882 net.cpp:411] ip2 -> ip2
I0416 19:06:30.599791 21882 net.cpp:150] Setting up ip2
I0416 19:06:30.599805 21882 net.cpp:157] Top shape: 10 48 (480)
I0416 19:06:30.599810 21882 net.cpp:165] Memory required for data: 571320
I0416 19:06:30.599819 21882 layer_factory.hpp:77] Creating layer loss
I0416 19:06:30.599830 21882 net.cpp:106] Creating Layer loss
I0416 19:06:30.599835 21882 net.cpp:454] loss <- ip2
I0416 19:06:30.599841 21882 net.cpp:454] loss <- label
I0416 19:06:30.599849 21882 net.cpp:411] loss -> loss
I0416 19:06:30.599864 21882 layer_factory.hpp:77] Creating layer loss
…
I0416 19:06:30.602677 21882 solver.cpp:181] Creating test net (#0) specified by net file: examples/embeded/dart_train_test.prototxt
I0416 19:06:30.602715 21882 net.cpp:322] The NetState phase (1) differed from the phase (0) specified by a rule in layer dart
I0416 19:06:30.602838 21882 net.cpp:49] Initializing net from parameters: 
name: "Embeded"
state {
  phase: TEST
}
layer {
  name: "mnist"
  type: "Data"
  top: "data"
  top: "label"
  include {
    phase: TEST
  }
  transform_param {
    scale: 0.00390625
  }
  data_param {
    source: "examples/embeded/dart_val_lmdb"
    batch_size: 10
    backend: LMDB
  }
}
layer {
  name: "conv1"
  type: "Convolution"
  bottom: "data"
  top: "conv1"
  param {
    lr_mult: 1
  }
  param {
    lr_mult: 2
  }
  convolution_param {
    num_output: 20
    kernel_size: 5
    stride: 1
    weight_filler {
      type: "xavier"
    }
    bias_filler {
      type: "constant"
    }
  }
}
layer {
  name: "pool1"
  type: "Pooling"
  bottom: "conv1"
  top: "pool1"
  pooling_param {
    pool: MAX
    kernel_size: 2
    stride: 2
  }
}
layer {
  name: "conv2"
  type: "Convolution"
  bottom: "pool1"
  top: "conv2"
  param {
    lr_mult: 1
  }
  param {
    lr_mult: 2
  }
  convolution_param {
    num_output: 50
    kernel_size: 5
    stride: 1
    weight_filler {
      type: "xavier"
    }
    bias_filler {
      type: "constant"
    }
  }
}
layer {
  name: "pool2"
  type: "Pooling"
  bottom: "conv2"
  top: "pool2"
  pooling_param {
    pool: MAX
    kernel_size: 2
    stride: 2
  }
}
layer {
  name: "ip1"
  type: "InnerProduct"
  bottom: "pool2"
  top: "ip1"
  param {
    lr_mult: 1
  }
  param {
    lr_mult: 2
  }
  inner_product_param {
    num_output: 128
    weight_filler {
      type: "xavier"
    }
    bias_filler {
      type: "constant"
    }
  }
}
layer {
  name: "relu1"
  type: "ReLU"
  bottom: "ip1"
  top: "ip1"
}
layer {
  name: "ip2"
  type: "InnerProduct"
  bottom: "ip1"
  top: "ip2"
  param {
    lr_mult: 1
  }
  param {
    lr_mult: 2
  }
  inner_product_param {
    num_output: 48
    weight_filler {
      type: "xavier"
    }
    bias_filler {
      type: "constant"
    }
  }
}
layer {
  name: "accuracy"
  type: "Accuracy"
  bottom: "ip2"
  bottom: "label"
  top: "accuracy"
  include {
    phase: TEST
  }
}
layer {
  name: "loss"
  type: "SoftmaxWithLoss"
  bottom: "ip2"
  bottom: "label"
  top: "loss"
}
I0416 19:06:30.602951 21882 layer_factory.hpp:77] Creating layer mnist
I0416 19:06:30.603018 21882 net.cpp:106] Creating Layer mnist
I0416 19:06:30.603030 21882 net.cpp:411] mnist -> data
I0416 19:06:30.603040 21882 net.cpp:411] mnist -> label
I0416 19:06:30.604517 21888 db_lmdb.cpp:38] Opened lmdb examples/embeded/dart_val_lmdb
I0416 19:06:30.604671 21882 data_layer.cpp:41] output data size: 10,3,24,24
I0416 19:06:30.604990 21882 net.cpp:150] Setting up mnist
I0416 19:06:30.605005 21882 net.cpp:157] Top shape: 10 3 24 24 (17280)
I0416 19:06:30.605013 21882 net.cpp:157] Top shape: 10 (10)
I0416 19:06:30.605017 21882 net.cpp:165] Memory required for data: 69160
I0416 19:06:30.605025 21882 layer_factory.hpp:77] Creating layer label_mnist_1_split
I0416 19:06:30.605032 21882 net.cpp:106] Creating Layer label_mnist_1_split
I0416 19:06:30.605037 21882 net.cpp:454] label_mnist_1_split <- label
I0416 19:06:30.605044 21882 net.cpp:411] label_mnist_1_split -> label_mnist_1_split_0
I0416 19:06:30.605057 21882 net.cpp:411] label_mnist_1_split -> label_mnist_1_split_1
I0416 19:06:30.605165 21882 net.cpp:150] Setting up label_mnist_1_split
I0416 19:06:30.605176 21882 net.cpp:157] Top shape: 10 (10)
I0416 19:06:30.605182 21882 net.cpp:157] Top shape: 10 (10)
I0416 19:06:30.605186 21882 net.cpp:165] Memory required for data: 69240
I0416 19:06:30.605191 21882 layer_factory.hpp:77] Creating layer conv1
I0416 19:06:30.605203 21882 net.cpp:106] Creating Layer conv1
I0416 19:06:30.605211 21882 net.cpp:454] conv1 <- data
I0416 19:06:30.605218 21882 net.cpp:411] conv1 -> conv1
I0416 19:06:30.608279 21882 net.cpp:150] Setting up conv1
I0416 19:06:30.608296 21882 net.cpp:157] Top shape: 10 20 20 20 (80000)
I0416 19:06:30.608304 21882 net.cpp:165] Memory required for data: 389240
I0416 19:06:30.608333 21882 layer_factory.hpp:77] Creating layer pool1
I0416 19:06:30.608342 21882 net.cpp:106] Creating Layer pool1
I0416 19:06:30.608347 21882 net.cpp:454] pool1 <- conv1
I0416 19:06:30.608366 21882 net.cpp:411] pool1 -> pool1
I0416 19:06:30.609323 21882 net.cpp:150] Setting up pool1
I0416 19:06:30.609338 21882 net.cpp:157] Top shape: 10 20 10 10 (20000)
I0416 19:06:30.609347 21882 net.cpp:165] Memory required for data: 469240
I0416 19:06:30.609359 21882 layer_factory.hpp:77] Creating layer conv2
I0416 19:06:30.609371 21882 net.cpp:106] Creating Layer conv2
I0416 19:06:30.609380 21882 net.cpp:454] conv2 <- pool1
I0416 19:06:30.609388 21882 net.cpp:411] conv2 -> conv2
I0416 19:06:30.612154 21882 net.cpp:150] Setting up conv2
I0416 19:06:30.612171 21882 net.cpp:157] Top shape: 10 50 6 6 (18000)
I0416 19:06:30.612176 21882 net.cpp:165] Memory required for data: 541240
I0416 19:06:30.612190 21882 layer_factory.hpp:77] Creating layer pool2
I0416 19:06:30.612197 21882 net.cpp:106] Creating Layer pool2
I0416 19:06:30.612202 21882 net.cpp:454] pool2 <- conv2
I0416 19:06:30.612210 21882 net.cpp:411] pool2 -> pool2
I0416 19:06:30.613128 21882 net.cpp:150] Setting up pool2
I0416 19:06:30.613145 21882 net.cpp:157] Top shape: 10 50 3 3 (4500)
I0416 19:06:30.613152 21882 net.cpp:165] Memory required for data: 559240
I0416 19:06:30.613157 21882 layer_factory.hpp:77] Creating layer ip1
I0416 19:06:30.613168 21882 net.cpp:106] Creating Layer ip1
I0416 19:06:30.613173 21882 net.cpp:454] ip1 <- pool2
I0416 19:06:30.613180 21882 net.cpp:411] ip1 -> ip1
I0416 19:06:30.614164 21882 net.cpp:150] Setting up ip1
I0416 19:06:30.614179 21882 net.cpp:157] Top shape: 10 128 (1280)
I0416 19:06:30.614186 21882 net.cpp:165] Memory required for data: 564360
I0416 19:06:30.614197 21882 layer_factory.hpp:77] Creating layer relu1
I0416 19:06:30.614208 21882 net.cpp:106] Creating Layer relu1
I0416 19:06:30.614214 21882 net.cpp:454] relu1 <- ip1
I0416 19:06:30.614223 21882 net.cpp:397] relu1 -> ip1 (in-place)
I0416 19:06:30.614984 21882 net.cpp:150] Setting up relu1
I0416 19:06:30.615000 21882 net.cpp:157] Top shape: 10 128 (1280)
I0416 19:06:30.615006 21882 net.cpp:165] Memory required for data: 569480
I0416 19:06:30.615011 21882 layer_factory.hpp:77] Creating layer ip2
I0416 19:06:30.615022 21882 net.cpp:106] Creating Layer ip2
I0416 19:06:30.615031 21882 net.cpp:454] ip2 <- ip1
I0416 19:06:30.615038 21882 net.cpp:411] ip2 -> ip2
I0416 19:06:30.615206 21882 net.cpp:150] Setting up ip2
I0416 19:06:30.615216 21882 net.cpp:157] Top shape: 10 48 (480)
I0416 19:06:30.615221 21882 net.cpp:165] Memory required for data: 571400
I0416 19:06:30.615231 21882 layer_factory.hpp:77] Creating layer ip2_ip2_0_split
I0416 19:06:30.615239 21882 net.cpp:106] Creating Layer ip2_ip2_0_split
I0416 19:06:30.615244 21882 net.cpp:454] ip2_ip2_0_split <- ip2
I0416 19:06:30.615252 21882 net.cpp:411] ip2_ip2_0_split -> ip2_ip2_0_split_0
I0416 19:06:30.615262 21882 net.cpp:411] ip2_ip2_0_split -> ip2_ip2_0_split_1
I0416 19:06:30.615303 21882 net.cpp:150] Setting up ip2_ip2_0_split
I0416 19:06:30.615312 21882 net.cpp:157] Top shape: 10 48 (480)
I0416 19:06:30.615319 21882 net.cpp:157] Top shape: 10 48 (480)
I0416 19:06:30.615324 21882 net.cpp:165] Memory required for data: 575240
I0416 19:06:30.615327 21882 layer_factory.hpp:77] Creating layer accuracy
I0416 19:06:30.615337 21882 net.cpp:106] Creating Layer accuracy
I0416 19:06:30.615345 21882 net.cpp:454] accuracy <- ip2_ip2_0_split_0
I0416 19:06:30.615350 21882 net.cpp:454] accuracy <- label_mnist_1_split_0
I0416 19:06:30.615356 21882 net.cpp:411] accuracy -> accuracy
…
