…
I0416 19:09:58.234987 21962 net.cpp:322] The NetState phase (0) differed from the phase (1) specified by a rule in layer mnist
I0416 19:09:58.235004 21962 net.cpp:322] The NetState phase (0) differed from the phase (1) specified by a rule in layer accuracy
I0416 19:09:58.235079 21962 net.cpp:49] Initializing net from parameters: 
name: "Embeded"
state {
  phase: TRAIN
}
layer {
  name: "dart"
  type: "Data"
  top: "data"
  top: "label"
  include {
    phase: TRAIN
  }
  transform_param {
    scale: 0.00390625
  }
  data_param {
    source: "examples/embeded/dart_train_lmdb"
    batch_size: 10
    backend: LMDB
  }
}
layer {
  name: "conv1"
  type: "Convolution"
  bottom: "data"
  top: "conv1"
  param {
    lr_mult: 1
  }
  param {
    lr_mult: 2
  }
  convolution_param {
    num_output: 20
    kernel_size: 5
    stride: 1
    weight_filler {
      type: "xavier"
    }
    bias_filler {
      type: "constant"
    }
  }
}
layer {
  name: "pool1"
  type: "Pooling"
  bottom: "conv1"
  top: "pool1"
  pooling_param {
    pool: MAX
    kernel_size: 2
    stride: 2
  }
}
layer {
  name: "conv2"
  type: "Convolution"
  bottom: "pool1"
  top: "conv2"
  param {
    lr_mult: 1
  }
  param {
    lr_mult: 2
  }
  convolution_param {
    num_output: 50
    kernel_size: 5
    stride: 1
    weight_filler {
      type: "xavier"
    }
    bias_filler {
      type: "constant"
    }
  }
}
layer {
  name: "pool2"
  type: "Pooling"
  bottom: "conv2"
  top: "pool2"
  pooling_param {
    pool: MAX
    kernel_size: 2
    stride: 2
  }
}
layer {
  name: "ip1"
  type: "InnerProduct"
  bottom: "pool2"
  top: "ip1"
  param {
    lr_mult: 1
  }
  param {
    lr_mult: 2
  }
  inner_product_param {
    num_output: 128
    weight_filler {
      type: "xavier"
    }
    bias_filler {
      type: "constant"
    }
  }
}
layer {
  name: "relu1"
  type: "ReLU"
  bottom: "ip1"
  top: "ip1"
}
layer {
  name: "ip2"
  type: "InnerProduct"
  bottom: "ip1"
  top: "ip2"
  param {
    lr_mult: 1
  }
  param {
    lr_mult: 2
  }
  inner_product_param {
    num_output: 48
    weight_filler {
      type: "xavier"
    }
    bias_filler {
      type: "constant"
    }
  }
}
layer {
  name: "loss"
  type: "SoftmaxWithLoss"
  bottom: "ip2"
  bottom: "label"
  top: "loss"
}
I0416 19:09:58.235157 21962 layer_factory.hpp:77] Creating layer dart
I0416 19:09:58.235812 21962 net.cpp:106] Creating Layer dart
I0416 19:09:58.235826 21962 net.cpp:411] dart -> data
I0416 19:09:58.235854 21962 net.cpp:411] dart -> label
I0416 19:09:58.237382 21966 db_lmdb.cpp:38] Opened lmdb examples/embeded/dart_train_lmdb
I0416 19:09:58.244140 21962 data_layer.cpp:41] output data size: 10,3,24,24
I0416 19:09:58.244839 21962 net.cpp:150] Setting up dart
I0416 19:09:58.244858 21962 net.cpp:157] Top shape: 10 3 24 24 (17280)
I0416 19:09:58.244863 21962 net.cpp:157] Top shape: 10 (10)
I0416 19:09:58.244866 21962 net.cpp:165] Memory required for data: 69160
I0416 19:09:58.244874 21962 layer_factory.hpp:77] Creating layer conv1
I0416 19:09:58.244889 21962 net.cpp:106] Creating Layer conv1
I0416 19:09:58.244900 21962 net.cpp:454] conv1 <- data
I0416 19:09:58.244948 21962 net.cpp:411] conv1 -> conv1
I0416 19:09:58.357475 21962 net.cpp:150] Setting up conv1
I0416 19:09:58.357504 21962 net.cpp:157] Top shape: 10 20 20 20 (80000)
I0416 19:09:58.357508 21962 net.cpp:165] Memory required for data: 389160
I0416 19:09:58.357525 21962 layer_factory.hpp:77] Creating layer pool1
I0416 19:09:58.357537 21962 net.cpp:106] Creating Layer pool1
I0416 19:09:58.357542 21962 net.cpp:454] pool1 <- conv1
I0416 19:09:58.357547 21962 net.cpp:411] pool1 -> pool1
I0416 19:09:58.358124 21962 net.cpp:150] Setting up pool1
I0416 19:09:58.358151 21962 net.cpp:157] Top shape: 10 20 10 10 (20000)
I0416 19:09:58.358155 21962 net.cpp:165] Memory required for data: 469160
I0416 19:09:58.358160 21962 layer_factory.hpp:77] Creating layer conv2
I0416 19:09:58.358168 21962 net.cpp:106] Creating Layer conv2
I0416 19:09:58.358171 21962 net.cpp:454] conv2 <- pool1
I0416 19:09:58.358176 21962 net.cpp:411] conv2 -> conv2
I0416 19:09:58.360180 21962 net.cpp:150] Setting up conv2
I0416 19:09:58.360194 21962 net.cpp:157] Top shape: 10 50 6 6 (18000)
I0416 19:09:58.360198 21962 net.cpp:165] Memory required for data: 541160
I0416 19:09:58.360205 21962 layer_factory.hpp:77] Creating layer pool2
I0416 19:09:58.360213 21962 net.cpp:106] Creating Layer pool2
I0416 19:09:58.360215 21962 net.cpp:454] pool2 <- conv2
I0416 19:09:58.360220 21962 net.cpp:411] pool2 -> pool2
I0416 19:09:58.360760 21962 net.cpp:150] Setting up pool2
I0416 19:09:58.360772 21962 net.cpp:157] Top shape: 10 50 3 3 (4500)
I0416 19:09:58.360775 21962 net.cpp:165] Memory required for data: 559160
I0416 19:09:58.360780 21962 layer_factory.hpp:77] Creating layer ip1
I0416 19:09:58.360786 21962 net.cpp:106] Creating Layer ip1
I0416 19:09:58.360790 21962 net.cpp:454] ip1 <- pool2
I0416 19:09:58.360793 21962 net.cpp:411] ip1 -> ip1
I0416 19:09:58.361202 21962 net.cpp:150] Setting up ip1
I0416 19:09:58.361210 21962 net.cpp:157] Top shape: 10 128 (1280)
I0416 19:09:58.361213 21962 net.cpp:165] Memory required for data: 564280
I0416 19:09:58.361220 21962 layer_factory.hpp:77] Creating layer relu1
I0416 19:09:58.361227 21962 net.cpp:106] Creating Layer relu1
I0416 19:09:58.361229 21962 net.cpp:454] relu1 <- ip1
I0416 19:09:58.361233 21962 net.cpp:397] relu1 -> ip1 (in-place)
I0416 19:09:58.361753 21962 net.cpp:150] Setting up relu1
I0416 19:09:58.361765 21962 net.cpp:157] Top shape: 10 128 (1280)
I0416 19:09:58.361768 21962 net.cpp:165] Memory required for data: 569400
I0416 19:09:58.361771 21962 layer_factory.hpp:77] Creating layer ip2
I0416 19:09:58.361778 21962 net.cpp:106] Creating Layer ip2
I0416 19:09:58.361780 21962 net.cpp:454] ip2 <- ip1
I0416 19:09:58.361785 21962 net.cpp:411] ip2 -> ip2
I0416 19:09:58.362227 21962 net.cpp:150] Setting up ip2
I0416 19:09:58.362239 21962 net.cpp:157] Top shape: 10 48 (480)
I0416 19:09:58.362242 21962 net.cpp:165] Memory required for data: 571320
I0416 19:09:58.362247 21962 layer_factory.hpp:77] Creating layer loss
I0416 19:09:58.362254 21962 net.cpp:106] Creating Layer loss
I0416 19:09:58.362257 21962 net.cpp:454] loss <- ip2
I0416 19:09:58.362262 21962 net.cpp:454] loss <- label
I0416 19:09:58.362267 21962 net.cpp:411] loss -> loss
I0416 19:09:58.362278 21962 layer_factory.hpp:77] Creating layer loss
…
I0416 19:09:58.363224 21962 solver.cpp:181] Creating test net (#0) specified by net file: examples/embeded/dart_train_test.prototxt
I0416 19:09:58.363250 21962 net.cpp:322] The NetState phase (1) differed from the phase (0) specified by a rule in layer dart
I0416 19:09:58.363324 21962 net.cpp:49] Initializing net from parameters: 
name: "Embeded"
state {
  phase: TEST
}
layer {
  name: "mnist"
  type: "Data"
  top: "data"
  top: "label"
  include {
    phase: TEST
  }
  transform_param {
    scale: 0.00390625
  }
  data_param {
    source: "examples/embeded/dart_val_lmdb"
    batch_size: 10
    backend: LMDB
  }
}
layer {
  name: "conv1"
  type: "Convolution"
  bottom: "data"
  top: "conv1"
  param {
    lr_mult: 1
  }
  param {
    lr_mult: 2
  }
  convolution_param {
    num_output: 20
    kernel_size: 5
    stride: 1
    weight_filler {
      type: "xavier"
    }
    bias_filler {
      type: "constant"
    }
  }
}
layer {
  name: "pool1"
  type: "Pooling"
  bottom: "conv1"
  top: "pool1"
  pooling_param {
    pool: MAX
    kernel_size: 2
    stride: 2
  }
}
layer {
  name: "conv2"
  type: "Convolution"
  bottom: "pool1"
  top: "conv2"
  param {
    lr_mult: 1
  }
  param {
    lr_mult: 2
  }
  convolution_param {
    num_output: 50
    kernel_size: 5
    stride: 1
    weight_filler {
      type: "xavier"
    }
    bias_filler {
      type: "constant"
    }
  }
}
layer {
  name: "pool2"
  type: "Pooling"
  bottom: "conv2"
  top: "pool2"
  pooling_param {
    pool: MAX
    kernel_size: 2
    stride: 2
  }
}
layer {
  name: "ip1"
  type: "InnerProduct"
  bottom: "pool2"
  top: "ip1"
  param {
    lr_mult: 1
  }
  param {
    lr_mult: 2
  }
  inner_product_param {
    num_output: 128
    weight_filler {
      type: "xavier"
    }
    bias_filler {
      type: "constant"
    }
  }
}
layer {
  name: "relu1"
  type: "ReLU"
  bottom: "ip1"
  top: "ip1"
}
layer {
  name: "ip2"
  type: "InnerProduct"
  bottom: "ip1"
  top: "ip2"
  param {
    lr_mult: 1
  }
  param {
    lr_mult: 2
  }
  inner_product_param {
    num_output: 48
    weight_filler {
      type: "xavier"
    }
    bias_filler {
      type: "constant"
    }
  }
}
layer {
  name: "accuracy"
  type: "Accuracy"
  bottom: "ip2"
  bottom: "label"
  top: "accuracy"
  include {
    phase: TEST
  }
}
layer {
  name: "loss"
  type: "SoftmaxWithLoss"
  bottom: "ip2"
  bottom: "label"
  top: "loss"
}
I0416 19:09:58.363395 21962 layer_factory.hpp:77] Creating layer mnist
I0416 19:09:58.363446 21962 net.cpp:106] Creating Layer mnist
I0416 19:09:58.363454 21962 net.cpp:411] mnist -> data
I0416 19:09:58.363462 21962 net.cpp:411] mnist -> label
I0416 19:09:58.364872 21968 db_lmdb.cpp:38] Opened lmdb examples/embeded/dart_val_lmdb
I0416 19:09:58.365011 21962 data_layer.cpp:41] output data size: 10,3,24,24
I0416 19:09:58.365248 21962 net.cpp:150] Setting up mnist
I0416 19:09:58.365258 21962 net.cpp:157] Top shape: 10 3 24 24 (17280)
I0416 19:09:58.365263 21962 net.cpp:157] Top shape: 10 (10)
I0416 19:09:58.365265 21962 net.cpp:165] Memory required for data: 69160
I0416 19:09:58.365268 21962 layer_factory.hpp:77] Creating layer label_mnist_1_split
I0416 19:09:58.365274 21962 net.cpp:106] Creating Layer label_mnist_1_split
I0416 19:09:58.365279 21962 net.cpp:454] label_mnist_1_split <- label
I0416 19:09:58.365283 21962 net.cpp:411] label_mnist_1_split -> label_mnist_1_split_0
I0416 19:09:58.365290 21962 net.cpp:411] label_mnist_1_split -> label_mnist_1_split_1
I0416 19:09:58.365325 21962 net.cpp:150] Setting up label_mnist_1_split
I0416 19:09:58.365334 21962 net.cpp:157] Top shape: 10 (10)
I0416 19:09:58.365336 21962 net.cpp:157] Top shape: 10 (10)
I0416 19:09:58.365339 21962 net.cpp:165] Memory required for data: 69240
I0416 19:09:58.365341 21962 layer_factory.hpp:77] Creating layer conv1
I0416 19:09:58.365348 21962 net.cpp:106] Creating Layer conv1
I0416 19:09:58.365351 21962 net.cpp:454] conv1 <- data
I0416 19:09:58.365356 21962 net.cpp:411] conv1 -> conv1
I0416 19:09:58.367507 21962 net.cpp:150] Setting up conv1
I0416 19:09:58.367521 21962 net.cpp:157] Top shape: 10 20 20 20 (80000)
I0416 19:09:58.367524 21962 net.cpp:165] Memory required for data: 389240
I0416 19:09:58.367533 21962 layer_factory.hpp:77] Creating layer pool1
I0416 19:09:58.367538 21962 net.cpp:106] Creating Layer pool1
I0416 19:09:58.367542 21962 net.cpp:454] pool1 <- conv1
I0416 19:09:58.367558 21962 net.cpp:411] pool1 -> pool1
I0416 19:09:58.368288 21962 net.cpp:150] Setting up pool1
I0416 19:09:58.368301 21962 net.cpp:157] Top shape: 10 20 10 10 (20000)
I0416 19:09:58.368306 21962 net.cpp:165] Memory required for data: 469240
I0416 19:09:58.368309 21962 layer_factory.hpp:77] Creating layer conv2
I0416 19:09:58.368317 21962 net.cpp:106] Creating Layer conv2
I0416 19:09:58.368320 21962 net.cpp:454] conv2 <- pool1
I0416 19:09:58.368325 21962 net.cpp:411] conv2 -> conv2
I0416 19:09:58.370486 21962 net.cpp:150] Setting up conv2
I0416 19:09:58.370501 21962 net.cpp:157] Top shape: 10 50 6 6 (18000)
I0416 19:09:58.370507 21962 net.cpp:165] Memory required for data: 541240
I0416 19:09:58.370520 21962 layer_factory.hpp:77] Creating layer pool2
I0416 19:09:58.370532 21962 net.cpp:106] Creating Layer pool2
I0416 19:09:58.370539 21962 net.cpp:454] pool2 <- conv2
I0416 19:09:58.370550 21962 net.cpp:411] pool2 -> pool2
I0416 19:09:58.371184 21962 net.cpp:150] Setting up pool2
I0416 19:09:58.371196 21962 net.cpp:157] Top shape: 10 50 3 3 (4500)
I0416 19:09:58.371201 21962 net.cpp:165] Memory required for data: 559240
I0416 19:09:58.371203 21962 layer_factory.hpp:77] Creating layer ip1
I0416 19:09:58.371209 21962 net.cpp:106] Creating Layer ip1
I0416 19:09:58.371212 21962 net.cpp:454] ip1 <- pool2
I0416 19:09:58.371217 21962 net.cpp:411] ip1 -> ip1
I0416 19:09:58.371929 21962 net.cpp:150] Setting up ip1
I0416 19:09:58.371942 21962 net.cpp:157] Top shape: 10 128 (1280)
I0416 19:09:58.371944 21962 net.cpp:165] Memory required for data: 564360
I0416 19:09:58.371953 21962 layer_factory.hpp:77] Creating layer relu1
I0416 19:09:58.371958 21962 net.cpp:106] Creating Layer relu1
I0416 19:09:58.371961 21962 net.cpp:454] relu1 <- ip1
I0416 19:09:58.371965 21962 net.cpp:397] relu1 -> ip1 (in-place)
I0416 19:09:58.372490 21962 net.cpp:150] Setting up relu1
I0416 19:09:58.372503 21962 net.cpp:157] Top shape: 10 128 (1280)
I0416 19:09:58.372506 21962 net.cpp:165] Memory required for data: 569480
I0416 19:09:58.372509 21962 layer_factory.hpp:77] Creating layer ip2
I0416 19:09:58.372516 21962 net.cpp:106] Creating Layer ip2
I0416 19:09:58.372519 21962 net.cpp:454] ip2 <- ip1
I0416 19:09:58.372524 21962 net.cpp:411] ip2 -> ip2
I0416 19:09:58.372647 21962 net.cpp:150] Setting up ip2
I0416 19:09:58.372655 21962 net.cpp:157] Top shape: 10 48 (480)
I0416 19:09:58.372658 21962 net.cpp:165] Memory required for data: 571400
I0416 19:09:58.372663 21962 layer_factory.hpp:77] Creating layer ip2_ip2_0_split
I0416 19:09:58.372668 21962 net.cpp:106] Creating Layer ip2_ip2_0_split
I0416 19:09:58.372670 21962 net.cpp:454] ip2_ip2_0_split <- ip2
I0416 19:09:58.372676 21962 net.cpp:411] ip2_ip2_0_split -> ip2_ip2_0_split_0
I0416 19:09:58.372681 21962 net.cpp:411] ip2_ip2_0_split -> ip2_ip2_0_split_1
I0416 19:09:58.372709 21962 net.cpp:150] Setting up ip2_ip2_0_split
I0416 19:09:58.372715 21962 net.cpp:157] Top shape: 10 48 (480)
I0416 19:09:58.372719 21962 net.cpp:157] Top shape: 10 48 (480)
I0416 19:09:58.372721 21962 net.cpp:165] Memory required for data: 575240
I0416 19:09:58.372725 21962 layer_factory.hpp:77] Creating layer accuracy
I0416 19:09:58.372728 21962 net.cpp:106] Creating Layer accuracy
I0416 19:09:58.372732 21962 net.cpp:454] accuracy <- ip2_ip2_0_split_0
I0416 19:09:58.372735 21962 net.cpp:454] accuracy <- label_mnist_1_split_0
I0416 19:09:58.372740 21962 net.cpp:411] accuracy -> accuracy
…
