…
I0428 19:41:01.850545 30618 net.cpp:322] The NetState phase (0) differed from the phase (1) specified by a rule in layer mnist
I0428 19:41:01.850579 30618 net.cpp:322] The NetState phase (0) differed from the phase (1) specified by a rule in layer accuracy
I0428 19:41:01.850653 30618 net.cpp:49] Initializing net from parameters: 
name: "MLP"
state {
  phase: TRAIN
}
layer {
  name: "mnist"
  type: "Data"
  top: "data"
  top: "label"
  include {
    phase: TRAIN
  }
  transform_param {
    scale: 0.00390625
  }
  data_param {
    source: "examples/mnist/mnist_train_lmdb"
    batch_size: 100
    backend: LMDB
  }
}
layer {
  name: "ip4"
  type: "InnerProduct"
  bottom: "data"
  top: "ip4"
  param {
    lr_mult: 1
  }
  param {
    lr_mult: 2
  }
  inner_product_param {
    num_output: 10
    weight_filler {
      type: "xavier"
    }
  }
}
layer {
  name: "loss"
  type: "SoftmaxWithLoss"
  bottom: "ip4"
  bottom: "label"
  top: "loss"
}
I0428 19:41:01.850874 30618 layer_factory.hpp:77] Creating layer mnist
I0428 19:41:01.851529 30618 net.cpp:106] Creating Layer mnist
I0428 19:41:01.851567 30618 net.cpp:411] mnist -> data
I0428 19:41:01.851625 30618 net.cpp:411] mnist -> label
I0428 19:41:01.869560 30623 db_lmdb.cpp:38] Opened lmdb examples/mnist/mnist_train_lmdb
I0428 19:41:01.878473 30618 data_layer.cpp:41] output data size: 100,1,28,28
I0428 19:41:01.879587 30618 net.cpp:150] Setting up mnist
I0428 19:41:01.881289 30618 net.cpp:157] Top shape: 100 1 28 28 (78400)
I0428 19:41:01.881345 30618 net.cpp:157] Top shape: 100 (100)
I0428 19:41:01.881363 30618 net.cpp:165] Memory required for data: 314000
I0428 19:41:01.881391 30618 layer_factory.hpp:77] Creating layer ip4
I0428 19:41:01.881420 30618 net.cpp:106] Creating Layer ip4
I0428 19:41:01.881441 30618 net.cpp:454] ip4 <- data
I0428 19:41:01.881474 30618 net.cpp:411] ip4 -> ip4
I0428 19:41:01.882398 30618 net.cpp:150] Setting up ip4
I0428 19:41:01.882441 30618 net.cpp:157] Top shape: 100 10 (1000)
I0428 19:41:01.882463 30618 net.cpp:165] Memory required for data: 318000
I0428 19:41:01.882501 30618 layer_factory.hpp:77] Creating layer loss
I0428 19:41:01.882534 30618 net.cpp:106] Creating Layer loss
I0428 19:41:01.882556 30618 net.cpp:454] loss <- ip4
I0428 19:41:01.882575 30618 net.cpp:454] loss <- label
I0428 19:41:01.882599 30618 net.cpp:411] loss -> loss
I0428 19:41:01.882637 30618 layer_factory.hpp:77] Creating layer loss
…
I0428 19:41:02.053526 30618 solver.cpp:181] Creating test net (#0) specified by net file: examples/mlp/mlp_train_test.prototxt
I0428 19:41:02.053571 30618 net.cpp:322] The NetState phase (1) differed from the phase (0) specified by a rule in layer mnist
I0428 19:41:02.053650 30618 net.cpp:49] Initializing net from parameters: 
name: "MLP"
state {
  phase: TEST
}
layer {
  name: "mnist"
  type: "Data"
  top: "data"
  top: "label"
  include {
    phase: TEST
  }
  transform_param {
    scale: 0.00390625
  }
  data_param {
    source: "examples/mnist/mnist_test_lmdb"
    batch_size: 100
    backend: LMDB
  }
}
layer {
  name: "ip4"
  type: "InnerProduct"
  bottom: "data"
  top: "ip4"
  param {
    lr_mult: 1
  }
  param {
    lr_mult: 2
  }
  inner_product_param {
    num_output: 10
    weight_filler {
      type: "xavier"
    }
  }
}
layer {
  name: "accuracy"
  type: "Accuracy"
  bottom: "ip4"
  bottom: "label"
  top: "accuracy"
  include {
    phase: TEST
  }
}
layer {
  name: "loss"
  type: "SoftmaxWithLoss"
  bottom: "ip4"
  bottom: "label"
  top: "loss"
}
I0428 19:41:02.053912 30618 layer_factory.hpp:77] Creating layer mnist
I0428 19:41:02.054067 30618 net.cpp:106] Creating Layer mnist
I0428 19:41:02.054100 30618 net.cpp:411] mnist -> data
I0428 19:41:02.054141 30618 net.cpp:411] mnist -> label
I0428 19:41:02.055004 30625 db_lmdb.cpp:38] Opened lmdb examples/mnist/mnist_test_lmdb
I0428 19:41:02.055291 30618 data_layer.cpp:41] output data size: 100,1,28,28
I0428 19:41:02.056427 30618 net.cpp:150] Setting up mnist
I0428 19:41:02.056473 30618 net.cpp:157] Top shape: 100 1 28 28 (78400)
I0428 19:41:02.056504 30618 net.cpp:157] Top shape: 100 (100)
I0428 19:41:02.056527 30618 net.cpp:165] Memory required for data: 314000
I0428 19:41:02.056552 30618 layer_factory.hpp:77] Creating layer label_mnist_1_split
I0428 19:41:02.056584 30618 net.cpp:106] Creating Layer label_mnist_1_split
I0428 19:41:02.056612 30618 net.cpp:454] label_mnist_1_split <- label
I0428 19:41:02.056639 30618 net.cpp:411] label_mnist_1_split -> label_mnist_1_split_0
I0428 19:41:02.056671 30618 net.cpp:411] label_mnist_1_split -> label_mnist_1_split_1
I0428 19:41:02.056736 30618 net.cpp:150] Setting up label_mnist_1_split
I0428 19:41:02.056762 30618 net.cpp:157] Top shape: 100 (100)
I0428 19:41:02.056783 30618 net.cpp:157] Top shape: 100 (100)
I0428 19:41:02.056804 30618 net.cpp:165] Memory required for data: 314800
I0428 19:41:02.056825 30618 layer_factory.hpp:77] Creating layer ip4
I0428 19:41:02.056850 30618 net.cpp:106] Creating Layer ip4
I0428 19:41:02.056871 30618 net.cpp:454] ip4 <- data
I0428 19:41:02.056907 30618 net.cpp:411] ip4 -> ip4
I0428 19:41:02.057118 30618 net.cpp:150] Setting up ip4
I0428 19:41:02.057152 30618 net.cpp:157] Top shape: 100 10 (1000)
I0428 19:41:02.057176 30618 net.cpp:165] Memory required for data: 318800
I0428 19:41:02.057207 30618 layer_factory.hpp:77] Creating layer ip4_ip4_0_split
I0428 19:41:02.057235 30618 net.cpp:106] Creating Layer ip4_ip4_0_split
I0428 19:41:02.057257 30618 net.cpp:454] ip4_ip4_0_split <- ip4
I0428 19:41:02.057282 30618 net.cpp:411] ip4_ip4_0_split -> ip4_ip4_0_split_0
I0428 19:41:02.057318 30618 net.cpp:411] ip4_ip4_0_split -> ip4_ip4_0_split_1
I0428 19:41:02.057384 30618 net.cpp:150] Setting up ip4_ip4_0_split
I0428 19:41:02.057410 30618 net.cpp:157] Top shape: 100 10 (1000)
I0428 19:41:02.057433 30618 net.cpp:157] Top shape: 100 10 (1000)
I0428 19:41:02.057453 30618 net.cpp:165] Memory required for data: 326800
I0428 19:41:02.057472 30618 layer_factory.hpp:77] Creating layer accuracy
I0428 19:41:02.057498 30618 net.cpp:106] Creating Layer accuracy
I0428 19:41:02.057523 30618 net.cpp:454] accuracy <- ip4_ip4_0_split_0
I0428 19:41:02.057549 30618 net.cpp:454] accuracy <- label_mnist_1_split_0
I0428 19:41:02.057579 30618 net.cpp:411] accuracy -> accuracy
…
