…
I0328 17:16:19.654554  1546 net.cpp:322] The NetState phase (0) differed from the phase (1) specified by a rule in layer mnist
I0328 17:16:19.654569  1546 net.cpp:322] The NetState phase (0) differed from the phase (1) specified by a rule in layer accuracy
I0328 17:16:19.654629  1546 net.cpp:49] Initializing net from parameters: 
name: "MLP"
state {
  phase: TRAIN
}
layer {
  name: "mnist"
  type: "Data"
  top: "data"
  top: "label"
  include {
    phase: TRAIN
  }
  transform_param {
    scale: 0.00390625
  }
  data_param {
    source: "examples/mnist/mnist_train_lmdb"
    batch_size: 64
    backend: LMDB
  }
}
layer {
  name: "ip1"
  type: "InnerProduct"
  bottom: "data"
  top: "ip1"
  param {
    lr_mult: 1
  }
  param {
    lr_mult: 2
  }
  inner_product_param {
    num_output: 10
    weight_filler {
      type: "xavier"
    }
    bias_filler {
      type: "constant"
    }
  }
}
layer {
  name: "relu1"
  type: "ReLU"
  bottom: "ip1"
  top: "ip1"
}
layer {
  name: "ip2"
  type: "InnerProduct"
  bottom: "ip1"
  top: "ip2"
  param {
    lr_mult: 1
  }
  param {
    lr_mult: 2
  }
  inner_product_param {
    num_output: 10
    weight_filler {
      type: "xavier"
    }
    bias_filler {
      type: "constant"
    }
  }
}
layer {
  name: "relu2"
  type: "ReLU"
  bottom: "ip2"
  top: "ip2"
}
layer {
  name: "ip3"
  type: "InnerProduct"
  bottom: "ip2"
  top: "ip3"
  param {
    lr_mult: 1
  }
  param {
    lr_mult: 2
  }
  inner_product_param {
    num_output: 256
    weight_filler {
      type: "xavier"
    }
    bias_filler {
      type: "constant"
    }
  }
}
layer {
  name: "relu3"
  type: "ReLU"
  bottom: "ip3"
  top: "ip3"
}
layer {
  name: "ip4"
  type: "InnerProduct"
  bottom: "ip3"
  top: "ip4"
  param {
    lr_mult: 1
  }
  param {
    lr_mult: 2
  }
  inner_product_param {
    num_output: 10
    weight_filler {
      type: "xavier"
    }
    bias_filler {
      type: "constant"
    }
  }
}
layer {
  name: "loss"
  type: "SoftmaxWithLoss"
  bottom: "ip4"
  bottom: "label"
  top: "loss"
}
I0328 17:16:19.654685  1546 layer_factory.hpp:77] Creating layer mnist
I0328 17:16:19.655148  1546 net.cpp:106] Creating Layer mnist
I0328 17:16:19.655161  1546 net.cpp:411] mnist -> data
I0328 17:16:19.655182  1546 net.cpp:411] mnist -> label
I0328 17:16:19.656286  1550 db_lmdb.cpp:38] Opened lmdb examples/mnist/mnist_train_lmdb
I0328 17:16:19.662524  1546 data_layer.cpp:41] output data size: 64,1,28,28
I0328 17:16:19.663288  1546 net.cpp:150] Setting up mnist
I0328 17:16:19.663311  1546 net.cpp:157] Top shape: 64 1 28 28 (50176)
I0328 17:16:19.663316  1546 net.cpp:157] Top shape: 64 (64)
I0328 17:16:19.663321  1546 net.cpp:165] Memory required for data: 200960
I0328 17:16:19.663329  1546 layer_factory.hpp:77] Creating layer ip1
I0328 17:16:19.663343  1546 net.cpp:106] Creating Layer ip1
I0328 17:16:19.663352  1546 net.cpp:454] ip1 <- data
I0328 17:16:19.663369  1546 net.cpp:411] ip1 -> ip1
I0328 17:16:19.663936  1546 net.cpp:150] Setting up ip1
I0328 17:16:19.663950  1546 net.cpp:157] Top shape: 64 10 (640)
I0328 17:16:19.663957  1546 net.cpp:165] Memory required for data: 203520
I0328 17:16:19.663976  1546 layer_factory.hpp:77] Creating layer relu1
I0328 17:16:19.663990  1546 net.cpp:106] Creating Layer relu1
I0328 17:16:19.664000  1546 net.cpp:454] relu1 <- ip1
I0328 17:16:19.664008  1546 net.cpp:397] relu1 -> ip1 (in-place)
I0328 17:16:19.777968  1546 net.cpp:150] Setting up relu1
I0328 17:16:19.778000  1546 net.cpp:157] Top shape: 64 10 (640)
I0328 17:16:19.778007  1546 net.cpp:165] Memory required for data: 206080
I0328 17:16:19.778013  1546 layer_factory.hpp:77] Creating layer ip2
I0328 17:16:19.778056  1546 net.cpp:106] Creating Layer ip2
I0328 17:16:19.778067  1546 net.cpp:454] ip2 <- ip1
I0328 17:16:19.778079  1546 net.cpp:411] ip2 -> ip2
I0328 17:16:19.778188  1546 net.cpp:150] Setting up ip2
I0328 17:16:19.778199  1546 net.cpp:157] Top shape: 64 10 (640)
I0328 17:16:19.778205  1546 net.cpp:165] Memory required for data: 208640
I0328 17:16:19.778220  1546 layer_factory.hpp:77] Creating layer relu2
I0328 17:16:19.778234  1546 net.cpp:106] Creating Layer relu2
I0328 17:16:19.778241  1546 net.cpp:454] relu2 <- ip2
I0328 17:16:19.778250  1546 net.cpp:397] relu2 -> ip2 (in-place)
I0328 17:16:19.778856  1546 net.cpp:150] Setting up relu2
I0328 17:16:19.778869  1546 net.cpp:157] Top shape: 64 10 (640)
I0328 17:16:19.778877  1546 net.cpp:165] Memory required for data: 211200
I0328 17:16:19.778882  1546 layer_factory.hpp:77] Creating layer ip3
I0328 17:16:19.778893  1546 net.cpp:106] Creating Layer ip3
I0328 17:16:19.778899  1546 net.cpp:454] ip3 <- ip2
I0328 17:16:19.778908  1546 net.cpp:411] ip3 -> ip3
I0328 17:16:19.779388  1546 net.cpp:150] Setting up ip3
I0328 17:16:19.779403  1546 net.cpp:157] Top shape: 64 256 (16384)
I0328 17:16:19.779409  1546 net.cpp:165] Memory required for data: 276736
I0328 17:16:19.779423  1546 layer_factory.hpp:77] Creating layer relu3
I0328 17:16:19.779436  1546 net.cpp:106] Creating Layer relu3
I0328 17:16:19.779443  1546 net.cpp:454] relu3 <- ip3
I0328 17:16:19.779451  1546 net.cpp:397] relu3 -> ip3 (in-place)
I0328 17:16:19.779969  1546 net.cpp:150] Setting up relu3
I0328 17:16:19.779983  1546 net.cpp:157] Top shape: 64 256 (16384)
I0328 17:16:19.779989  1546 net.cpp:165] Memory required for data: 342272
I0328 17:16:19.779994  1546 layer_factory.hpp:77] Creating layer ip4
I0328 17:16:19.780005  1546 net.cpp:106] Creating Layer ip4
I0328 17:16:19.780011  1546 net.cpp:454] ip4 <- ip3
I0328 17:16:19.780020  1546 net.cpp:411] ip4 -> ip4
I0328 17:16:19.780122  1546 net.cpp:150] Setting up ip4
I0328 17:16:19.780131  1546 net.cpp:157] Top shape: 64 10 (640)
I0328 17:16:19.780138  1546 net.cpp:165] Memory required for data: 344832
I0328 17:16:19.780148  1546 layer_factory.hpp:77] Creating layer loss
I0328 17:16:19.780158  1546 net.cpp:106] Creating Layer loss
I0328 17:16:19.780165  1546 net.cpp:454] loss <- ip4
I0328 17:16:19.780174  1546 net.cpp:454] loss <- label
I0328 17:16:19.780184  1546 net.cpp:411] loss -> loss
I0328 17:16:19.780205  1546 layer_factory.hpp:77] Creating layer loss
…
I0328 17:16:19.781559  1546 solver.cpp:181] Creating test net (#0) specified by net file: examples/mlp/mlp_train_test.prototxt
I0328 17:16:19.781591  1546 net.cpp:322] The NetState phase (1) differed from the phase (0) specified by a rule in layer mnist
I0328 17:16:19.781669  1546 net.cpp:49] Initializing net from parameters: 
name: "MLP"
state {
  phase: TEST
}
layer {
  name: "mnist"
  type: "Data"
  top: "data"
  top: "label"
  include {
    phase: TEST
  }
  transform_param {
    scale: 0.00390625
  }
  data_param {
    source: "examples/mnist/mnist_test_lmdb"
    batch_size: 100
    backend: LMDB
  }
}
layer {
  name: "ip1"
  type: "InnerProduct"
  bottom: "data"
  top: "ip1"
  param {
    lr_mult: 1
  }
  param {
    lr_mult: 2
  }
  inner_product_param {
    num_output: 10
    weight_filler {
      type: "xavier"
    }
    bias_filler {
      type: "constant"
    }
  }
}
layer {
  name: "relu1"
  type: "ReLU"
  bottom: "ip1"
  top: "ip1"
}
layer {
  name: "ip2"
  type: "InnerProduct"
  bottom: "ip1"
  top: "ip2"
  param {
    lr_mult: 1
  }
  param {
    lr_mult: 2
  }
  inner_product_param {
    num_output: 10
    weight_filler {
      type: "xavier"
    }
    bias_filler {
      type: "constant"
    }
  }
}
layer {
  name: "relu2"
  type: "ReLU"
  bottom: "ip2"
  top: "ip2"
}
layer {
  name: "ip3"
  type: "InnerProduct"
  bottom: "ip2"
  top: "ip3"
  param {
    lr_mult: 1
  }
  param {
    lr_mult: 2
  }
  inner_product_param {
    num_output: 256
    weight_filler {
      type: "xavier"
    }
    bias_filler {
      type: "constant"
    }
  }
}
layer {
  name: "relu3"
  type: "ReLU"
  bottom: "ip3"
  top: "ip3"
}
layer {
  name: "ip4"
  type: "InnerProduct"
  bottom: "ip3"
  top: "ip4"
  param {
    lr_mult: 1
  }
  param {
    lr_mult: 2
  }
  inner_product_param {
    num_output: 10
    weight_filler {
      type: "xavier"
    }
    bias_filler {
      type: "constant"
    }
  }
}
layer {
  name: "accuracy"
  type: "Accuracy"
  bottom: "ip4"
  bottom: "label"
  top: "accuracy"
  include {
    phase: TEST
  }
}
layer {
  name: "loss"
  type: "SoftmaxWithLoss"
  bottom: "ip4"
  bottom: "label"
  top: "loss"
}
I0328 17:16:19.781774  1546 layer_factory.hpp:77] Creating layer mnist
I0328 17:16:19.781919  1546 net.cpp:106] Creating Layer mnist
I0328 17:16:19.781929  1546 net.cpp:411] mnist -> data
I0328 17:16:19.781944  1546 net.cpp:411] mnist -> label
I0328 17:16:19.783090  1552 db_lmdb.cpp:38] Opened lmdb examples/mnist/mnist_test_lmdb
I0328 17:16:19.783198  1546 data_layer.cpp:41] output data size: 100,1,28,28
I0328 17:16:19.784060  1546 net.cpp:150] Setting up mnist
I0328 17:16:19.784077  1546 net.cpp:157] Top shape: 100 1 28 28 (78400)
I0328 17:16:19.784090  1546 net.cpp:157] Top shape: 100 (100)
I0328 17:16:19.784095  1546 net.cpp:165] Memory required for data: 314000
I0328 17:16:19.784101  1546 layer_factory.hpp:77] Creating layer label_mnist_1_split
I0328 17:16:19.784116  1546 net.cpp:106] Creating Layer label_mnist_1_split
I0328 17:16:19.784123  1546 net.cpp:454] label_mnist_1_split <- label
I0328 17:16:19.784133  1546 net.cpp:411] label_mnist_1_split -> label_mnist_1_split_0
I0328 17:16:19.784147  1546 net.cpp:411] label_mnist_1_split -> label_mnist_1_split_1
I0328 17:16:19.784193  1546 net.cpp:150] Setting up label_mnist_1_split
I0328 17:16:19.784204  1546 net.cpp:157] Top shape: 100 (100)
I0328 17:16:19.784210  1546 net.cpp:157] Top shape: 100 (100)
I0328 17:16:19.784215  1546 net.cpp:165] Memory required for data: 314800
I0328 17:16:19.784221  1546 layer_factory.hpp:77] Creating layer ip1
I0328 17:16:19.784234  1546 net.cpp:106] Creating Layer ip1
I0328 17:16:19.784240  1546 net.cpp:454] ip1 <- data
I0328 17:16:19.784251  1546 net.cpp:411] ip1 -> ip1
I0328 17:16:19.784394  1546 net.cpp:150] Setting up ip1
I0328 17:16:19.784405  1546 net.cpp:157] Top shape: 100 10 (1000)
I0328 17:16:19.784410  1546 net.cpp:165] Memory required for data: 318800
I0328 17:16:19.784425  1546 layer_factory.hpp:77] Creating layer relu1
I0328 17:16:19.784437  1546 net.cpp:106] Creating Layer relu1
I0328 17:16:19.784445  1546 net.cpp:454] relu1 <- ip1
I0328 17:16:19.784452  1546 net.cpp:397] relu1 -> ip1 (in-place)
I0328 17:16:19.785195  1546 net.cpp:150] Setting up relu1
I0328 17:16:19.785214  1546 net.cpp:157] Top shape: 100 10 (1000)
I0328 17:16:19.785223  1546 net.cpp:165] Memory required for data: 322800
I0328 17:16:19.785235  1546 layer_factory.hpp:77] Creating layer ip2
I0328 17:16:19.785248  1546 net.cpp:106] Creating Layer ip2
I0328 17:16:19.785257  1546 net.cpp:454] ip2 <- ip1
I0328 17:16:19.785270  1546 net.cpp:411] ip2 -> ip2
I0328 17:16:19.785429  1546 net.cpp:150] Setting up ip2
I0328 17:16:19.785442  1546 net.cpp:157] Top shape: 100 10 (1000)
I0328 17:16:19.785450  1546 net.cpp:165] Memory required for data: 326800
I0328 17:16:19.785465  1546 layer_factory.hpp:77] Creating layer relu2
I0328 17:16:19.785476  1546 net.cpp:106] Creating Layer relu2
I0328 17:16:19.785485  1546 net.cpp:454] relu2 <- ip2
I0328 17:16:19.785493  1546 net.cpp:397] relu2 -> ip2 (in-place)
I0328 17:16:19.786149  1546 net.cpp:150] Setting up relu2
I0328 17:16:19.786164  1546 net.cpp:157] Top shape: 100 10 (1000)
I0328 17:16:19.786170  1546 net.cpp:165] Memory required for data: 330800
I0328 17:16:19.786176  1546 layer_factory.hpp:77] Creating layer ip3
I0328 17:16:19.786188  1546 net.cpp:106] Creating Layer ip3
I0328 17:16:19.786195  1546 net.cpp:454] ip3 <- ip2
I0328 17:16:19.786206  1546 net.cpp:411] ip3 -> ip3
I0328 17:16:19.786360  1546 net.cpp:150] Setting up ip3
I0328 17:16:19.786373  1546 net.cpp:157] Top shape: 100 256 (25600)
I0328 17:16:19.786380  1546 net.cpp:165] Memory required for data: 433200
I0328 17:16:19.786393  1546 layer_factory.hpp:77] Creating layer relu3
I0328 17:16:19.786412  1546 net.cpp:106] Creating Layer relu3
I0328 17:16:19.786428  1546 net.cpp:454] relu3 <- ip3
I0328 17:16:19.786440  1546 net.cpp:397] relu3 -> ip3 (in-place)
I0328 17:16:19.787111  1546 net.cpp:150] Setting up relu3
I0328 17:16:19.787127  1546 net.cpp:157] Top shape: 100 256 (25600)
I0328 17:16:19.787134  1546 net.cpp:165] Memory required for data: 535600
I0328 17:16:19.787140  1546 layer_factory.hpp:77] Creating layer ip4
I0328 17:16:19.787153  1546 net.cpp:106] Creating Layer ip4
I0328 17:16:19.787160  1546 net.cpp:454] ip4 <- ip3
I0328 17:16:19.787173  1546 net.cpp:411] ip4 -> ip4
I0328 17:16:19.787286  1546 net.cpp:150] Setting up ip4
I0328 17:16:19.787298  1546 net.cpp:157] Top shape: 100 10 (1000)
I0328 17:16:19.787307  1546 net.cpp:165] Memory required for data: 539600
I0328 17:16:19.787318  1546 layer_factory.hpp:77] Creating layer ip4_ip4_0_split
I0328 17:16:19.787333  1546 net.cpp:106] Creating Layer ip4_ip4_0_split
I0328 17:16:19.787343  1546 net.cpp:454] ip4_ip4_0_split <- ip4
I0328 17:16:19.787353  1546 net.cpp:411] ip4_ip4_0_split -> ip4_ip4_0_split_0
I0328 17:16:19.787366  1546 net.cpp:411] ip4_ip4_0_split -> ip4_ip4_0_split_1
I0328 17:16:19.787408  1546 net.cpp:150] Setting up ip4_ip4_0_split
I0328 17:16:19.787420  1546 net.cpp:157] Top shape: 100 10 (1000)
I0328 17:16:19.787430  1546 net.cpp:157] Top shape: 100 10 (1000)
I0328 17:16:19.787436  1546 net.cpp:165] Memory required for data: 547600
I0328 17:16:19.787443  1546 layer_factory.hpp:77] Creating layer accuracy
I0328 17:16:19.787454  1546 net.cpp:106] Creating Layer accuracy
I0328 17:16:19.787462  1546 net.cpp:454] accuracy <- ip4_ip4_0_split_0
I0328 17:16:19.787469  1546 net.cpp:454] accuracy <- label_mnist_1_split_0
I0328 17:16:19.787478  1546 net.cpp:411] accuracy -> accuracy
…
