…
I0328 17:17:10.762742  1564 net.cpp:322] The NetState phase (0) differed from the phase (1) specified by a rule in layer mnist
I0328 17:17:10.762761  1564 net.cpp:322] The NetState phase (0) differed from the phase (1) specified by a rule in layer accuracy
I0328 17:17:10.762832  1564 net.cpp:49] Initializing net from parameters: 
name: "MLP"
state {
  phase: TRAIN
}
layer {
  name: "mnist"
  type: "Data"
  top: "data"
  top: "label"
  include {
    phase: TRAIN
  }
  transform_param {
    scale: 0.00390625
  }
  data_param {
    source: "examples/mnist/mnist_train_lmdb"
    batch_size: 64
    backend: LMDB
  }
}
layer {
  name: "ip1"
  type: "InnerProduct"
  bottom: "data"
  top: "ip1"
  param {
    lr_mult: 1
  }
  param {
    lr_mult: 2
  }
  inner_product_param {
    num_output: 10
    weight_filler {
      type: "xavier"
    }
    bias_filler {
      type: "constant"
    }
  }
}
layer {
  name: "relu1"
  type: "ReLU"
  bottom: "ip1"
  top: "ip1"
}
layer {
  name: "ip2"
  type: "InnerProduct"
  bottom: "ip1"
  top: "ip2"
  param {
    lr_mult: 1
  }
  param {
    lr_mult: 2
  }
  inner_product_param {
    num_output: 10
    weight_filler {
      type: "xavier"
    }
    bias_filler {
      type: "constant"
    }
  }
}
layer {
  name: "relu2"
  type: "ReLU"
  bottom: "ip2"
  top: "ip2"
}
layer {
  name: "ip3"
  type: "InnerProduct"
  bottom: "ip2"
  top: "ip3"
  param {
    lr_mult: 1
  }
  param {
    lr_mult: 2
  }
  inner_product_param {
    num_output: 10
    weight_filler {
      type: "xavier"
    }
    bias_filler {
      type: "constant"
    }
  }
}
layer {
  name: "relu3"
  type: "ReLU"
  bottom: "ip3"
  top: "ip3"
}
layer {
  name: "ip4"
  type: "InnerProduct"
  bottom: "ip3"
  top: "ip4"
  param {
    lr_mult: 1
  }
  param {
    lr_mult: 2
  }
  inner_product_param {
    num_output: 10
    weight_filler {
      type: "xavier"
    }
    bias_filler {
      type: "constant"
    }
  }
}
layer {
  name: "loss"
  type: "SoftmaxWithLoss"
  bottom: "ip4"
  bottom: "label"
  top: "loss"
}
I0328 17:17:10.762895  1564 layer_factory.hpp:77] Creating layer mnist
I0328 17:17:10.763386  1564 net.cpp:106] Creating Layer mnist
I0328 17:17:10.763399  1564 net.cpp:411] mnist -> data
I0328 17:17:10.763422  1564 net.cpp:411] mnist -> label
I0328 17:17:10.764235  1570 db_lmdb.cpp:38] Opened lmdb examples/mnist/mnist_train_lmdb
I0328 17:17:10.802021  1564 data_layer.cpp:41] output data size: 64,1,28,28
I0328 17:17:10.809340  1564 net.cpp:150] Setting up mnist
I0328 17:17:10.809370  1564 net.cpp:157] Top shape: 64 1 28 28 (50176)
I0328 17:17:10.809378  1564 net.cpp:157] Top shape: 64 (64)
I0328 17:17:10.809383  1564 net.cpp:165] Memory required for data: 200960
I0328 17:17:10.809401  1564 layer_factory.hpp:77] Creating layer ip1
I0328 17:17:10.809422  1564 net.cpp:106] Creating Layer ip1
I0328 17:17:10.809432  1564 net.cpp:454] ip1 <- data
I0328 17:17:10.809450  1564 net.cpp:411] ip1 -> ip1
I0328 17:17:10.810021  1564 net.cpp:150] Setting up ip1
I0328 17:17:10.810039  1564 net.cpp:157] Top shape: 64 10 (640)
I0328 17:17:10.810045  1564 net.cpp:165] Memory required for data: 203520
I0328 17:17:10.810065  1564 layer_factory.hpp:77] Creating layer relu1
I0328 17:17:10.810093  1564 net.cpp:106] Creating Layer relu1
I0328 17:17:10.810106  1564 net.cpp:454] relu1 <- ip1
I0328 17:17:10.810117  1564 net.cpp:397] relu1 -> ip1 (in-place)
I0328 17:17:10.972776  1564 net.cpp:150] Setting up relu1
I0328 17:17:10.972808  1564 net.cpp:157] Top shape: 64 10 (640)
I0328 17:17:10.972815  1564 net.cpp:165] Memory required for data: 206080
I0328 17:17:10.972822  1564 layer_factory.hpp:77] Creating layer ip2
I0328 17:17:10.972862  1564 net.cpp:106] Creating Layer ip2
I0328 17:17:10.972868  1564 net.cpp:454] ip2 <- ip1
I0328 17:17:10.972878  1564 net.cpp:411] ip2 -> ip2
I0328 17:17:10.973008  1564 net.cpp:150] Setting up ip2
I0328 17:17:10.973021  1564 net.cpp:157] Top shape: 64 10 (640)
I0328 17:17:10.973023  1564 net.cpp:165] Memory required for data: 208640
I0328 17:17:10.973033  1564 layer_factory.hpp:77] Creating layer relu2
I0328 17:17:10.973045  1564 net.cpp:106] Creating Layer relu2
I0328 17:17:10.973052  1564 net.cpp:454] relu2 <- ip2
I0328 17:17:10.973059  1564 net.cpp:397] relu2 -> ip2 (in-place)
I0328 17:17:10.973693  1564 net.cpp:150] Setting up relu2
I0328 17:17:10.973709  1564 net.cpp:157] Top shape: 64 10 (640)
I0328 17:17:10.973716  1564 net.cpp:165] Memory required for data: 211200
I0328 17:17:10.973724  1564 layer_factory.hpp:77] Creating layer ip3
I0328 17:17:10.973733  1564 net.cpp:106] Creating Layer ip3
I0328 17:17:10.973737  1564 net.cpp:454] ip3 <- ip2
I0328 17:17:10.973743  1564 net.cpp:411] ip3 -> ip3
I0328 17:17:10.973834  1564 net.cpp:150] Setting up ip3
I0328 17:17:10.973844  1564 net.cpp:157] Top shape: 64 10 (640)
I0328 17:17:10.973848  1564 net.cpp:165] Memory required for data: 213760
I0328 17:17:10.973861  1564 layer_factory.hpp:77] Creating layer relu3
I0328 17:17:10.973871  1564 net.cpp:106] Creating Layer relu3
I0328 17:17:10.973896  1564 net.cpp:454] relu3 <- ip3
I0328 17:17:10.973907  1564 net.cpp:397] relu3 -> ip3 (in-place)
I0328 17:17:10.974530  1564 net.cpp:150] Setting up relu3
I0328 17:17:10.974542  1564 net.cpp:157] Top shape: 64 10 (640)
I0328 17:17:10.974546  1564 net.cpp:165] Memory required for data: 216320
I0328 17:17:10.974550  1564 layer_factory.hpp:77] Creating layer ip4
I0328 17:17:10.974557  1564 net.cpp:106] Creating Layer ip4
I0328 17:17:10.974560  1564 net.cpp:454] ip4 <- ip3
I0328 17:17:10.974565  1564 net.cpp:411] ip4 -> ip4
I0328 17:17:10.974649  1564 net.cpp:150] Setting up ip4
I0328 17:17:10.974656  1564 net.cpp:157] Top shape: 64 10 (640)
I0328 17:17:10.974659  1564 net.cpp:165] Memory required for data: 218880
I0328 17:17:10.974664  1564 layer_factory.hpp:77] Creating layer loss
I0328 17:17:10.974684  1564 net.cpp:106] Creating Layer loss
I0328 17:17:10.974689  1564 net.cpp:454] loss <- ip4
I0328 17:17:10.974695  1564 net.cpp:454] loss <- label
I0328 17:17:10.974705  1564 net.cpp:411] loss -> loss
I0328 17:17:10.974732  1564 layer_factory.hpp:77] Creating layer loss
…
I0328 17:17:10.976419  1564 solver.cpp:181] Creating test net (#0) specified by net file: examples/mlp/mlp_train_test.prototxt
I0328 17:17:10.976443  1564 net.cpp:322] The NetState phase (1) differed from the phase (0) specified by a rule in layer mnist
I0328 17:17:10.976508  1564 net.cpp:49] Initializing net from parameters: 
name: "MLP"
state {
  phase: TEST
}
layer {
  name: "mnist"
  type: "Data"
  top: "data"
  top: "label"
  include {
    phase: TEST
  }
  transform_param {
    scale: 0.00390625
  }
  data_param {
    source: "examples/mnist/mnist_test_lmdb"
    batch_size: 100
    backend: LMDB
  }
}
layer {
  name: "ip1"
  type: "InnerProduct"
  bottom: "data"
  top: "ip1"
  param {
    lr_mult: 1
  }
  param {
    lr_mult: 2
  }
  inner_product_param {
    num_output: 10
    weight_filler {
      type: "xavier"
    }
    bias_filler {
      type: "constant"
    }
  }
}
layer {
  name: "relu1"
  type: "ReLU"
  bottom: "ip1"
  top: "ip1"
}
layer {
  name: "ip2"
  type: "InnerProduct"
  bottom: "ip1"
  top: "ip2"
  param {
    lr_mult: 1
  }
  param {
    lr_mult: 2
  }
  inner_product_param {
    num_output: 10
    weight_filler {
      type: "xavier"
    }
    bias_filler {
      type: "constant"
    }
  }
}
layer {
  name: "relu2"
  type: "ReLU"
  bottom: "ip2"
  top: "ip2"
}
layer {
  name: "ip3"
  type: "InnerProduct"
  bottom: "ip2"
  top: "ip3"
  param {
    lr_mult: 1
  }
  param {
    lr_mult: 2
  }
  inner_product_param {
    num_output: 10
    weight_filler {
      type: "xavier"
    }
    bias_filler {
      type: "constant"
    }
  }
}
layer {
  name: "relu3"
  type: "ReLU"
  bottom: "ip3"
  top: "ip3"
}
layer {
  name: "ip4"
  type: "InnerProduct"
  bottom: "ip3"
  top: "ip4"
  param {
    lr_mult: 1
  }
  param {
    lr_mult: 2
  }
  inner_product_param {
    num_output: 10
    weight_filler {
      type: "xavier"
    }
    bias_filler {
      type: "constant"
    }
  }
}
layer {
  name: "accuracy"
  type: "Accuracy"
  bottom: "ip4"
  bottom: "label"
  top: "accuracy"
  include {
    phase: TEST
  }
}
layer {
  name: "loss"
  type: "SoftmaxWithLoss"
  bottom: "ip4"
  bottom: "label"
  top: "loss"
}
I0328 17:17:10.976583  1564 layer_factory.hpp:77] Creating layer mnist
I0328 17:17:10.976676  1564 net.cpp:106] Creating Layer mnist
I0328 17:17:10.976696  1564 net.cpp:411] mnist -> data
I0328 17:17:10.976706  1564 net.cpp:411] mnist -> label
I0328 17:17:10.977710  1572 db_lmdb.cpp:38] Opened lmdb examples/mnist/mnist_test_lmdb
I0328 17:17:10.977819  1564 data_layer.cpp:41] output data size: 100,1,28,28
I0328 17:17:10.981539  1564 net.cpp:150] Setting up mnist
I0328 17:17:10.981552  1564 net.cpp:157] Top shape: 100 1 28 28 (78400)
I0328 17:17:10.981556  1564 net.cpp:157] Top shape: 100 (100)
I0328 17:17:10.981559  1564 net.cpp:165] Memory required for data: 314000
I0328 17:17:10.981565  1564 layer_factory.hpp:77] Creating layer label_mnist_1_split
I0328 17:17:10.981571  1564 net.cpp:106] Creating Layer label_mnist_1_split
I0328 17:17:10.981575  1564 net.cpp:454] label_mnist_1_split <- label
I0328 17:17:10.981580  1564 net.cpp:411] label_mnist_1_split -> label_mnist_1_split_0
I0328 17:17:10.981587  1564 net.cpp:411] label_mnist_1_split -> label_mnist_1_split_1
I0328 17:17:10.981659  1564 net.cpp:150] Setting up label_mnist_1_split
I0328 17:17:10.981672  1564 net.cpp:157] Top shape: 100 (100)
I0328 17:17:10.981678  1564 net.cpp:157] Top shape: 100 (100)
I0328 17:17:10.981685  1564 net.cpp:165] Memory required for data: 314800
I0328 17:17:10.981689  1564 layer_factory.hpp:77] Creating layer ip1
I0328 17:17:10.981700  1564 net.cpp:106] Creating Layer ip1
I0328 17:17:10.981703  1564 net.cpp:454] ip1 <- data
I0328 17:17:10.981709  1564 net.cpp:411] ip1 -> ip1
I0328 17:17:10.981842  1564 net.cpp:150] Setting up ip1
I0328 17:17:10.981849  1564 net.cpp:157] Top shape: 100 10 (1000)
I0328 17:17:10.981853  1564 net.cpp:165] Memory required for data: 318800
I0328 17:17:10.981860  1564 layer_factory.hpp:77] Creating layer relu1
I0328 17:17:10.981865  1564 net.cpp:106] Creating Layer relu1
I0328 17:17:10.981868  1564 net.cpp:454] relu1 <- ip1
I0328 17:17:10.981873  1564 net.cpp:397] relu1 -> ip1 (in-place)
I0328 17:17:10.982758  1564 net.cpp:150] Setting up relu1
I0328 17:17:10.982769  1564 net.cpp:157] Top shape: 100 10 (1000)
I0328 17:17:10.982774  1564 net.cpp:165] Memory required for data: 322800
I0328 17:17:10.982776  1564 layer_factory.hpp:77] Creating layer ip2
I0328 17:17:10.982782  1564 net.cpp:106] Creating Layer ip2
I0328 17:17:10.982786  1564 net.cpp:454] ip2 <- ip1
I0328 17:17:10.982792  1564 net.cpp:411] ip2 -> ip2
I0328 17:17:10.984020  1564 net.cpp:150] Setting up ip2
I0328 17:17:10.984046  1564 net.cpp:157] Top shape: 100 10 (1000)
I0328 17:17:10.984056  1564 net.cpp:165] Memory required for data: 326800
I0328 17:17:10.984086  1564 layer_factory.hpp:77] Creating layer relu2
I0328 17:17:10.984098  1564 net.cpp:106] Creating Layer relu2
I0328 17:17:10.984118  1564 net.cpp:454] relu2 <- ip2
I0328 17:17:10.984130  1564 net.cpp:397] relu2 -> ip2 (in-place)
I0328 17:17:10.984722  1564 net.cpp:150] Setting up relu2
I0328 17:17:10.984737  1564 net.cpp:157] Top shape: 100 10 (1000)
I0328 17:17:10.984741  1564 net.cpp:165] Memory required for data: 330800
I0328 17:17:10.984745  1564 layer_factory.hpp:77] Creating layer ip3
I0328 17:17:10.984758  1564 net.cpp:106] Creating Layer ip3
I0328 17:17:10.984761  1564 net.cpp:454] ip3 <- ip2
I0328 17:17:10.984766  1564 net.cpp:411] ip3 -> ip3
I0328 17:17:10.984866  1564 net.cpp:150] Setting up ip3
I0328 17:17:10.984875  1564 net.cpp:157] Top shape: 100 10 (1000)
I0328 17:17:10.984879  1564 net.cpp:165] Memory required for data: 334800
I0328 17:17:10.984886  1564 layer_factory.hpp:77] Creating layer relu3
I0328 17:17:10.984891  1564 net.cpp:106] Creating Layer relu3
I0328 17:17:10.984894  1564 net.cpp:454] relu3 <- ip3
I0328 17:17:10.984905  1564 net.cpp:397] relu3 -> ip3 (in-place)
I0328 17:17:10.985730  1564 net.cpp:150] Setting up relu3
I0328 17:17:10.985743  1564 net.cpp:157] Top shape: 100 10 (1000)
I0328 17:17:10.985749  1564 net.cpp:165] Memory required for data: 338800
I0328 17:17:10.985751  1564 layer_factory.hpp:77] Creating layer ip4
I0328 17:17:10.985759  1564 net.cpp:106] Creating Layer ip4
I0328 17:17:10.985765  1564 net.cpp:454] ip4 <- ip3
I0328 17:17:10.985772  1564 net.cpp:411] ip4 -> ip4
I0328 17:17:10.985863  1564 net.cpp:150] Setting up ip4
I0328 17:17:10.985872  1564 net.cpp:157] Top shape: 100 10 (1000)
I0328 17:17:10.985875  1564 net.cpp:165] Memory required for data: 342800
I0328 17:17:10.985889  1564 layer_factory.hpp:77] Creating layer ip4_ip4_0_split
I0328 17:17:10.985894  1564 net.cpp:106] Creating Layer ip4_ip4_0_split
I0328 17:17:10.985901  1564 net.cpp:454] ip4_ip4_0_split <- ip4
I0328 17:17:10.985905  1564 net.cpp:411] ip4_ip4_0_split -> ip4_ip4_0_split_0
I0328 17:17:10.985913  1564 net.cpp:411] ip4_ip4_0_split -> ip4_ip4_0_split_1
I0328 17:17:10.985960  1564 net.cpp:150] Setting up ip4_ip4_0_split
I0328 17:17:10.985971  1564 net.cpp:157] Top shape: 100 10 (1000)
I0328 17:17:10.985978  1564 net.cpp:157] Top shape: 100 10 (1000)
I0328 17:17:10.985998  1564 net.cpp:165] Memory required for data: 350800
I0328 17:17:10.986006  1564 layer_factory.hpp:77] Creating layer accuracy
I0328 17:17:10.986016  1564 net.cpp:106] Creating Layer accuracy
I0328 17:17:10.986026  1564 net.cpp:454] accuracy <- ip4_ip4_0_split_0
I0328 17:17:10.986033  1564 net.cpp:454] accuracy <- label_mnist_1_split_0
I0328 17:17:10.986042  1564 net.cpp:411] accuracy -> accuracy
…
