…
I0328 17:14:58.535209  1497 net.cpp:322] The NetState phase (0) differed from the phase (1) specified by a rule in layer mnist
I0328 17:14:58.535225  1497 net.cpp:322] The NetState phase (0) differed from the phase (1) specified by a rule in layer accuracy
I0328 17:14:58.535287  1497 net.cpp:49] Initializing net from parameters: 
name: "MLP"
state {
  phase: TRAIN
}
layer {
  name: "mnist"
  type: "Data"
  top: "data"
  top: "label"
  include {
    phase: TRAIN
  }
  transform_param {
    scale: 0.00390625
  }
  data_param {
    source: "examples/mnist/mnist_train_lmdb"
    batch_size: 64
    backend: LMDB
  }
}
layer {
  name: "ip1"
  type: "InnerProduct"
  bottom: "data"
  top: "ip1"
  param {
    lr_mult: 1
  }
  param {
    lr_mult: 2
  }
  inner_product_param {
    num_output: 10
    weight_filler {
      type: "xavier"
    }
    bias_filler {
      type: "constant"
    }
  }
}
layer {
  name: "relu1"
  type: "ReLU"
  bottom: "ip1"
  top: "ip1"
}
layer {
  name: "ip2"
  type: "InnerProduct"
  bottom: "ip1"
  top: "ip2"
  param {
    lr_mult: 1
  }
  param {
    lr_mult: 2
  }
  inner_product_param {
    num_output: 512
    weight_filler {
      type: "xavier"
    }
    bias_filler {
      type: "constant"
    }
  }
}
layer {
  name: "relu2"
  type: "ReLU"
  bottom: "ip2"
  top: "ip2"
}
layer {
  name: "ip3"
  type: "InnerProduct"
  bottom: "ip2"
  top: "ip3"
  param {
    lr_mult: 1
  }
  param {
    lr_mult: 2
  }
  inner_product_param {
    num_output: 256
    weight_filler {
      type: "xavier"
    }
    bias_filler {
      type: "constant"
    }
  }
}
layer {
  name: "relu3"
  type: "ReLU"
  bottom: "ip3"
  top: "ip3"
}
layer {
  name: "ip4"
  type: "InnerProduct"
  bottom: "ip3"
  top: "ip4"
  param {
    lr_mult: 1
  }
  param {
    lr_mult: 2
  }
  inner_product_param {
    num_output: 10
    weight_filler {
      type: "xavier"
    }
    bias_filler {
      type: "constant"
    }
  }
}
layer {
  name: "loss"
  type: "SoftmaxWithLoss"
  bottom: "ip4"
  bottom: "label"
  top: "loss"
}
I0328 17:14:58.535342  1497 layer_factory.hpp:77] Creating layer mnist
I0328 17:14:58.535787  1497 net.cpp:106] Creating Layer mnist
I0328 17:14:58.535800  1497 net.cpp:411] mnist -> data
I0328 17:14:58.535820  1497 net.cpp:411] mnist -> label
I0328 17:14:58.536535  1501 db_lmdb.cpp:38] Opened lmdb examples/mnist/mnist_train_lmdb
I0328 17:14:58.542533  1497 data_layer.cpp:41] output data size: 64,1,28,28
I0328 17:14:58.543247  1497 net.cpp:150] Setting up mnist
I0328 17:14:58.543262  1497 net.cpp:157] Top shape: 64 1 28 28 (50176)
I0328 17:14:58.543267  1497 net.cpp:157] Top shape: 64 (64)
I0328 17:14:58.543270  1497 net.cpp:165] Memory required for data: 200960
I0328 17:14:58.543280  1497 layer_factory.hpp:77] Creating layer ip1
I0328 17:14:58.543290  1497 net.cpp:106] Creating Layer ip1
I0328 17:14:58.543295  1497 net.cpp:454] ip1 <- data
I0328 17:14:58.543306  1497 net.cpp:411] ip1 -> ip1
I0328 17:14:58.543822  1497 net.cpp:150] Setting up ip1
I0328 17:14:58.543833  1497 net.cpp:157] Top shape: 64 10 (640)
I0328 17:14:58.543836  1497 net.cpp:165] Memory required for data: 203520
I0328 17:14:58.543848  1497 layer_factory.hpp:77] Creating layer relu1
I0328 17:14:58.543855  1497 net.cpp:106] Creating Layer relu1
I0328 17:14:58.543859  1497 net.cpp:454] relu1 <- ip1
I0328 17:14:58.543864  1497 net.cpp:397] relu1 -> ip1 (in-place)
I0328 17:14:58.649891  1497 net.cpp:150] Setting up relu1
I0328 17:14:58.649919  1497 net.cpp:157] Top shape: 64 10 (640)
I0328 17:14:58.649922  1497 net.cpp:165] Memory required for data: 206080
I0328 17:14:58.649929  1497 layer_factory.hpp:77] Creating layer ip2
I0328 17:14:58.649958  1497 net.cpp:106] Creating Layer ip2
I0328 17:14:58.649963  1497 net.cpp:454] ip2 <- ip1
I0328 17:14:58.649971  1497 net.cpp:411] ip2 -> ip2
I0328 17:14:58.650460  1497 net.cpp:150] Setting up ip2
I0328 17:14:58.650471  1497 net.cpp:157] Top shape: 64 512 (32768)
I0328 17:14:58.650475  1497 net.cpp:165] Memory required for data: 337152
I0328 17:14:58.650485  1497 layer_factory.hpp:77] Creating layer relu2
I0328 17:14:58.650492  1497 net.cpp:106] Creating Layer relu2
I0328 17:14:58.650496  1497 net.cpp:454] relu2 <- ip2
I0328 17:14:58.650501  1497 net.cpp:397] relu2 -> ip2 (in-place)
I0328 17:14:58.651080  1497 net.cpp:150] Setting up relu2
I0328 17:14:58.651093  1497 net.cpp:157] Top shape: 64 512 (32768)
I0328 17:14:58.651095  1497 net.cpp:165] Memory required for data: 468224
I0328 17:14:58.651099  1497 layer_factory.hpp:77] Creating layer ip3
I0328 17:14:58.651105  1497 net.cpp:106] Creating Layer ip3
I0328 17:14:58.651108  1497 net.cpp:454] ip3 <- ip2
I0328 17:14:58.651113  1497 net.cpp:411] ip3 -> ip3
I0328 17:14:58.652218  1497 net.cpp:150] Setting up ip3
I0328 17:14:58.652230  1497 net.cpp:157] Top shape: 64 256 (16384)
I0328 17:14:58.652233  1497 net.cpp:165] Memory required for data: 533760
I0328 17:14:58.652240  1497 layer_factory.hpp:77] Creating layer relu3
I0328 17:14:58.652246  1497 net.cpp:106] Creating Layer relu3
I0328 17:14:58.652250  1497 net.cpp:454] relu3 <- ip3
I0328 17:14:58.652253  1497 net.cpp:397] relu3 -> ip3 (in-place)
I0328 17:14:58.652753  1497 net.cpp:150] Setting up relu3
I0328 17:14:58.652765  1497 net.cpp:157] Top shape: 64 256 (16384)
I0328 17:14:58.652768  1497 net.cpp:165] Memory required for data: 599296
I0328 17:14:58.652772  1497 layer_factory.hpp:77] Creating layer ip4
I0328 17:14:58.652778  1497 net.cpp:106] Creating Layer ip4
I0328 17:14:58.652781  1497 net.cpp:454] ip4 <- ip3
I0328 17:14:58.652786  1497 net.cpp:411] ip4 -> ip4
I0328 17:14:58.653230  1497 net.cpp:150] Setting up ip4
I0328 17:14:58.653245  1497 net.cpp:157] Top shape: 64 10 (640)
I0328 17:14:58.653249  1497 net.cpp:165] Memory required for data: 601856
I0328 17:14:58.653254  1497 layer_factory.hpp:77] Creating layer loss
I0328 17:14:58.653261  1497 net.cpp:106] Creating Layer loss
I0328 17:14:58.653264  1497 net.cpp:454] loss <- ip4
I0328 17:14:58.653269  1497 net.cpp:454] loss <- label
I0328 17:14:58.653275  1497 net.cpp:411] loss -> loss
I0328 17:14:58.653290  1497 layer_factory.hpp:77] Creating layer loss
…
I0328 17:14:58.654196  1497 solver.cpp:181] Creating test net (#0) specified by net file: examples/mlp/mlp_train_test.prototxt
I0328 17:14:58.654219  1497 net.cpp:322] The NetState phase (1) differed from the phase (0) specified by a rule in layer mnist
I0328 17:14:58.654289  1497 net.cpp:49] Initializing net from parameters: 
name: "MLP"
state {
  phase: TEST
}
layer {
  name: "mnist"
  type: "Data"
  top: "data"
  top: "label"
  include {
    phase: TEST
  }
  transform_param {
    scale: 0.00390625
  }
  data_param {
    source: "examples/mnist/mnist_test_lmdb"
    batch_size: 100
    backend: LMDB
  }
}
layer {
  name: "ip1"
  type: "InnerProduct"
  bottom: "data"
  top: "ip1"
  param {
    lr_mult: 1
  }
  param {
    lr_mult: 2
  }
  inner_product_param {
    num_output: 10
    weight_filler {
      type: "xavier"
    }
    bias_filler {
      type: "constant"
    }
  }
}
layer {
  name: "relu1"
  type: "ReLU"
  bottom: "ip1"
  top: "ip1"
}
layer {
  name: "ip2"
  type: "InnerProduct"
  bottom: "ip1"
  top: "ip2"
  param {
    lr_mult: 1
  }
  param {
    lr_mult: 2
  }
  inner_product_param {
    num_output: 512
    weight_filler {
      type: "xavier"
    }
    bias_filler {
      type: "constant"
    }
  }
}
layer {
  name: "relu2"
  type: "ReLU"
  bottom: "ip2"
  top: "ip2"
}
layer {
  name: "ip3"
  type: "InnerProduct"
  bottom: "ip2"
  top: "ip3"
  param {
    lr_mult: 1
  }
  param {
    lr_mult: 2
  }
  inner_product_param {
    num_output: 256
    weight_filler {
      type: "xavier"
    }
    bias_filler {
      type: "constant"
    }
  }
}
layer {
  name: "relu3"
  type: "ReLU"
  bottom: "ip3"
  top: "ip3"
}
layer {
  name: "ip4"
  type: "InnerProduct"
  bottom: "ip3"
  top: "ip4"
  param {
    lr_mult: 1
  }
  param {
    lr_mult: 2
  }
  inner_product_param {
    num_output: 10
    weight_filler {
      type: "xavier"
    }
    bias_filler {
      type: "constant"
    }
  }
}
layer {
  name: "accuracy"
  type: "Accuracy"
  bottom: "ip4"
  bottom: "label"
  top: "accuracy"
  include {
    phase: TEST
  }
}
layer {
  name: "loss"
  type: "SoftmaxWithLoss"
  bottom: "ip4"
  bottom: "label"
  top: "loss"
}
I0328 17:14:58.654361  1497 layer_factory.hpp:77] Creating layer mnist
I0328 17:14:58.654461  1497 net.cpp:106] Creating Layer mnist
I0328 17:14:58.654470  1497 net.cpp:411] mnist -> data
I0328 17:14:58.654477  1497 net.cpp:411] mnist -> label
I0328 17:14:58.655689  1503 db_lmdb.cpp:38] Opened lmdb examples/mnist/mnist_test_lmdb
I0328 17:14:58.655815  1497 data_layer.cpp:41] output data size: 100,1,28,28
I0328 17:14:58.656616  1497 net.cpp:150] Setting up mnist
I0328 17:14:58.656630  1497 net.cpp:157] Top shape: 100 1 28 28 (78400)
I0328 17:14:58.656633  1497 net.cpp:157] Top shape: 100 (100)
I0328 17:14:58.656636  1497 net.cpp:165] Memory required for data: 314000
I0328 17:14:58.656640  1497 layer_factory.hpp:77] Creating layer label_mnist_1_split
I0328 17:14:58.656646  1497 net.cpp:106] Creating Layer label_mnist_1_split
I0328 17:14:58.656648  1497 net.cpp:454] label_mnist_1_split <- label
I0328 17:14:58.656652  1497 net.cpp:411] label_mnist_1_split -> label_mnist_1_split_0
I0328 17:14:58.656659  1497 net.cpp:411] label_mnist_1_split -> label_mnist_1_split_1
I0328 17:14:58.656697  1497 net.cpp:150] Setting up label_mnist_1_split
I0328 17:14:58.656703  1497 net.cpp:157] Top shape: 100 (100)
I0328 17:14:58.656707  1497 net.cpp:157] Top shape: 100 (100)
I0328 17:14:58.656708  1497 net.cpp:165] Memory required for data: 314800
I0328 17:14:58.656711  1497 layer_factory.hpp:77] Creating layer ip1
I0328 17:14:58.656718  1497 net.cpp:106] Creating Layer ip1
I0328 17:14:58.656721  1497 net.cpp:454] ip1 <- data
I0328 17:14:58.656725  1497 net.cpp:411] ip1 -> ip1
I0328 17:14:58.656853  1497 net.cpp:150] Setting up ip1
I0328 17:14:58.656862  1497 net.cpp:157] Top shape: 100 10 (1000)
I0328 17:14:58.656865  1497 net.cpp:165] Memory required for data: 318800
I0328 17:14:58.656873  1497 layer_factory.hpp:77] Creating layer relu1
I0328 17:14:58.656878  1497 net.cpp:106] Creating Layer relu1
I0328 17:14:58.656882  1497 net.cpp:454] relu1 <- ip1
I0328 17:14:58.656885  1497 net.cpp:397] relu1 -> ip1 (in-place)
I0328 17:14:58.657560  1497 net.cpp:150] Setting up relu1
I0328 17:14:58.657577  1497 net.cpp:157] Top shape: 100 10 (1000)
I0328 17:14:58.657580  1497 net.cpp:165] Memory required for data: 322800
I0328 17:14:58.657583  1497 layer_factory.hpp:77] Creating layer ip2
I0328 17:14:58.657591  1497 net.cpp:106] Creating Layer ip2
I0328 17:14:58.657594  1497 net.cpp:454] ip2 <- ip1
I0328 17:14:58.657605  1497 net.cpp:411] ip2 -> ip2
I0328 17:14:58.657735  1497 net.cpp:150] Setting up ip2
I0328 17:14:58.657744  1497 net.cpp:157] Top shape: 100 512 (51200)
I0328 17:14:58.657749  1497 net.cpp:165] Memory required for data: 527600
I0328 17:14:58.657758  1497 layer_factory.hpp:77] Creating layer relu2
I0328 17:14:58.657764  1497 net.cpp:106] Creating Layer relu2
I0328 17:14:58.657768  1497 net.cpp:454] relu2 <- ip2
I0328 17:14:58.657773  1497 net.cpp:397] relu2 -> ip2 (in-place)
I0328 17:14:58.658375  1497 net.cpp:150] Setting up relu2
I0328 17:14:58.658387  1497 net.cpp:157] Top shape: 100 512 (51200)
I0328 17:14:58.658390  1497 net.cpp:165] Memory required for data: 732400
I0328 17:14:58.658393  1497 layer_factory.hpp:77] Creating layer ip3
I0328 17:14:58.658401  1497 net.cpp:106] Creating Layer ip3
I0328 17:14:58.658403  1497 net.cpp:454] ip3 <- ip2
I0328 17:14:58.658408  1497 net.cpp:411] ip3 -> ip3
I0328 17:14:58.659545  1497 net.cpp:150] Setting up ip3
I0328 17:14:58.659556  1497 net.cpp:157] Top shape: 100 256 (25600)
I0328 17:14:58.659559  1497 net.cpp:165] Memory required for data: 834800
I0328 17:14:58.659567  1497 layer_factory.hpp:77] Creating layer relu3
I0328 17:14:58.659572  1497 net.cpp:106] Creating Layer relu3
I0328 17:14:58.659576  1497 net.cpp:454] relu3 <- ip3
I0328 17:14:58.659580  1497 net.cpp:397] relu3 -> ip3 (in-place)
I0328 17:14:58.660148  1497 net.cpp:150] Setting up relu3
I0328 17:14:58.660161  1497 net.cpp:157] Top shape: 100 256 (25600)
I0328 17:14:58.660164  1497 net.cpp:165] Memory required for data: 937200
I0328 17:14:58.660167  1497 layer_factory.hpp:77] Creating layer ip4
I0328 17:14:58.660176  1497 net.cpp:106] Creating Layer ip4
I0328 17:14:58.660179  1497 net.cpp:454] ip4 <- ip3
I0328 17:14:58.660184  1497 net.cpp:411] ip4 -> ip4
I0328 17:14:58.660284  1497 net.cpp:150] Setting up ip4
I0328 17:14:58.660291  1497 net.cpp:157] Top shape: 100 10 (1000)
I0328 17:14:58.660295  1497 net.cpp:165] Memory required for data: 941200
I0328 17:14:58.660300  1497 layer_factory.hpp:77] Creating layer ip4_ip4_0_split
I0328 17:14:58.660305  1497 net.cpp:106] Creating Layer ip4_ip4_0_split
I0328 17:14:58.660306  1497 net.cpp:454] ip4_ip4_0_split <- ip4
I0328 17:14:58.660312  1497 net.cpp:411] ip4_ip4_0_split -> ip4_ip4_0_split_0
I0328 17:14:58.660318  1497 net.cpp:411] ip4_ip4_0_split -> ip4_ip4_0_split_1
I0328 17:14:58.660346  1497 net.cpp:150] Setting up ip4_ip4_0_split
I0328 17:14:58.660354  1497 net.cpp:157] Top shape: 100 10 (1000)
I0328 17:14:58.660358  1497 net.cpp:157] Top shape: 100 10 (1000)
I0328 17:14:58.660361  1497 net.cpp:165] Memory required for data: 949200
I0328 17:14:58.660363  1497 layer_factory.hpp:77] Creating layer accuracy
I0328 17:14:58.660368  1497 net.cpp:106] Creating Layer accuracy
I0328 17:14:58.660370  1497 net.cpp:454] accuracy <- ip4_ip4_0_split_0
I0328 17:14:58.660374  1497 net.cpp:454] accuracy <- label_mnist_1_split_0
I0328 17:14:58.660378  1497 net.cpp:411] accuracy -> accuracy
…
