…
I0328 17:19:58.351114  1756 net.cpp:322] The NetState phase (0) differed from the phase (1) specified by a rule in layer MLP
I0328 17:19:58.351135  1756 net.cpp:322] The NetState phase (0) differed from the phase (1) specified by a rule in layer accuracy
I0328 17:19:58.351207  1756 net.cpp:49] Initializing net from parameters: 
name: "MLP"
state {
  phase: TRAIN
}
layer {
  name: "MLP"
  type: "Data"
  top: "data"
  top: "label"
  include {
    phase: TRAIN
  }
  transform_param {
    scale: 0.00390625
  }
  data_param {
    source: "examples/mnist/mnist_train_lmdb"
    batch_size: 64
    backend: LMDB
  }
}
layer {
  name: "ip1"
  type: "InnerProduct"
  bottom: "data"
  top: "ip1"
  param {
    lr_mult: 1
  }
  param {
    lr_mult: 2
  }
  inner_product_param {
    num_output: 1024
    weight_filler {
      type: "xavier"
    }
    bias_filler {
      type: "constant"
    }
  }
}
layer {
  name: "relu1"
  type: "ReLU"
  bottom: "ip1"
  top: "ip1"
}
layer {
  name: "ip2"
  type: "InnerProduct"
  bottom: "ip1"
  top: "ip2"
  param {
    lr_mult: 1
  }
  param {
    lr_mult: 2
  }
  inner_product_param {
    num_output: 512
    weight_filler {
      type: "xavier"
    }
    bias_filler {
      type: "constant"
    }
  }
}
layer {
  name: "relu2"
  type: "ReLU"
  bottom: "ip2"
  top: "ip2"
}
layer {
  name: "ip3"
  type: "InnerProduct"
  bottom: "ip2"
  top: "ip3"
  param {
    lr_mult: 1
  }
  param {
    lr_mult: 2
  }
  inner_product_param {
    num_output: 256
    weight_filler {
      type: "xavier"
    }
    bias_filler {
      type: "constant"
    }
  }
}
layer {
  name: "relu3"
  type: "ReLU"
  bottom: "ip3"
  top: "ip3"
}
layer {
  name: "ip4"
  type: "InnerProduct"
  bottom: "ip3"
  top: "ip4"
  param {
    lr_mult: 1
  }
  param {
    lr_mult: 2
  }
  inner_product_param {
    num_output: 10
    weight_filler {
      type: "xavier"
    }
    bias_filler {
      type: "constant"
    }
  }
}
layer {
  name: "loss"
  type: "SoftmaxWithLoss"
  bottom: "ip4"
  bottom: "label"
  top: "loss"
}
I0328 17:19:58.351290  1756 layer_factory.hpp:77] Creating layer MLP
I0328 17:19:58.351804  1756 net.cpp:106] Creating Layer MLP
I0328 17:19:58.351819  1756 net.cpp:411] MLP -> data
I0328 17:19:58.351855  1756 net.cpp:411] MLP -> label
I0328 17:19:58.352654  1760 db_lmdb.cpp:38] Opened lmdb examples/mnist/mnist_train_lmdb
I0328 17:19:58.389705  1756 data_layer.cpp:41] output data size: 64,1,28,28
I0328 17:19:58.396029  1756 net.cpp:150] Setting up MLP
I0328 17:19:58.396052  1756 net.cpp:157] Top shape: 64 1 28 28 (50176)
I0328 17:19:58.396062  1756 net.cpp:157] Top shape: 64 (64)
I0328 17:19:58.396066  1756 net.cpp:165] Memory required for data: 200960
I0328 17:19:58.396075  1756 layer_factory.hpp:77] Creating layer ip1
I0328 17:19:58.396092  1756 net.cpp:106] Creating Layer ip1
I0328 17:19:58.396097  1756 net.cpp:454] ip1 <- data
I0328 17:19:58.396111  1756 net.cpp:411] ip1 -> ip1
I0328 17:19:58.401904  1756 net.cpp:150] Setting up ip1
I0328 17:19:58.401931  1756 net.cpp:157] Top shape: 64 1024 (65536)
I0328 17:19:58.401937  1756 net.cpp:165] Memory required for data: 463104
I0328 17:19:58.401959  1756 layer_factory.hpp:77] Creating layer relu1
I0328 17:19:58.401986  1756 net.cpp:106] Creating Layer relu1
I0328 17:19:58.401994  1756 net.cpp:454] relu1 <- ip1
I0328 17:19:58.402005  1756 net.cpp:397] relu1 -> ip1 (in-place)
I0328 17:19:58.569161  1756 net.cpp:150] Setting up relu1
I0328 17:19:58.569192  1756 net.cpp:157] Top shape: 64 1024 (65536)
I0328 17:19:58.569200  1756 net.cpp:165] Memory required for data: 725248
I0328 17:19:58.569206  1756 layer_factory.hpp:77] Creating layer ip2
I0328 17:19:58.569247  1756 net.cpp:106] Creating Layer ip2
I0328 17:19:58.569253  1756 net.cpp:454] ip2 <- ip1
I0328 17:19:58.569262  1756 net.cpp:411] ip2 -> ip2
I0328 17:19:58.572778  1756 net.cpp:150] Setting up ip2
I0328 17:19:58.572793  1756 net.cpp:157] Top shape: 64 512 (32768)
I0328 17:19:58.572796  1756 net.cpp:165] Memory required for data: 856320
I0328 17:19:58.572806  1756 layer_factory.hpp:77] Creating layer relu2
I0328 17:19:58.572814  1756 net.cpp:106] Creating Layer relu2
I0328 17:19:58.572818  1756 net.cpp:454] relu2 <- ip2
I0328 17:19:58.572824  1756 net.cpp:397] relu2 -> ip2 (in-place)
I0328 17:19:58.573437  1756 net.cpp:150] Setting up relu2
I0328 17:19:58.573451  1756 net.cpp:157] Top shape: 64 512 (32768)
I0328 17:19:58.573456  1756 net.cpp:165] Memory required for data: 987392
I0328 17:19:58.573459  1756 layer_factory.hpp:77] Creating layer ip3
I0328 17:19:58.573467  1756 net.cpp:106] Creating Layer ip3
I0328 17:19:58.573469  1756 net.cpp:454] ip3 <- ip2
I0328 17:19:58.573474  1756 net.cpp:411] ip3 -> ip3
I0328 17:19:58.574604  1756 net.cpp:150] Setting up ip3
I0328 17:19:58.574616  1756 net.cpp:157] Top shape: 64 256 (16384)
I0328 17:19:58.574620  1756 net.cpp:165] Memory required for data: 1052928
I0328 17:19:58.574628  1756 layer_factory.hpp:77] Creating layer relu3
I0328 17:19:58.574633  1756 net.cpp:106] Creating Layer relu3
I0328 17:19:58.574637  1756 net.cpp:454] relu3 <- ip3
I0328 17:19:58.574641  1756 net.cpp:397] relu3 -> ip3 (in-place)
I0328 17:19:58.575165  1756 net.cpp:150] Setting up relu3
I0328 17:19:58.575178  1756 net.cpp:157] Top shape: 64 256 (16384)
I0328 17:19:58.575181  1756 net.cpp:165] Memory required for data: 1118464
I0328 17:19:58.575184  1756 layer_factory.hpp:77] Creating layer ip4
I0328 17:19:58.575191  1756 net.cpp:106] Creating Layer ip4
I0328 17:19:58.575194  1756 net.cpp:454] ip4 <- ip3
I0328 17:19:58.575201  1756 net.cpp:411] ip4 -> ip4
I0328 17:19:58.575639  1756 net.cpp:150] Setting up ip4
I0328 17:19:58.575652  1756 net.cpp:157] Top shape: 64 10 (640)
I0328 17:19:58.575656  1756 net.cpp:165] Memory required for data: 1121024
I0328 17:19:58.575662  1756 layer_factory.hpp:77] Creating layer loss
I0328 17:19:58.575680  1756 net.cpp:106] Creating Layer loss
I0328 17:19:58.575683  1756 net.cpp:454] loss <- ip4
I0328 17:19:58.575687  1756 net.cpp:454] loss <- label
I0328 17:19:58.575693  1756 net.cpp:411] loss -> loss
I0328 17:19:58.575703  1756 layer_factory.hpp:77] Creating layer loss
…
I0328 17:19:58.576670  1756 solver.cpp:181] Creating test net (#0) specified by net file: examples/mlp/mlp_train_test.prototxt
I0328 17:19:58.576695  1756 net.cpp:322] The NetState phase (1) differed from the phase (0) specified by a rule in layer MLP
I0328 17:19:58.576771  1756 net.cpp:49] Initializing net from parameters: 
name: "MLP"
state {
  phase: TEST
}
layer {
  name: "MLP"
  type: "Data"
  top: "data"
  top: "label"
  include {
    phase: TEST
  }
  transform_param {
    scale: 0.00390625
  }
  data_param {
    source: "examples/mnist/mnist_test_lmdb"
    batch_size: 100
    backend: LMDB
  }
}
layer {
  name: "ip1"
  type: "InnerProduct"
  bottom: "data"
  top: "ip1"
  param {
    lr_mult: 1
  }
  param {
    lr_mult: 2
  }
  inner_product_param {
    num_output: 1024
    weight_filler {
      type: "xavier"
    }
    bias_filler {
      type: "constant"
    }
  }
}
layer {
  name: "relu1"
  type: "ReLU"
  bottom: "ip1"
  top: "ip1"
}
layer {
  name: "ip2"
  type: "InnerProduct"
  bottom: "ip1"
  top: "ip2"
  param {
    lr_mult: 1
  }
  param {
    lr_mult: 2
  }
  inner_product_param {
    num_output: 512
    weight_filler {
      type: "xavier"
    }
    bias_filler {
      type: "constant"
    }
  }
}
layer {
  name: "relu2"
  type: "ReLU"
  bottom: "ip2"
  top: "ip2"
}
layer {
  name: "ip3"
  type: "InnerProduct"
  bottom: "ip2"
  top: "ip3"
  param {
    lr_mult: 1
  }
  param {
    lr_mult: 2
  }
  inner_product_param {
    num_output: 256
    weight_filler {
      type: "xavier"
    }
    bias_filler {
      type: "constant"
    }
  }
}
layer {
  name: "relu3"
  type: "ReLU"
  bottom: "ip3"
  top: "ip3"
}
layer {
  name: "ip4"
  type: "InnerProduct"
  bottom: "ip3"
  top: "ip4"
  param {
    lr_mult: 1
  }
  param {
    lr_mult: 2
  }
  inner_product_param {
    num_output: 10
    weight_filler {
      type: "xavier"
    }
    bias_filler {
      type: "constant"
    }
  }
}
layer {
  name: "accuracy"
  type: "Accuracy"
  bottom: "ip4"
  bottom: "label"
  top: "accuracy"
  include {
    phase: TEST
  }
}
layer {
  name: "loss"
  type: "SoftmaxWithLoss"
  bottom: "ip4"
  bottom: "label"
  top: "loss"
}
I0328 17:19:58.576848  1756 layer_factory.hpp:77] Creating layer MLP
I0328 17:19:58.576947  1756 net.cpp:106] Creating Layer MLP
I0328 17:19:58.576957  1756 net.cpp:411] MLP -> data
I0328 17:19:58.576966  1756 net.cpp:411] MLP -> label
I0328 17:19:58.578407  1762 db_lmdb.cpp:38] Opened lmdb examples/mnist/mnist_test_lmdb
I0328 17:19:58.578546  1756 data_layer.cpp:41] output data size: 100,1,28,28
I0328 17:19:58.582247  1756 net.cpp:150] Setting up MLP
I0328 17:19:58.582264  1756 net.cpp:157] Top shape: 100 1 28 28 (78400)
I0328 17:19:58.582269  1756 net.cpp:157] Top shape: 100 (100)
I0328 17:19:58.582273  1756 net.cpp:165] Memory required for data: 314000
I0328 17:19:58.582278  1756 layer_factory.hpp:77] Creating layer label_MLP_1_split
I0328 17:19:58.582285  1756 net.cpp:106] Creating Layer label_MLP_1_split
I0328 17:19:58.582289  1756 net.cpp:454] label_MLP_1_split <- label
I0328 17:19:58.582295  1756 net.cpp:411] label_MLP_1_split -> label_MLP_1_split_0
I0328 17:19:58.582304  1756 net.cpp:411] label_MLP_1_split -> label_MLP_1_split_1
I0328 17:19:58.582412  1756 net.cpp:150] Setting up label_MLP_1_split
I0328 17:19:58.582423  1756 net.cpp:157] Top shape: 100 (100)
I0328 17:19:58.582427  1756 net.cpp:157] Top shape: 100 (100)
I0328 17:19:58.582429  1756 net.cpp:165] Memory required for data: 314800
I0328 17:19:58.582433  1756 layer_factory.hpp:77] Creating layer ip1
I0328 17:19:58.582442  1756 net.cpp:106] Creating Layer ip1
I0328 17:19:58.582448  1756 net.cpp:454] ip1 <- data
I0328 17:19:58.582458  1756 net.cpp:411] ip1 -> ip1
I0328 17:19:58.587718  1756 net.cpp:150] Setting up ip1
I0328 17:19:58.587736  1756 net.cpp:157] Top shape: 100 1024 (102400)
I0328 17:19:58.587743  1756 net.cpp:165] Memory required for data: 724400
I0328 17:19:58.587759  1756 layer_factory.hpp:77] Creating layer relu1
I0328 17:19:58.587771  1756 net.cpp:106] Creating Layer relu1
I0328 17:19:58.587784  1756 net.cpp:454] relu1 <- ip1
I0328 17:19:58.587805  1756 net.cpp:397] relu1 -> ip1 (in-place)
I0328 17:19:58.588439  1756 net.cpp:150] Setting up relu1
I0328 17:19:58.588464  1756 net.cpp:157] Top shape: 100 1024 (102400)
I0328 17:19:58.588476  1756 net.cpp:165] Memory required for data: 1134000
I0328 17:19:58.588484  1756 layer_factory.hpp:77] Creating layer ip2
I0328 17:19:58.588497  1756 net.cpp:106] Creating Layer ip2
I0328 17:19:58.588512  1756 net.cpp:454] ip2 <- ip1
I0328 17:19:58.588523  1756 net.cpp:411] ip2 -> ip2
I0328 17:19:58.592061  1756 net.cpp:150] Setting up ip2
I0328 17:19:58.592090  1756 net.cpp:157] Top shape: 100 512 (51200)
I0328 17:19:58.592097  1756 net.cpp:165] Memory required for data: 1338800
I0328 17:19:58.592111  1756 layer_factory.hpp:77] Creating layer relu2
I0328 17:19:58.592120  1756 net.cpp:106] Creating Layer relu2
I0328 17:19:58.592138  1756 net.cpp:454] relu2 <- ip2
I0328 17:19:58.592147  1756 net.cpp:397] relu2 -> ip2 (in-place)
I0328 17:19:58.592710  1756 net.cpp:150] Setting up relu2
I0328 17:19:58.592726  1756 net.cpp:157] Top shape: 100 512 (51200)
I0328 17:19:58.592732  1756 net.cpp:165] Memory required for data: 1543600
I0328 17:19:58.592738  1756 layer_factory.hpp:77] Creating layer ip3
I0328 17:19:58.592748  1756 net.cpp:106] Creating Layer ip3
I0328 17:19:58.592758  1756 net.cpp:454] ip3 <- ip2
I0328 17:19:58.592772  1756 net.cpp:411] ip3 -> ip3
I0328 17:19:58.593911  1756 net.cpp:150] Setting up ip3
I0328 17:19:58.593925  1756 net.cpp:157] Top shape: 100 256 (25600)
I0328 17:19:58.593932  1756 net.cpp:165] Memory required for data: 1646000
I0328 17:19:58.593945  1756 layer_factory.hpp:77] Creating layer relu3
I0328 17:19:58.593955  1756 net.cpp:106] Creating Layer relu3
I0328 17:19:58.593971  1756 net.cpp:454] relu3 <- ip3
I0328 17:19:58.593981  1756 net.cpp:397] relu3 -> ip3 (in-place)
I0328 17:19:58.594604  1756 net.cpp:150] Setting up relu3
I0328 17:19:58.594619  1756 net.cpp:157] Top shape: 100 256 (25600)
I0328 17:19:58.594626  1756 net.cpp:165] Memory required for data: 1748400
I0328 17:19:58.594632  1756 layer_factory.hpp:77] Creating layer ip4
I0328 17:19:58.594646  1756 net.cpp:106] Creating Layer ip4
I0328 17:19:58.594658  1756 net.cpp:454] ip4 <- ip3
I0328 17:19:58.594671  1756 net.cpp:411] ip4 -> ip4
I0328 17:19:58.594792  1756 net.cpp:150] Setting up ip4
I0328 17:19:58.594805  1756 net.cpp:157] Top shape: 100 10 (1000)
I0328 17:19:58.594810  1756 net.cpp:165] Memory required for data: 1752400
I0328 17:19:58.594820  1756 layer_factory.hpp:77] Creating layer ip4_ip4_0_split
I0328 17:19:58.594831  1756 net.cpp:106] Creating Layer ip4_ip4_0_split
I0328 17:19:58.594838  1756 net.cpp:454] ip4_ip4_0_split <- ip4
I0328 17:19:58.594851  1756 net.cpp:411] ip4_ip4_0_split -> ip4_ip4_0_split_0
I0328 17:19:58.594864  1756 net.cpp:411] ip4_ip4_0_split -> ip4_ip4_0_split_1
I0328 17:19:58.594907  1756 net.cpp:150] Setting up ip4_ip4_0_split
I0328 17:19:58.594916  1756 net.cpp:157] Top shape: 100 10 (1000)
I0328 17:19:58.594923  1756 net.cpp:157] Top shape: 100 10 (1000)
I0328 17:19:58.594928  1756 net.cpp:165] Memory required for data: 1760400
I0328 17:19:58.594933  1756 layer_factory.hpp:77] Creating layer accuracy
I0328 17:19:58.594943  1756 net.cpp:106] Creating Layer accuracy
I0328 17:19:58.594960  1756 net.cpp:454] accuracy <- ip4_ip4_0_split_0
I0328 17:19:58.594970  1756 net.cpp:454] accuracy <- label_MLP_1_split_0
I0328 17:19:58.594981  1756 net.cpp:411] accuracy -> accuracy
…
