…
I0408 13:17:02.187291 31727 net.cpp:322] The NetState phase (0) differed from the phase (1) specified by a rule in layer mnist
I0408 13:17:02.187324 31727 net.cpp:322] The NetState phase (0) differed from the phase (1) specified by a rule in layer accuracy
I0408 13:17:02.187445 31727 net.cpp:49] Initializing net from parameters: 
name: "MLP"
state {
  phase: TRAIN
}
layer {
  name: "mnist"
  type: "Data"
  top: "data"
  top: "label"
  include {
    phase: TRAIN
  }
  transform_param {
    scale: 0.00390625
  }
  data_param {
    source: "examples/mnist/mnist_train_lmdb"
    batch_size: 100
    backend: LMDB
  }
}
layer {
  name: "ip1"
  type: "InnerProduct"
  bottom: "data"
  top: "ip1"
  param {
    lr_mult: 1
  }
  param {
    lr_mult: 2
  }
  inner_product_param {
    num_output: 1024
    weight_filler {
      type: "xavier"
    }
  }
}
layer {
  name: "tanh1"
  type: "TanH"
  bottom: "ip1"
  top: "ip1"
}
layer {
  name: "ip1-2"
  type: "InnerProduct"
  bottom: "ip1"
  top: "ip1-2"
  param {
    lr_mult: 1
  }
  param {
    lr_mult: 2
  }
  inner_product_param {
    num_output: 10
    weight_filler {
      type: "xavier"
    }
  }
}
layer {
  name: "tanh5"
  type: "TanH"
  bottom: "ip1-2"
  top: "ip1-2"
}
layer {
  name: "ip2"
  type: "InnerProduct"
  bottom: "ip1-2"
  top: "ip2"
  param {
    lr_mult: 1
  }
  param {
    lr_mult: 2
  }
  inner_product_param {
    num_output: 512
    weight_filler {
      type: "xavier"
    }
  }
}
layer {
  name: "tanh2"
  type: "TanH"
  bottom: "ip2"
  top: "ip2"
}
layer {
  name: "ip3"
  type: "InnerProduct"
  bottom: "ip2"
  top: "ip3"
  param {
    lr_mult: 1
  }
  param {
    lr_mult: 2
  }
  inner_product_param {
    num_output: 256
    weight_filler {
      type: "xavier"
    }
  }
}
layer {
  name: "tanh3"
  type: "TanH"
  bottom: "ip3"
  top: "ip3"
}
layer {
  name: "ip4"
  type: "InnerProduct"
  bottom: "ip3"
  top: "ip4"
  param {
    lr_mult: 1
  }
  param {
    lr_mult: 2
  }
  inner_product_param {
    num_output: 10
    weight_filler {
      type: "xavier"
    }
  }
}
layer {
  name: "loss"
  type: "SoftmaxWithLoss"
  bottom: "ip4"
  bottom: "label"
  top: "loss"
}
I0408 13:17:02.187557 31727 layer_factory.hpp:77] Creating layer mnist
I0408 13:17:02.214085 31727 net.cpp:106] Creating Layer mnist
I0408 13:17:02.214133 31727 net.cpp:411] mnist -> data
I0408 13:17:02.214190 31727 net.cpp:411] mnist -> label
I0408 13:17:02.235210 31734 db_lmdb.cpp:38] Opened lmdb examples/mnist/mnist_train_lmdb
I0408 13:17:02.324555 31727 data_layer.cpp:41] output data size: 100,1,28,28
I0408 13:17:02.326793 31727 net.cpp:150] Setting up mnist
I0408 13:17:02.326844 31727 net.cpp:157] Top shape: 100 1 28 28 (78400)
I0408 13:17:02.326851 31727 net.cpp:157] Top shape: 100 (100)
I0408 13:17:02.326855 31727 net.cpp:165] Memory required for data: 314000
I0408 13:17:02.326879 31727 layer_factory.hpp:77] Creating layer ip1
I0408 13:17:02.326913 31727 net.cpp:106] Creating Layer ip1
I0408 13:17:02.326933 31727 net.cpp:454] ip1 <- data
I0408 13:17:02.326959 31727 net.cpp:411] ip1 -> ip1
I0408 13:17:02.345713 31727 net.cpp:150] Setting up ip1
I0408 13:17:02.345775 31727 net.cpp:157] Top shape: 100 1024 (102400)
I0408 13:17:02.345793 31727 net.cpp:165] Memory required for data: 723600
I0408 13:17:02.345827 31727 layer_factory.hpp:77] Creating layer tanh1
I0408 13:17:02.345856 31727 net.cpp:106] Creating Layer tanh1
I0408 13:17:02.345875 31727 net.cpp:454] tanh1 <- ip1
I0408 13:17:02.345896 31727 net.cpp:397] tanh1 -> ip1 (in-place)
I0408 13:17:03.784442 31727 net.cpp:150] Setting up tanh1
I0408 13:17:03.784495 31727 net.cpp:157] Top shape: 100 1024 (102400)
I0408 13:17:03.784543 31727 net.cpp:165] Memory required for data: 1133200
I0408 13:17:03.784556 31727 layer_factory.hpp:77] Creating layer ip1-2
I0408 13:17:03.784590 31727 net.cpp:106] Creating Layer ip1-2
I0408 13:17:03.784606 31727 net.cpp:454] ip1-2 <- ip1
I0408 13:17:03.784632 31727 net.cpp:411] ip1-2 -> ip1-2
I0408 13:17:03.785748 31727 net.cpp:150] Setting up ip1-2
I0408 13:17:03.785779 31727 net.cpp:157] Top shape: 100 10 (1000)
I0408 13:17:03.785792 31727 net.cpp:165] Memory required for data: 1137200
I0408 13:17:03.785823 31727 layer_factory.hpp:77] Creating layer tanh5
I0408 13:17:03.785851 31727 net.cpp:106] Creating Layer tanh5
I0408 13:17:03.785869 31727 net.cpp:454] tanh5 <- ip1-2
I0408 13:17:03.785887 31727 net.cpp:397] tanh5 -> ip1-2 (in-place)
I0408 13:17:03.787051 31727 net.cpp:150] Setting up tanh5
I0408 13:17:03.787082 31727 net.cpp:157] Top shape: 100 10 (1000)
I0408 13:17:03.787094 31727 net.cpp:165] Memory required for data: 1141200
I0408 13:17:03.787107 31727 layer_factory.hpp:77] Creating layer ip2
I0408 13:17:03.787132 31727 net.cpp:106] Creating Layer ip2
I0408 13:17:03.787140 31727 net.cpp:454] ip2 <- ip1-2
I0408 13:17:03.787152 31727 net.cpp:411] ip2 -> ip2
I0408 13:17:03.787366 31727 net.cpp:150] Setting up ip2
I0408 13:17:03.787384 31727 net.cpp:157] Top shape: 100 512 (51200)
I0408 13:17:03.787390 31727 net.cpp:165] Memory required for data: 1346000
I0408 13:17:03.787405 31727 layer_factory.hpp:77] Creating layer tanh2
I0408 13:17:03.787418 31727 net.cpp:106] Creating Layer tanh2
I0408 13:17:03.787425 31727 net.cpp:454] tanh2 <- ip2
I0408 13:17:03.787441 31727 net.cpp:397] tanh2 -> ip2 (in-place)
I0408 13:17:03.788455 31727 net.cpp:150] Setting up tanh2
I0408 13:17:03.788486 31727 net.cpp:157] Top shape: 100 512 (51200)
I0408 13:17:03.788498 31727 net.cpp:165] Memory required for data: 1550800
I0408 13:17:03.788511 31727 layer_factory.hpp:77] Creating layer ip3
I0408 13:17:03.788533 31727 net.cpp:106] Creating Layer ip3
I0408 13:17:03.788542 31727 net.cpp:454] ip3 <- ip2
I0408 13:17:03.788553 31727 net.cpp:411] ip3 -> ip3
I0408 13:17:03.790956 31727 net.cpp:150] Setting up ip3
I0408 13:17:03.790982 31727 net.cpp:157] Top shape: 100 256 (25600)
I0408 13:17:03.790989 31727 net.cpp:165] Memory required for data: 1653200
I0408 13:17:03.791002 31727 layer_factory.hpp:77] Creating layer tanh3
I0408 13:17:03.791016 31727 net.cpp:106] Creating Layer tanh3
I0408 13:17:03.791023 31727 net.cpp:454] tanh3 <- ip3
I0408 13:17:03.791033 31727 net.cpp:397] tanh3 -> ip3 (in-place)
I0408 13:17:03.792075 31727 net.cpp:150] Setting up tanh3
I0408 13:17:03.792101 31727 net.cpp:157] Top shape: 100 256 (25600)
I0408 13:17:03.792109 31727 net.cpp:165] Memory required for data: 1755600
I0408 13:17:03.792115 31727 layer_factory.hpp:77] Creating layer ip4
I0408 13:17:03.792127 31727 net.cpp:106] Creating Layer ip4
I0408 13:17:03.792135 31727 net.cpp:454] ip4 <- ip3
I0408 13:17:03.792145 31727 net.cpp:411] ip4 -> ip4
I0408 13:17:03.793099 31727 net.cpp:150] Setting up ip4
I0408 13:17:03.793126 31727 net.cpp:157] Top shape: 100 10 (1000)
I0408 13:17:03.793133 31727 net.cpp:165] Memory required for data: 1759600
I0408 13:17:03.793150 31727 layer_factory.hpp:77] Creating layer loss
I0408 13:17:03.793167 31727 net.cpp:106] Creating Layer loss
I0408 13:17:03.793174 31727 net.cpp:454] loss <- ip4
I0408 13:17:03.793184 31727 net.cpp:454] loss <- label
I0408 13:17:03.793196 31727 net.cpp:411] loss -> loss
I0408 13:17:03.793218 31727 layer_factory.hpp:77] Creating layer loss
…
I0408 13:17:03.796115 31727 solver.cpp:181] Creating test net (#0) specified by net file: examples/mlp/mlp_train_test.prototxt
I0408 13:17:03.796169 31727 net.cpp:322] The NetState phase (1) differed from the phase (0) specified by a rule in layer mnist
I0408 13:17:03.796315 31727 net.cpp:49] Initializing net from parameters: 
name: "MLP"
state {
  phase: TEST
}
layer {
  name: "mnist"
  type: "Data"
  top: "data"
  top: "label"
  include {
    phase: TEST
  }
  transform_param {
    scale: 0.00390625
  }
  data_param {
    source: "examples/mnist/mnist_test_lmdb"
    batch_size: 100
    backend: LMDB
  }
}
layer {
  name: "ip1"
  type: "InnerProduct"
  bottom: "data"
  top: "ip1"
  param {
    lr_mult: 1
  }
  param {
    lr_mult: 2
  }
  inner_product_param {
    num_output: 1024
    weight_filler {
      type: "xavier"
    }
  }
}
layer {
  name: "tanh1"
  type: "TanH"
  bottom: "ip1"
  top: "ip1"
}
layer {
  name: "ip1-2"
  type: "InnerProduct"
  bottom: "ip1"
  top: "ip1-2"
  param {
    lr_mult: 1
  }
  param {
    lr_mult: 2
  }
  inner_product_param {
    num_output: 10
    weight_filler {
      type: "xavier"
    }
  }
}
layer {
  name: "tanh5"
  type: "TanH"
  bottom: "ip1-2"
  top: "ip1-2"
}
layer {
  name: "ip2"
  type: "InnerProduct"
  bottom: "ip1-2"
  top: "ip2"
  param {
    lr_mult: 1
  }
  param {
    lr_mult: 2
  }
  inner_product_param {
    num_output: 512
    weight_filler {
      type: "xavier"
    }
  }
}
layer {
  name: "tanh2"
  type: "TanH"
  bottom: "ip2"
  top: "ip2"
}
layer {
  name: "ip3"
  type: "InnerProduct"
  bottom: "ip2"
  top: "ip3"
  param {
    lr_mult: 1
  }
  param {
    lr_mult: 2
  }
  inner_product_param {
    num_output: 256
    weight_filler {
      type: "xavier"
    }
  }
}
layer {
  name: "tanh3"
  type: "TanH"
  bottom: "ip3"
  top: "ip3"
}
layer {
  name: "ip4"
  type: "InnerProduct"
  bottom: "ip3"
  top: "ip4"
  param {
    lr_mult: 1
  }
  param {
    lr_mult: 2
  }
  inner_product_param {
    num_output: 10
    weight_filler {
      type: "xavier"
    }
  }
}
layer {
  name: "accuracy"
  type: "Accuracy"
  bottom: "ip4"
  bottom: "label"
  top: "accuracy"
  include {
    phase: TEST
  }
}
layer {
  name: "loss"
  type: "SoftmaxWithLoss"
  bottom: "ip4"
  bottom: "label"
  top: "loss"
}
I0408 13:17:03.796463 31727 layer_factory.hpp:77] Creating layer mnist
I0408 13:17:03.796653 31727 net.cpp:106] Creating Layer mnist
I0408 13:17:03.796700 31727 net.cpp:411] mnist -> data
I0408 13:17:03.796721 31727 net.cpp:411] mnist -> label
I0408 13:17:03.828440 31736 db_lmdb.cpp:38] Opened lmdb examples/mnist/mnist_test_lmdb
I0408 13:17:03.893733 31727 data_layer.cpp:41] output data size: 100,1,28,28
I0408 13:17:03.895623 31727 net.cpp:150] Setting up mnist
I0408 13:17:03.895659 31727 net.cpp:157] Top shape: 100 1 28 28 (78400)
I0408 13:17:03.895673 31727 net.cpp:157] Top shape: 100 (100)
I0408 13:17:03.895681 31727 net.cpp:165] Memory required for data: 314000
I0408 13:17:03.895690 31727 layer_factory.hpp:77] Creating layer label_mnist_1_split
I0408 13:17:03.895709 31727 net.cpp:106] Creating Layer label_mnist_1_split
I0408 13:17:03.895722 31727 net.cpp:454] label_mnist_1_split <- label
I0408 13:17:03.895738 31727 net.cpp:411] label_mnist_1_split -> label_mnist_1_split_0
I0408 13:17:03.895757 31727 net.cpp:411] label_mnist_1_split -> label_mnist_1_split_1
I0408 13:17:03.895970 31727 net.cpp:150] Setting up label_mnist_1_split
I0408 13:17:03.896034 31727 net.cpp:157] Top shape: 100 (100)
I0408 13:17:03.896052 31727 net.cpp:157] Top shape: 100 (100)
I0408 13:17:03.896060 31727 net.cpp:165] Memory required for data: 314800
I0408 13:17:03.896069 31727 layer_factory.hpp:77] Creating layer ip1
I0408 13:17:03.896088 31727 net.cpp:106] Creating Layer ip1
I0408 13:17:03.896096 31727 net.cpp:454] ip1 <- data
I0408 13:17:03.896112 31727 net.cpp:411] ip1 -> ip1
I0408 13:17:03.898809 31737 blocking_queue.cpp:50] Waiting for data
I0408 13:17:03.911057 31727 net.cpp:150] Setting up ip1
I0408 13:17:03.911090 31727 net.cpp:157] Top shape: 100 1024 (102400)
I0408 13:17:03.911098 31727 net.cpp:165] Memory required for data: 724400
I0408 13:17:03.911123 31727 layer_factory.hpp:77] Creating layer tanh1
I0408 13:17:03.911141 31727 net.cpp:106] Creating Layer tanh1
I0408 13:17:03.911156 31727 net.cpp:454] tanh1 <- ip1
I0408 13:17:03.911169 31727 net.cpp:397] tanh1 -> ip1 (in-place)
I0408 13:17:03.912657 31727 net.cpp:150] Setting up tanh1
I0408 13:17:03.912690 31727 net.cpp:157] Top shape: 100 1024 (102400)
I0408 13:17:03.912699 31727 net.cpp:165] Memory required for data: 1134000
I0408 13:17:03.912708 31727 layer_factory.hpp:77] Creating layer ip1-2
I0408 13:17:03.912726 31727 net.cpp:106] Creating Layer ip1-2
I0408 13:17:03.912736 31727 net.cpp:454] ip1-2 <- ip1
I0408 13:17:03.912755 31727 net.cpp:411] ip1-2 -> ip1-2
I0408 13:17:03.913193 31727 net.cpp:150] Setting up ip1-2
I0408 13:17:03.913215 31727 net.cpp:157] Top shape: 100 10 (1000)
I0408 13:17:03.913223 31727 net.cpp:165] Memory required for data: 1138000
I0408 13:17:03.913242 31727 layer_factory.hpp:77] Creating layer tanh5
I0408 13:17:03.913255 31727 net.cpp:106] Creating Layer tanh5
I0408 13:17:03.913264 31727 net.cpp:454] tanh5 <- ip1-2
I0408 13:17:03.913275 31727 net.cpp:397] tanh5 -> ip1-2 (in-place)
I0408 13:17:03.914860 31727 net.cpp:150] Setting up tanh5
I0408 13:17:03.914897 31727 net.cpp:157] Top shape: 100 10 (1000)
I0408 13:17:03.914907 31727 net.cpp:165] Memory required for data: 1142000
I0408 13:17:03.914916 31727 layer_factory.hpp:77] Creating layer ip2
I0408 13:17:03.914932 31727 net.cpp:106] Creating Layer ip2
I0408 13:17:03.914940 31727 net.cpp:454] ip2 <- ip1-2
I0408 13:17:03.914957 31727 net.cpp:411] ip2 -> ip2
I0408 13:17:03.915267 31727 net.cpp:150] Setting up ip2
I0408 13:17:03.915287 31727 net.cpp:157] Top shape: 100 512 (51200)
I0408 13:17:03.915294 31727 net.cpp:165] Memory required for data: 1346800
I0408 13:17:03.915314 31727 layer_factory.hpp:77] Creating layer tanh2
I0408 13:17:03.915336 31727 net.cpp:106] Creating Layer tanh2
I0408 13:17:03.915346 31727 net.cpp:454] tanh2 <- ip2
I0408 13:17:03.915357 31727 net.cpp:397] tanh2 -> ip2 (in-place)
I0408 13:17:03.917034 31727 net.cpp:150] Setting up tanh2
I0408 13:17:03.917068 31727 net.cpp:157] Top shape: 100 512 (51200)
I0408 13:17:03.917076 31727 net.cpp:165] Memory required for data: 1551600
I0408 13:17:03.917085 31727 layer_factory.hpp:77] Creating layer ip3
I0408 13:17:03.917107 31727 net.cpp:106] Creating Layer ip3
I0408 13:17:03.917124 31727 net.cpp:454] ip3 <- ip2
I0408 13:17:03.917152 31727 net.cpp:411] ip3 -> ip3
I0408 13:17:03.920143 31727 net.cpp:150] Setting up ip3
I0408 13:17:03.920173 31727 net.cpp:157] Top shape: 100 256 (25600)
I0408 13:17:03.920181 31727 net.cpp:165] Memory required for data: 1654000
I0408 13:17:03.920197 31727 layer_factory.hpp:77] Creating layer tanh3
I0408 13:17:03.920213 31727 net.cpp:106] Creating Layer tanh3
I0408 13:17:03.920225 31727 net.cpp:454] tanh3 <- ip3
I0408 13:17:03.920240 31727 net.cpp:397] tanh3 -> ip3 (in-place)
I0408 13:17:03.921816 31727 net.cpp:150] Setting up tanh3
I0408 13:17:03.921847 31727 net.cpp:157] Top shape: 100 256 (25600)
I0408 13:17:03.921859 31727 net.cpp:165] Memory required for data: 1756400
I0408 13:17:03.921869 31727 layer_factory.hpp:77] Creating layer ip4
I0408 13:17:03.921885 31727 net.cpp:106] Creating Layer ip4
I0408 13:17:03.921896 31727 net.cpp:454] ip4 <- ip3
I0408 13:17:03.921908 31727 net.cpp:411] ip4 -> ip4
I0408 13:17:03.922169 31727 net.cpp:150] Setting up ip4
I0408 13:17:03.922212 31727 net.cpp:157] Top shape: 100 10 (1000)
I0408 13:17:03.922224 31727 net.cpp:165] Memory required for data: 1760400
I0408 13:17:03.922243 31727 layer_factory.hpp:77] Creating layer ip4_ip4_0_split
I0408 13:17:03.922260 31727 net.cpp:106] Creating Layer ip4_ip4_0_split
I0408 13:17:03.922269 31727 net.cpp:454] ip4_ip4_0_split <- ip4
I0408 13:17:03.922284 31727 net.cpp:411] ip4_ip4_0_split -> ip4_ip4_0_split_0
I0408 13:17:03.922300 31727 net.cpp:411] ip4_ip4_0_split -> ip4_ip4_0_split_1
I0408 13:17:03.922379 31727 net.cpp:150] Setting up ip4_ip4_0_split
I0408 13:17:03.922394 31727 net.cpp:157] Top shape: 100 10 (1000)
I0408 13:17:03.922402 31727 net.cpp:157] Top shape: 100 10 (1000)
I0408 13:17:03.922408 31727 net.cpp:165] Memory required for data: 1768400
I0408 13:17:03.922415 31727 layer_factory.hpp:77] Creating layer accuracy
I0408 13:17:03.922431 31727 net.cpp:106] Creating Layer accuracy
I0408 13:17:03.922441 31727 net.cpp:454] accuracy <- ip4_ip4_0_split_0
I0408 13:17:03.922451 31727 net.cpp:454] accuracy <- label_mnist_1_split_0
I0408 13:17:03.922463 31727 net.cpp:411] accuracy -> accuracy
…
