…
I0426 16:57:24.212237 15912 net.cpp:322] The NetState phase (0) differed from the phase (1) specified by a rule in layer mnist
I0426 16:57:24.212254 15912 net.cpp:322] The NetState phase (0) differed from the phase (1) specified by a rule in layer accuracy
I0426 16:57:24.212314 15912 net.cpp:49] Initializing net from parameters: 
name: "MLP"
state {
  phase: TRAIN
}
layer {
  name: "mnist"
  type: "Data"
  top: "data"
  top: "label"
  include {
    phase: TRAIN
  }
  transform_param {
    scale: 0.00390625
  }
  data_param {
    source: "examples/mnist/mnist_train_lmdb"
    batch_size: 100
    backend: LMDB
  }
}
layer {
  name: "ip4"
  type: "InnerProduct"
  bottom: "data"
  top: "ip4"
  param {
    lr_mult: 1
  }
  param {
    lr_mult: 2
  }
  inner_product_param {
    num_output: 10
    weight_filler {
      type: "xavier"
    }
  }
}
layer {
  name: "loss"
  type: "SoftmaxWithLoss"
  bottom: "ip4"
  bottom: "label"
  top: "loss"
}
I0426 16:57:24.212391 15912 layer_factory.hpp:77] Creating layer mnist
I0426 16:57:24.213142 15912 net.cpp:106] Creating Layer mnist
I0426 16:57:24.213194 15912 net.cpp:411] mnist -> data
I0426 16:57:24.213255 15912 net.cpp:411] mnist -> label
I0426 16:57:24.214226 15917 db_lmdb.cpp:38] Opened lmdb examples/mnist/mnist_train_lmdb
I0426 16:57:24.224367 15912 data_layer.cpp:41] output data size: 100,1,28,28
I0426 16:57:24.225565 15912 net.cpp:150] Setting up mnist
I0426 16:57:24.225630 15912 net.cpp:157] Top shape: 100 1 28 28 (78400)
I0426 16:57:24.225658 15912 net.cpp:157] Top shape: 100 (100)
I0426 16:57:24.225682 15912 net.cpp:165] Memory required for data: 314000
I0426 16:57:24.225715 15912 layer_factory.hpp:77] Creating layer ip4
I0426 16:57:24.225754 15912 net.cpp:106] Creating Layer ip4
I0426 16:57:24.225782 15912 net.cpp:454] ip4 <- data
I0426 16:57:24.225817 15912 net.cpp:411] ip4 -> ip4
I0426 16:57:24.226567 15912 net.cpp:150] Setting up ip4
I0426 16:57:24.226610 15912 net.cpp:157] Top shape: 100 10 (1000)
I0426 16:57:24.226634 15912 net.cpp:165] Memory required for data: 318000
I0426 16:57:24.226675 15912 layer_factory.hpp:77] Creating layer loss
I0426 16:57:24.226716 15912 net.cpp:106] Creating Layer loss
I0426 16:57:24.226740 15912 net.cpp:454] loss <- ip4
I0426 16:57:24.226764 15912 net.cpp:454] loss <- label
I0426 16:57:24.226795 15912 net.cpp:411] loss -> loss
I0426 16:57:24.226831 15912 layer_factory.hpp:77] Creating layer loss
…
I0426 16:57:24.423069 15912 solver.cpp:181] Creating test net (#0) specified by net file: examples/mlp/mlp_train_test.prototxt
I0426 16:57:24.423094 15912 net.cpp:322] The NetState phase (1) differed from the phase (0) specified by a rule in layer mnist
I0426 16:57:24.423146 15912 net.cpp:49] Initializing net from parameters: 
name: "MLP"
state {
  phase: TEST
}
layer {
  name: "mnist"
  type: "Data"
  top: "data"
  top: "label"
  include {
    phase: TEST
  }
  transform_param {
    scale: 0.00390625
  }
  data_param {
    source: "examples/mnist/mnist_test_lmdb"
    batch_size: 100
    backend: LMDB
  }
}
layer {
  name: "ip4"
  type: "InnerProduct"
  bottom: "data"
  top: "ip4"
  param {
    lr_mult: 1
  }
  param {
    lr_mult: 2
  }
  inner_product_param {
    num_output: 10
    weight_filler {
      type: "xavier"
    }
  }
}
layer {
  name: "accuracy"
  type: "Accuracy"
  bottom: "ip4"
  bottom: "label"
  top: "accuracy"
  include {
    phase: TEST
  }
}
layer {
  name: "loss"
  type: "SoftmaxWithLoss"
  bottom: "ip4"
  bottom: "label"
  top: "loss"
}
I0426 16:57:24.423236 15912 layer_factory.hpp:77] Creating layer mnist
I0426 16:57:24.423372 15912 net.cpp:106] Creating Layer mnist
I0426 16:57:24.423387 15912 net.cpp:411] mnist -> data
I0426 16:57:24.423401 15912 net.cpp:411] mnist -> label
I0426 16:57:24.424443 15919 db_lmdb.cpp:38] Opened lmdb examples/mnist/mnist_test_lmdb
I0426 16:57:24.424558 15912 data_layer.cpp:41] output data size: 100,1,28,28
I0426 16:57:24.425436 15912 net.cpp:150] Setting up mnist
I0426 16:57:24.425457 15912 net.cpp:157] Top shape: 100 1 28 28 (78400)
I0426 16:57:24.425469 15912 net.cpp:157] Top shape: 100 (100)
I0426 16:57:24.425475 15912 net.cpp:165] Memory required for data: 314000
I0426 16:57:24.425483 15912 layer_factory.hpp:77] Creating layer label_mnist_1_split
I0426 16:57:24.425498 15912 net.cpp:106] Creating Layer label_mnist_1_split
I0426 16:57:24.425505 15912 net.cpp:454] label_mnist_1_split <- label
I0426 16:57:24.425514 15912 net.cpp:411] label_mnist_1_split -> label_mnist_1_split_0
I0426 16:57:24.425529 15912 net.cpp:411] label_mnist_1_split -> label_mnist_1_split_1
I0426 16:57:24.425593 15912 net.cpp:150] Setting up label_mnist_1_split
I0426 16:57:24.425603 15912 net.cpp:157] Top shape: 100 (100)
I0426 16:57:24.425611 15912 net.cpp:157] Top shape: 100 (100)
I0426 16:57:24.425616 15912 net.cpp:165] Memory required for data: 314800
I0426 16:57:24.425621 15912 layer_factory.hpp:77] Creating layer ip4
I0426 16:57:24.425634 15912 net.cpp:106] Creating Layer ip4
I0426 16:57:24.425642 15912 net.cpp:454] ip4 <- data
I0426 16:57:24.425649 15912 net.cpp:411] ip4 -> ip4
I0426 16:57:24.425787 15912 net.cpp:150] Setting up ip4
I0426 16:57:24.425797 15912 net.cpp:157] Top shape: 100 10 (1000)
I0426 16:57:24.425802 15912 net.cpp:165] Memory required for data: 318800
I0426 16:57:24.425817 15912 layer_factory.hpp:77] Creating layer ip4_ip4_0_split
I0426 16:57:24.425827 15912 net.cpp:106] Creating Layer ip4_ip4_0_split
I0426 16:57:24.425832 15912 net.cpp:454] ip4_ip4_0_split <- ip4
I0426 16:57:24.425839 15912 net.cpp:411] ip4_ip4_0_split -> ip4_ip4_0_split_0
I0426 16:57:24.425849 15912 net.cpp:411] ip4_ip4_0_split -> ip4_ip4_0_split_1
I0426 16:57:24.425884 15912 net.cpp:150] Setting up ip4_ip4_0_split
I0426 16:57:24.425892 15912 net.cpp:157] Top shape: 100 10 (1000)
I0426 16:57:24.425899 15912 net.cpp:157] Top shape: 100 10 (1000)
I0426 16:57:24.425904 15912 net.cpp:165] Memory required for data: 326800
I0426 16:57:24.425909 15912 layer_factory.hpp:77] Creating layer accuracy
I0426 16:57:24.425920 15912 net.cpp:106] Creating Layer accuracy
I0426 16:57:24.425925 15912 net.cpp:454] accuracy <- ip4_ip4_0_split_0
I0426 16:57:24.425931 15912 net.cpp:454] accuracy <- label_mnist_1_split_0
I0426 16:57:24.425940 15912 net.cpp:411] accuracy -> accuracy
…
