…
I0424 16:32:24.736508 10968 net.cpp:322] The NetState phase (0) differed from the phase (1) specified by a rule in layer mnist
I0424 16:32:24.736531 10968 net.cpp:322] The NetState phase (0) differed from the phase (1) specified by a rule in layer accuracy
I0424 16:32:24.736631 10968 net.cpp:49] Initializing net from parameters: 
name: "LeNet"
state {
  phase: TRAIN
}
layer {
  name: "mnist"
  type: "Data"
  top: "data"
  top: "label"
  include {
    phase: TRAIN
  }
  transform_param {
    scale: 0.00390625
  }
  data_param {
    source: "examples/mnist/mnist_train_lmdb"
    batch_size: 64
    backend: LMDB
  }
}
layer {
  name: "conv1"
  type: "Convolution"
  bottom: "data"
  top: "conv1"
  param {
    lr_mult: 1
  }
  param {
    lr_mult: 2
  }
  convolution_param {
    num_output: 20
    kernel_size: 5
    stride: 1
    weight_filler {
      type: "xavier"
    }
    bias_filler {
      type: "constant"
    }
  }
}
layer {
  name: "pool1"
  type: "Pooling"
  bottom: "conv1"
  top: "pool1"
  pooling_param {
    pool: MAX
    kernel_size: 2
    stride: 2
  }
}
layer {
  name: "conv2"
  type: "Convolution"
  bottom: "pool1"
  top: "conv2"
  param {
    lr_mult: 1
  }
  param {
    lr_mult: 2
  }
  convolution_param {
    num_output: 50
    kernel_size: 5
    stride: 1
    weight_filler {
      type: "xavier"
    }
    bias_filler {
      type: "constant"
    }
  }
}
layer {
  name: "pool2"
  type: "Pooling"
  bottom: "conv2"
  top: "pool2"
  pooling_param {
    pool: MAX
    kernel_size: 2
    stride: 2
  }
}
layer {
  name: "ip1"
  type: "InnerProduct"
  bottom: "pool2"
  top: "ip1"
  param {
    lr_mult: 1
  }
  param {
    lr_mult: 2
  }
  inner_product_param {
    num_output: 512
    weight_filler {
      type: "xavier"
    }
    bias_filler {
      type: "constant"
    }
  }
}
layer {
  name: "relu1"
  type: "ReLU"
  bottom: "ip1"
  top: "ip1"
}
layer {
  name: "ip2"
  type: "InnerProduct"
  bottom: "ip1"
  top: "ip2"
  param {
    lr_mult: 1
  }
  param {
    lr_mult: 2
  }
  inner_product_param {
    num_output: 10
    weight_filler {
      type: "xavier"
    }
    bias_filler {
      type: "constant"
    }
  }
}
layer {
  name: "loss"
  type: "SoftmaxWithLoss"
  bottom: "ip2"
  bottom: "label"
  top: "loss"
}
I0424 16:32:24.736724 10968 layer_factory.hpp:77] Creating layer mnist
I0424 16:32:24.737366 10968 net.cpp:106] Creating Layer mnist
I0424 16:32:24.737385 10968 net.cpp:411] mnist -> data
I0424 16:32:24.737426 10968 net.cpp:411] mnist -> label
I0424 16:32:24.738307 10972 db_lmdb.cpp:38] Opened lmdb examples/mnist/mnist_train_lmdb
I0424 16:32:24.747203 10968 data_layer.cpp:41] output data size: 64,1,28,28
I0424 16:32:24.748172 10968 net.cpp:150] Setting up mnist
I0424 16:32:24.748195 10968 net.cpp:157] Top shape: 64 1 28 28 (50176)
I0424 16:32:24.748204 10968 net.cpp:157] Top shape: 64 (64)
I0424 16:32:24.748209 10968 net.cpp:165] Memory required for data: 200960
I0424 16:32:24.748220 10968 layer_factory.hpp:77] Creating layer conv1
I0424 16:32:24.748245 10968 net.cpp:106] Creating Layer conv1
I0424 16:32:24.748255 10968 net.cpp:454] conv1 <- data
I0424 16:32:24.748271 10968 net.cpp:411] conv1 -> conv1
I0424 16:32:24.908608 10968 net.cpp:150] Setting up conv1
I0424 16:32:24.908645 10968 net.cpp:157] Top shape: 64 20 24 24 (737280)
I0424 16:32:24.908653 10968 net.cpp:165] Memory required for data: 3150080
I0424 16:32:24.908676 10968 layer_factory.hpp:77] Creating layer pool1
I0424 16:32:24.908694 10968 net.cpp:106] Creating Layer pool1
I0424 16:32:24.908700 10968 net.cpp:454] pool1 <- conv1
I0424 16:32:24.908709 10968 net.cpp:411] pool1 -> pool1
I0424 16:32:24.909523 10968 net.cpp:150] Setting up pool1
I0424 16:32:24.909540 10968 net.cpp:157] Top shape: 64 20 12 12 (184320)
I0424 16:32:24.909546 10968 net.cpp:165] Memory required for data: 3887360
I0424 16:32:24.909551 10968 layer_factory.hpp:77] Creating layer conv2
I0424 16:32:24.909564 10968 net.cpp:106] Creating Layer conv2
I0424 16:32:24.909569 10968 net.cpp:454] conv2 <- pool1
I0424 16:32:24.909579 10968 net.cpp:411] conv2 -> conv2
I0424 16:32:24.912506 10968 net.cpp:150] Setting up conv2
I0424 16:32:24.912524 10968 net.cpp:157] Top shape: 64 50 8 8 (204800)
I0424 16:32:24.912530 10968 net.cpp:165] Memory required for data: 4706560
I0424 16:32:24.912541 10968 layer_factory.hpp:77] Creating layer pool2
I0424 16:32:24.912554 10968 net.cpp:106] Creating Layer pool2
I0424 16:32:24.912559 10968 net.cpp:454] pool2 <- conv2
I0424 16:32:24.912567 10968 net.cpp:411] pool2 -> pool2
I0424 16:32:24.913409 10968 net.cpp:150] Setting up pool2
I0424 16:32:24.913425 10968 net.cpp:157] Top shape: 64 50 4 4 (51200)
I0424 16:32:24.913431 10968 net.cpp:165] Memory required for data: 4911360
I0424 16:32:24.913436 10968 layer_factory.hpp:77] Creating layer ip1
I0424 16:32:24.913449 10968 net.cpp:106] Creating Layer ip1
I0424 16:32:24.913455 10968 net.cpp:454] ip1 <- pool2
I0424 16:32:24.913463 10968 net.cpp:411] ip1 -> ip1
I0424 16:32:24.916939 10968 net.cpp:150] Setting up ip1
I0424 16:32:24.916954 10968 net.cpp:157] Top shape: 64 512 (32768)
I0424 16:32:24.916959 10968 net.cpp:165] Memory required for data: 5042432
I0424 16:32:24.916968 10968 layer_factory.hpp:77] Creating layer relu1
I0424 16:32:24.916978 10968 net.cpp:106] Creating Layer relu1
I0424 16:32:24.916982 10968 net.cpp:454] relu1 <- ip1
I0424 16:32:24.916988 10968 net.cpp:397] relu1 -> ip1 (in-place)
I0424 16:32:24.917708 10968 net.cpp:150] Setting up relu1
I0424 16:32:24.917724 10968 net.cpp:157] Top shape: 64 512 (32768)
I0424 16:32:24.917731 10968 net.cpp:165] Memory required for data: 5173504
I0424 16:32:24.917735 10968 layer_factory.hpp:77] Creating layer ip2
I0424 16:32:24.917745 10968 net.cpp:106] Creating Layer ip2
I0424 16:32:24.917752 10968 net.cpp:454] ip2 <- ip1
I0424 16:32:24.917760 10968 net.cpp:411] ip2 -> ip2
I0424 16:32:24.918368 10968 net.cpp:150] Setting up ip2
I0424 16:32:24.918383 10968 net.cpp:157] Top shape: 64 10 (640)
I0424 16:32:24.918388 10968 net.cpp:165] Memory required for data: 5176064
I0424 16:32:24.918397 10968 layer_factory.hpp:77] Creating layer loss
I0424 16:32:24.918409 10968 net.cpp:106] Creating Layer loss
I0424 16:32:24.918414 10968 net.cpp:454] loss <- ip2
I0424 16:32:24.918421 10968 net.cpp:454] loss <- label
I0424 16:32:24.918429 10968 net.cpp:411] loss -> loss
I0424 16:32:24.918454 10968 layer_factory.hpp:77] Creating layer loss
…
I0424 16:32:24.920153 10968 solver.cpp:181] Creating test net (#0) specified by net file: examples/mnist/lenet_train_test.prototxt
I0424 16:32:24.920192 10968 net.cpp:322] The NetState phase (1) differed from the phase (0) specified by a rule in layer mnist
I0424 16:32:24.920331 10968 net.cpp:49] Initializing net from parameters: 
name: "LeNet"
state {
  phase: TEST
}
layer {
  name: "mnist"
  type: "Data"
  top: "data"
  top: "label"
  include {
    phase: TEST
  }
  transform_param {
    scale: 0.00390625
  }
  data_param {
    source: "examples/mnist/mnist_test_lmdb"
    batch_size: 100
    backend: LMDB
  }
}
layer {
  name: "conv1"
  type: "Convolution"
  bottom: "data"
  top: "conv1"
  param {
    lr_mult: 1
  }
  param {
    lr_mult: 2
  }
  convolution_param {
    num_output: 20
    kernel_size: 5
    stride: 1
    weight_filler {
      type: "xavier"
    }
    bias_filler {
      type: "constant"
    }
  }
}
layer {
  name: "pool1"
  type: "Pooling"
  bottom: "conv1"
  top: "pool1"
  pooling_param {
    pool: MAX
    kernel_size: 2
    stride: 2
  }
}
layer {
  name: "conv2"
  type: "Convolution"
  bottom: "pool1"
  top: "conv2"
  param {
    lr_mult: 1
  }
  param {
    lr_mult: 2
  }
  convolution_param {
    num_output: 50
    kernel_size: 5
    stride: 1
    weight_filler {
      type: "xavier"
    }
    bias_filler {
      type: "constant"
    }
  }
}
layer {
  name: "pool2"
  type: "Pooling"
  bottom: "conv2"
  top: "pool2"
  pooling_param {
    pool: MAX
    kernel_size: 2
    stride: 2
  }
}
layer {
  name: "ip1"
  type: "InnerProduct"
  bottom: "pool2"
  top: "ip1"
  param {
    lr_mult: 1
  }
  param {
    lr_mult: 2
  }
  inner_product_param {
    num_output: 512
    weight_filler {
      type: "xavier"
    }
    bias_filler {
      type: "constant"
    }
  }
}
layer {
  name: "relu1"
  type: "ReLU"
  bottom: "ip1"
  top: "ip1"
}
layer {
  name: "ip2"
  type: "InnerProduct"
  bottom: "ip1"
  top: "ip2"
  param {
    lr_mult: 1
  }
  param {
    lr_mult: 2
  }
  inner_product_param {
    num_output: 10
    weight_filler {
      type: "xavier"
    }
    bias_filler {
      type: "constant"
    }
  }
}
layer {
  name: "accuracy"
  type: "Accuracy"
  bottom: "ip2"
  bottom: "label"
  top: "accuracy"
  include {
    phase: TEST
  }
}
layer {
  name: "loss"
  type: "SoftmaxWithLoss"
  bottom: "ip2"
  bottom: "label"
  top: "loss"
}
I0424 16:32:24.920430 10968 layer_factory.hpp:77] Creating layer mnist
I0424 16:32:24.920567 10968 net.cpp:106] Creating Layer mnist
I0424 16:32:24.920581 10968 net.cpp:411] mnist -> data
I0424 16:32:24.920593 10968 net.cpp:411] mnist -> label
I0424 16:32:24.921512 10974 db_lmdb.cpp:38] Opened lmdb examples/mnist/mnist_test_lmdb
I0424 16:32:24.921648 10968 data_layer.cpp:41] output data size: 100,1,28,28
I0424 16:32:24.922647 10968 net.cpp:150] Setting up mnist
I0424 16:32:24.922662 10968 net.cpp:157] Top shape: 100 1 28 28 (78400)
I0424 16:32:24.922670 10968 net.cpp:157] Top shape: 100 (100)
I0424 16:32:24.922674 10968 net.cpp:165] Memory required for data: 314000
I0424 16:32:24.922679 10968 layer_factory.hpp:77] Creating layer label_mnist_1_split
I0424 16:32:24.922688 10968 net.cpp:106] Creating Layer label_mnist_1_split
I0424 16:32:24.922693 10968 net.cpp:454] label_mnist_1_split <- label
I0424 16:32:24.922700 10968 net.cpp:411] label_mnist_1_split -> label_mnist_1_split_0
I0424 16:32:24.922710 10968 net.cpp:411] label_mnist_1_split -> label_mnist_1_split_1
I0424 16:32:24.922777 10968 net.cpp:150] Setting up label_mnist_1_split
I0424 16:32:24.922787 10968 net.cpp:157] Top shape: 100 (100)
I0424 16:32:24.922793 10968 net.cpp:157] Top shape: 100 (100)
I0424 16:32:24.922797 10968 net.cpp:165] Memory required for data: 314800
I0424 16:32:24.922801 10968 layer_factory.hpp:77] Creating layer conv1
I0424 16:32:24.922814 10968 net.cpp:106] Creating Layer conv1
I0424 16:32:24.922819 10968 net.cpp:454] conv1 <- data
I0424 16:32:24.922828 10968 net.cpp:411] conv1 -> conv1
I0424 16:32:24.925840 10968 net.cpp:150] Setting up conv1
I0424 16:32:24.925859 10968 net.cpp:157] Top shape: 100 20 24 24 (1152000)
I0424 16:32:24.925868 10968 net.cpp:165] Memory required for data: 4922800
I0424 16:32:24.925886 10968 layer_factory.hpp:77] Creating layer pool1
I0424 16:32:24.925899 10968 net.cpp:106] Creating Layer pool1
I0424 16:32:24.925905 10968 net.cpp:454] pool1 <- conv1
I0424 16:32:24.925925 10968 net.cpp:411] pool1 -> pool1
I0424 16:32:24.926761 10968 net.cpp:150] Setting up pool1
I0424 16:32:24.926779 10968 net.cpp:157] Top shape: 100 20 12 12 (288000)
I0424 16:32:24.926784 10968 net.cpp:165] Memory required for data: 6074800
I0424 16:32:24.926789 10968 layer_factory.hpp:77] Creating layer conv2
I0424 16:32:24.926803 10968 net.cpp:106] Creating Layer conv2
I0424 16:32:24.926810 10968 net.cpp:454] conv2 <- pool1
I0424 16:32:24.926817 10968 net.cpp:411] conv2 -> conv2
I0424 16:32:24.929730 10968 net.cpp:150] Setting up conv2
I0424 16:32:24.929749 10968 net.cpp:157] Top shape: 100 50 8 8 (320000)
I0424 16:32:24.929755 10968 net.cpp:165] Memory required for data: 7354800
I0424 16:32:24.929766 10968 layer_factory.hpp:77] Creating layer pool2
I0424 16:32:24.929775 10968 net.cpp:106] Creating Layer pool2
I0424 16:32:24.929780 10968 net.cpp:454] pool2 <- conv2
I0424 16:32:24.929787 10968 net.cpp:411] pool2 -> pool2
I0424 16:32:24.930726 10968 net.cpp:150] Setting up pool2
I0424 16:32:24.930742 10968 net.cpp:157] Top shape: 100 50 4 4 (80000)
I0424 16:32:24.930747 10968 net.cpp:165] Memory required for data: 7674800
I0424 16:32:24.930752 10968 layer_factory.hpp:77] Creating layer ip1
I0424 16:32:24.930763 10968 net.cpp:106] Creating Layer ip1
I0424 16:32:24.930768 10968 net.cpp:454] ip1 <- pool2
I0424 16:32:24.930778 10968 net.cpp:411] ip1 -> ip1
I0424 16:32:24.934252 10968 net.cpp:150] Setting up ip1
I0424 16:32:24.934268 10968 net.cpp:157] Top shape: 100 512 (51200)
I0424 16:32:24.934274 10968 net.cpp:165] Memory required for data: 7879600
I0424 16:32:24.934285 10968 layer_factory.hpp:77] Creating layer relu1
I0424 16:32:24.934295 10968 net.cpp:106] Creating Layer relu1
I0424 16:32:24.934303 10968 net.cpp:454] relu1 <- ip1
I0424 16:32:24.934309 10968 net.cpp:397] relu1 -> ip1 (in-place)
I0424 16:32:24.935106 10968 net.cpp:150] Setting up relu1
I0424 16:32:24.935122 10968 net.cpp:157] Top shape: 100 512 (51200)
I0424 16:32:24.935128 10968 net.cpp:165] Memory required for data: 8084400
I0424 16:32:24.935133 10968 layer_factory.hpp:77] Creating layer ip2
I0424 16:32:24.935145 10968 net.cpp:106] Creating Layer ip2
I0424 16:32:24.935151 10968 net.cpp:454] ip2 <- ip1
I0424 16:32:24.935158 10968 net.cpp:411] ip2 -> ip2
I0424 16:32:24.935336 10968 net.cpp:150] Setting up ip2
I0424 16:32:24.935348 10968 net.cpp:157] Top shape: 100 10 (1000)
I0424 16:32:24.935353 10968 net.cpp:165] Memory required for data: 8088400
I0424 16:32:24.935360 10968 layer_factory.hpp:77] Creating layer ip2_ip2_0_split
I0424 16:32:24.935367 10968 net.cpp:106] Creating Layer ip2_ip2_0_split
I0424 16:32:24.935372 10968 net.cpp:454] ip2_ip2_0_split <- ip2
I0424 16:32:24.935379 10968 net.cpp:411] ip2_ip2_0_split -> ip2_ip2_0_split_0
I0424 16:32:24.935389 10968 net.cpp:411] ip2_ip2_0_split -> ip2_ip2_0_split_1
I0424 16:32:24.935437 10968 net.cpp:150] Setting up ip2_ip2_0_split
I0424 16:32:24.935446 10968 net.cpp:157] Top shape: 100 10 (1000)
I0424 16:32:24.935451 10968 net.cpp:157] Top shape: 100 10 (1000)
I0424 16:32:24.935456 10968 net.cpp:165] Memory required for data: 8096400
I0424 16:32:24.935461 10968 layer_factory.hpp:77] Creating layer accuracy
I0424 16:32:24.935469 10968 net.cpp:106] Creating Layer accuracy
I0424 16:32:24.935474 10968 net.cpp:454] accuracy <- ip2_ip2_0_split_0
I0424 16:32:24.935480 10968 net.cpp:454] accuracy <- label_mnist_1_split_0
I0424 16:32:24.935487 10968 net.cpp:411] accuracy -> accuracy
…
